models/airrope_modelss.tflite (tflite, 271036 bytes, 9 tensors)

sequential/lstm/TensorArrayV2_1 f4 [30, 1, 64]
0.0 0.0 0.0 0.0 0.0 0.0 0.0 0.0
0.0 0.0 0.0 0.0 0.0 0.0 0.0 0.0
0.0 0.0 0.0 0.0 0.0 0.0 0.0 0.0
0.0 0.0 0.0 0.0 0.0 0.0 0.0 0.0
0.0 0.0 0.0 0.0 0.0 0.0 0.0 0.0
0.0 0.0 0.0 0.0 0.0 0.0 0.0 0.0
0.0 0.0 0.0 0.0 0.0 0.0 0.0 0.0
0.0 0.0 0.0 0.0 0.0 0.0 0.0 0.0
0.0 0.0 0.0 0.0 0.0 0.0 0.0 0.0
0.0 0.0 0.0 0.0 0.0 0.0 0.0 0.0
0.0 0.0 0.0 0.0 0.0 0.0 0.0 0.0
0.0 0.0 0.0 0.0 0.0 0.0 0.0 0.0
0.0 0.0 0.0 0.0 0.0 0.0 0.0 0.0
0.0 0.0 0.0 0.0 0.0 0.0 0.0 0.0
0.0 0.0 0.0 0.0 0.0 0.0 0.0 0.0
0.0 0.0 0.0 0.0 0.0 0.0 0.0 0.0
0.0 0.0 0.0 0.0 0.0 0.0 0.0 0.0
0.0 0.0 0.0 0.0 0.0 0.0 0.0 0.0
0.0 0.0 0.0 0.0 0.0 0.0 0.0 0.0
0.0 0.0 0.0 0.0 0.0 0.0 0.0 0.0
0.0 0.0 0.0 0.0 0.0 0.0 0.0 0.0
0.0 0.0 0.0 0.0 0.0 0.0 0.0 0.0
0.0 0.0 0.0 0.0 0.0 0.0 0.0 0.0
0.0 0.0 0.0 0.0 0.0 0.0 0.0 0.0
0.0 0.0 0.0 0.0 0.0 0.0 0.0 0.0
0.0 0.0 0.0 0.0 0.0 0.0 0.0 0.0
0.0 0.0 0.0 0.0 0.0 0.0 0.0 0.0
0.0 0.0 0.0 0.0 0.0 0.0 0.0 0.0
0.0 0.0 0.0 0.0 0.0 0.0 0.0 0.0
0.0 0.0 0.0 0.0 0.0 0.0 0.0 0.0
0.0 0.0 0.0 0.0 0.0 0.0 0.0 0.0
0.0 0.0 0.0 0.0 0.0 0.0 0.0 0.0
00000000: 0000 0000 0000 0000 0000 0000 0000 0000
00000010: 0000 0000 0000 0000 0000 0000 0000 0000
00000020: 0000 0000 0000 0000 0000 0000 0000 0000
00000030: 0000 0000 0000 0000 0000 0000 0000 0000
00000040: 0000 0000 0000 0000 0000 0000 0000 0000
00000050: 0000 0000 0000 0000 0000 0000 0000 0000
00000060: 0000 0000 0000 0000 0000 0000 0000 0000
00000070: 0000 0000 0000 0000 0000 0000 0000 0000
00000080: 0000 0000 0000 0000 0000 0000 0000 0000
00000090: 0000 0000 0000 0000 0000 0000 0000 0000
000000a0: 0000 0000 0000 0000 0000 0000 0000 0000
000000b0: 0000 0000 0000 0000 0000 0000 0000 0000
000000c0: 0000 0000 0000 0000 0000 0000 0000 0000
000000d0: 0000 0000 0000 0000 0000 0000 0000 0000
000000e0: 0000 0000 0000 0000 0000 0000 0000 0000
000000f0: 0000 0000 0000 0000 0000 0000 0000 0000
00000100: 0000 0000 0000 0000 0000 0000 0000 0000
00000110: 0000 0000 0000 0000 0000 0000 0000 0000
00000120: 0000 0000 0000 0000 0000 0000 0000 0000
00000130: 0000 0000 0000 0000 0000 0000 0000 0000
00000140: 0000 0000 0000 0000 0000 0000 0000 0000
00000150: 0000 0000 0000 0000 0000 0000 0000 0000
00000160: 0000 0000 0000 0000 0000 0000 0000 0000
00000170: 0000 0000 0000 0000 0000 0000 0000 0000
00000180: 0000 0000 0000 0000 0000 0000 0000 0000
00000190: 0000 0000 0000 0000 0000 0000 0000 0000
000001a0: 0000 0000 0000 0000 0000 0000 0000 0000
000001b0: 0000 0000 0000 0000 0000 0000 0000 0000
000001c0: 0000 0000 0000 0000 0000 0000 0000 0000
000001d0: 0000 0000 0000 0000 0000 0000 0000 0000
000001e0: 0000 0000 0000 0000 0000 0000 0000 0000
000001f0: 0000 0000 0000 0000 0000 0000 0000 0000
00000200: 0000 0000 0000 0000 0000 0000 0000 0000
00000210: 0000 0000 0000 0000 0000 0000 0000 0000
00000220: 0000 0000 0000 0000 0000 0000 0000 0000
00000230: 0000 0000 0000 0000 0000 0000 0000 0000
00000240: 0000 0000 0000 0000 0000 0000 0000 0000
00000250: 0000 0000 0000 0000 0000 0000 0000 0000
00000260: 0000 0000 0000 0000 0000 0000 0000 0000
00000270: 0000 0000 0000 0000 0000 0000 0000 0000
00000280: 0000 0000 0000 0000 0000 0000 0000 0000
00000290: 0000 0000 0000 0000 0000 0000 0000 0000
000002a0: 0000 0000 0000 0000 0000 0000 0000 0000
000002b0: 0000 0000 0000 0000 0000 0000 0000 0000
000002c0: 0000 0000 0000 0000 0000 0000 0000 0000
000002d0: 0000 0000 0000 0000 0000 0000 0000 0000
000002e0: 0000 0000 0000 0000 0000 0000 0000 0000
000002f0: 0000 0000 0000 0000 0000 0000 0000 0000
00000300: 0000 0000 0000 0000 0000 0000 0000 0000
00000310: 0000 0000 0000 0000 0000 0000 0000 0000
00000320: 0000 0000 0000 0000 0000 0000 0000 0000
00000330: 0000 0000 0000 0000 0000 0000 0000 0000
00000340: 0000 0000 0000 0000 0000 0000 0000 0000
00000350: 0000 0000 0000 0000 0000 0000 0000 0000
00000360: 0000 0000 0000 0000 0000 0000 0000 0000
00000370: 0000 0000 0000 0000 0000 0000 0000 0000
00000380: 0000 0000 0000 0000 0000 0000 0000 0000
00000390: 0000 0000 0000 0000 0000 0000 0000 0000
000003a0: 0000 0000 0000 0000 0000 0000 0000 0000
000003b0: 0000 0000 0000 0000 0000 0000 0000 0000
000003c0: 0000 0000 0000 0000 0000 0000 0000 0000
000003d0: 0000 0000 0000 0000 0000 0000 0000 0000
000003e0: 0000 0000 0000 0000 0000 0000 0000 0000
000003f0: 0000 0000 0000 0000 0000 0000 0000 0000

sequential/dense/BiasAdd/ReadVariableOp/resource f4 [32]
0.00535187 0.0 0.00014078565 0.010494255 0.0018071464 -0.0064949156 0.010593046 0.005446784
-0.020192962 -0.005223446 -0.0132467775 -0.0052850987 -0.010655569 0.0051155575 0.005587068 0.0050700163
0.005167957 -0.0044032154 0.007505594 -0.002822729 -0.0052048173 0.00581449 0.005076215 0.012262301
-0.0052607367 0.0056876224 -0.0052030683 0.0 0.0051524783 -0.0034390104 0.0025690992 -0.008520012
00000000: bd5e af3b 0000 0000 dc9f 1339 19f0 2b3c
00000010: c5dd ec3a 4dd3 d4bb 758e 2d3c f07a b23b
00000020: b66b a5bc 7129 abbb 0309 59bc 9f2e adbb
00000030: b294 2ebc 68a0 a73b b913 b73b 6122 a63b
00000040: f757 a93b d948 90bb 7cf1 f53b 89fd 38bb
00000050: 2c8d aabb 7a87 be3b 6156 a63b d1e7 483c
00000060: 4262 acbb 3c5f ba3b 807e aabb 0000 0000
00000070: 1fd6 a83b 0561 61bb 555e 283b 8597 0bbc

sequential/dense_1/BiasAdd/ReadVariableOp/resource f4 [2]
0.005203909 -0.0052039092
00000000: 8d85 aa3b 8e85 aabb

sequential/lstm/lstm_cell_1/BiasAdd/ReadVariableOp/resource f4 [256]
-9.204941e-08 0.008708084 0.00062229263 0.0055198437 0.0034192486 0.019565767 1.5028884e-09 0.0057554757
0.013819968 0.011286766 -0.010393807 -0.00739932 0.011519168 -0.004544883 -0.0031777394 0.0076659466
0.0 -0.012450287 0.0055780057 -0.0069157165 0.011259207 -0.0033411323 0.0 -0.0031535083
-0.00025624965 1.402571e-11 0.010507263 -0.0030826258 -0.007269393 0.006506789 -0.006454366 -0.0055725058
1.8378021e-05 2.6683497e-11 -0.00081885414 0.002895227 0.004852739 -0.00029428396 0.008505241 0.0031252222
-0.0115192 -0.006501268 -0.00087089534 -0.0058097546 0.012282792 -0.0043123136 0.0033531182 0.008628195
-0.01246569 -4.692775e-07 -0.008779363 -2.1558855e-05 -0.011097563 -0.0072481544 0.0024151132 -0.0011058314
-0.0023576615 -0.008063047 -0.011085761 0.0057352013 0.0 -0.0072383336 -0.0019064416 0.007747568
1.0 1.0078439 0.9999199 1.005604 1.0022329 1.0179323 1.0 1.0094231
1.0125141 1.0114787 0.99008614 0.9924147 1.0107223 0.9979815 0.99582255 1.0061405
1.0 0.9897591 1.006783 0.9932229 1.0122811 0.9944929 1.0 0.9990839
0.99932 1.0 1.010779 0.996012 0.99286336 1.006672 0.99464476 0.9941289
0.9999985 1.0 1.0021969 1.0034388 1.0035924 0.9996046 1.0093331 1.0029842
0.9883501 0.9972216 0.9999603 0.99400914 1.0149192 0.9971063 1.0010885 1.0102676
0.98970896 1.0 0.99079376 0.9999996 0.98913425 0.99322975 1.0021429 0.999292
0.99953705 0.99576104 0.99079007 0.9999231 1.0 0.99269867 0.99888855 1.0082756
-1.6607187e-06 0.0022609606 -0.00044703425 -0.0089051835 0.0059216185 0.012382465 1.48370765e-08 0.014319038
0.0025868367 0.008994083 -0.0052252314 -0.004054232 0.011702366 -0.001505302 -0.0038606618 0.003268933
0.0 -0.0068595894 0.009908076 -0.007728558 -0.0025457048 -0.0058335727 0.0 -0.0077633546
-0.0044456 9.1682856e-10 0.010075183 -0.0059767244 -0.013524921 -0.0026701658 -0.008016134 -0.0059530484
0.00087020017 1.4051787e-08 0.0009967074 -0.0031336437 0.004633067 -0.004574564 0.008123853 0.005825744
-0.009941915 -0.006269266 -0.00046041195 0.004448005 0.014478335 -0.0061314255 0.003642404 0.002427199
-0.005517351 -1.4752832e-05 -0.010350191 -0.0011266622 -0.0060420325 -0.008245735 0.006045497 0.0056702523
-0.0035974008 -0.009546535 -0.013589301 -0.0037409018 0.0 -0.010334857 -0.008983674 0.009034442
-9.518107e-08 0.0065326863 4.1477502e-05 0.0056480737 0.0020574713 0.01742261 6.325337e-10 0.0062872223
0.013579735 0.012255291 -0.01107209 -0.0073360247 0.011044906 -0.002774029 -0.0017679727 0.0077329953
0.0 -0.0116437655 0.0069035166 -0.0068920185 0.013492888 -0.0029023525 0.0 -0.0017969966
-0.00017931045 1.3077961e-11 0.011125008 -0.0017304964 -0.007924064 0.004241471 -0.0058669318 -0.00571604
1.2477032e-05 6.6432965e-10 0.001439059 0.002329732 0.0047892174 -0.00012597287 0.008436121 0.0027451732
-0.011496156 -0.006232318 -0.00014398954 -0.006399658 0.012742398 -0.004656094 0.002411773 0.0075150216
-0.012399585 -3.2268945e-06 -0.008532638 -0.00017214035 -0.010865239 -0.0072018476 0.0016437983 -0.0015295187
-0.00062526145 -0.009172383 -0.010643343 0.0007045258 0.0 -0.0070834975 -0.0025116694 0.007468504
00000000: b3ac c5b3 5aac 0e3c 5a21 233a cedf b43b
00000010: 7915 603b 6348 a03c 2f8e ce30 6e98 bc3b
00000020: 266d 623c 21ec 383c c94a 2abc ff75 f2bb
00000030: e4ba 3c3c 3eed 94bb 9f41 50bb 9f32 fb3b
00000040: 0000 0000 4afc 4bbc b4c7 b63b 3c9d e2bb
00000050: 8978 383c e6f6 5abb 0000 0000 17ab 4ebb
00000060: 3f59 86b9 2fbe 762d a826 2c3c e105 4abb
00000070: 1734 eebb e736 d53b 257f d3bb 9199 b6bb
00000080: 802a 9a37 e5b5 ea2d 5fa8 56ba d9bd 3d3b
00000090: ba03 9f3b 204a 9ab9 9159 0b3c 87d0 4c3b
000000a0: 07bb 3cbc 9708 d5bb cc4c 64ba c15f bebb
000000b0: c33d 493c 4f4e 8dbb fdbf 5b3b 465d 0d3c
000000c0: e53c 4cbc 02f1 fbb4 51d7 0fbc 4ad9 b4b7
000000d0: 8ed2 35bc ed81 edbb e046 1e3b 8bf1 90ba
000000e0: ff82 1abb df1a 04bc 0da1 35bc 5bee bb3b
000000f0: 0000 0000 8b2f edbb 91e1 f9ba 50df fd3b
00000100: 0000 803f 0701 813f c0fa 7f3f a2b7 803f
00000110: 2b49 803f 9b4b 823f 0000 803f c734 813f
00000120: 109a 813f 2278 813f 4976 7d3f e40e 7e3f
00000130: 595f 813f b77b 7f3f 3aee 7e3f 36c9 803f
00000140: 0000 803f da60 7d3f 44de 803f db43 7e3f
00000150: 6d92 813f 1697 7e3f 0000 803f f6c3 7f3f
00000160: 6fd3 7f3f 0000 803f 3561 813f a4fa 7e3f
00000170: 4b2c 7e3f a1da 803f 0aa1 7e3f 3b7f 7e3f
00000180: e7ff 7f3f 0000 803f fd47 803f af70 803f
00000190: b775 803f 16e6 7f3f d431 813f c961 803f
000001a0: 8304 7d3f ea49 7f3f 66fd 7f3f 6277 7e3f
000001b0: dfe8 813f 5c42 7f3f ab23 803f 7350 813f
000001c0: 915d 7d3f 0000 803f a9a4 7d3f f9ff 7f3f
000001d0: e737 7d3f 4e44 7e3f 3846 803f 9ad1 7f3f
000001e0: a9e1 7f3f 32ea 7e3f 6ba4 7d3f f6fa 7f3f
000001f0: 0000 803f 8021 7e3f 29b7 7f3f 2d0f 813f
00000200: dce5 deb5 a02c 143b ec5f eab9 0ce7 11bc
00000210: 230a c23b d3df 4a3c 27e6 7e32 669a 6a3c
00000220: eb87 293b eb5b 133c 6b38 abbb 5dd9 84bb
00000230: 48bb 3f3c 8e4d c5ba 2803 7dbb 983b 563b
00000240: 0000 0000 68c6 e0bb 7c55 223c d83f fdbb
00000250: d7d5 26bb 8e27 bfbb 0000 0000 bd63 febb
00000260: 65ac 91bb 1304 7c30 6112 253c 66d8 c3bb
00000270: a197 5dbc f3fd 2ebb 1a56 03bc ca11 c3bb
00000280: 251e 643a 6a68 7132 f3a3 823a d15d 4dbb
00000290: fcd0 973b 39e6 95bb e919 053c e2e5 be3b
000002a0: 6ae3 22bc 6a6e cdbb 7263 f1b9 92c0 913b
000002b0: 8a36 6d3c 20ea c8bb 66b5 6e3b a411 1f3b
000002c0: e5ca b4bb ee82 77b7 d993 29bc 83ac 93ba
000002d0: 3efc c5bb 1f19 07bc 4e19 c63b 86cd b93b
000002e0: 5fc2 6bbb 1269 1cbc a9a5 5ebc eb29 75bb
000002f0: 0000 0000 8853 29bc 4330 13bc 3205 143c
00000300: 5966 ccb3 2510 d63b 21f8 2d38 7a13 b93b
00000310: a4d6 063b ddb9 8e3c 9ade 2d30 0b05 ce3b
00000320: 897d 5e3c 6bca 483c b667 35bc 0963 f0bb
00000330: b2f5 343c 7ccc 35bb 52bb e7ba 1165 fd3b
00000340: 0000 0000 7ec5 3ebc e536 e23b 71d6 e1bb
00000350: 4611 5d3c 6535 3ebb 0000 0000 3389 ebba
00000360: 4805 3cb9 e611 662d aa45 363c d3d1 e2ba
00000370: efd3 01bc 0afc 8a3b 643f c0bb 9e4d bbbb
00000380: 7254 5137 0b9c 3630 cf9e bc3a 6bae 183b
00000390: deee 9c3b 9617 04b9 a837 0a3c 5de8 333b
000003a0: 605a 3cbc 7938 ccbb e6fb 16b9 39b4 d1bb
000003b0: 7ec5 503c 2692 98bb d60e 1e3b 9240 f63b
000003c0: a127 4bbc a08d 58b6 7acc 0bbc 9380 34b9
000003d0: 1e04 32bc 7afd ebbb b874 d73a 227a c8ba
000003e0: 96e8 23ba c347 16bc 6b61 2ebc edaf 383a
000003f0: 0000 0000 af1c e8bb d29a 24bb 5aba f43b

sequential/dense/MatMul f4 [32, 64]
-0.23915096 -0.060537513 0.07418028 0.14088088 0.1683713 0.042796984 0.21496332 0.010493164
0.005429457 0.25099733 -0.14669849 -0.19099356 -0.16660887 -0.108401716 -0.16214967 -0.1816469
-0.049301147 0.0167667 0.19246033 -0.040828977 -0.039725803 -0.100669 0.17986375 0.0026134916
0.049782187 -0.07829678 0.15311696 0.16476136 0.12764141 -0.025823625 -0.12316292 0.17276406
-0.12263459 -0.025521994 0.23388933 0.11582218 0.15683456 -0.1400425 0.2146295 0.16678512
0.06384249 -0.21979003 0.20911966 -0.016922345 0.085804775 0.19779472 0.050688714 -0.2258707
0.03195133 0.23139721 -0.07501242 0.028668035 -0.10918755 -0.19554374 -0.044972967 -0.2271119
0.23588699 -0.08699447 0.12252279 -0.06016855 0.031332552 -0.20036279 -0.24503109 -0.124878906
0.067098856 -0.13386106 -0.13925356 -0.22796637 -0.11913568 -0.2186895 -0.07274538 0.24514788
0.009725809 -0.21086007 0.18490392 0.12120026 0.0266217 0.1397456 0.12999958 -0.23204696
-0.18161207 -0.15905493 0.19398147 0.18050158 0.09805632 -0.16934317 0.013300121 0.041086257
-0.099794924 -0.0863387 -0.19487071 0.23187506 -0.1960774 0.14877939 0.09173709 0.016263664
-0.1919316 0.14959025 -0.1977917 -0.23925322 -0.18437213 0.062049508 0.20425874 0.14983314
0.17300916 0.16334635 -0.10846746 0.16328198 0.079042435 -0.0729028 -0.07431805 0.23321539
-0.10356361 0.19213605 -0.16120273 0.22359198 -0.01672256 0.026372254 0.088545084 -0.15098047
0.21427137 -0.10414761 0.18240404 0.021196604 0.06172967 -0.087497175 -0.045528293 0.025297582
-0.08930434 0.17999409 -0.09325299 -0.13981667 -0.23987839 -0.14628778 -0.12022239 -0.055506557
-0.014302186 -0.053293556 9.898499e-05 0.11465785 0.13916907 -0.205225 -0.22329918 0.0056944573
0.13057542 0.036847822 -0.2271563 -0.10669699 -0.13815562 -0.10438977 0.10646409 -0.09395451
0.23848128 -0.12135649 -0.23300749 0.16348822 -0.07843614 0.0573511 -0.16625543 -0.116907716
0.09555223 -0.036834598 0.21395998 0.080666214 -0.18815069 0.2355439 0.0065404577 0.085876666
-0.12775172 -0.121480964 0.19016796 0.1426129 0.06143976 -0.21237244 -0.1832197 -0.19680505
0.025089506 -0.05874634 -0.24249595 -0.21904965 -0.02622539 -0.067201816 -0.046270102 -0.00445762
-0.060342517 -0.109940745 -0.07290279 0.18657337 -0.13998002 0.00061738037 0.043539707 0.0073020863
0.08070016 -0.21641843 0.095274016 -0.13095099 0.18542409 0.06756206 -0.1115371 -0.16724946
-0.16209336 0.09234569 0.19872786 0.048331227 0.21154799 -0.060295127 0.17687556 0.18996398
-0.18229592 0.094042055 0.041510373 -0.045925256 -0.044111658 0.19608791 0.15807545 0.18339491
-0.015671832 -0.124293625 -0.15969557 -0.04079986 0.13235825 -0.05973277 0.12870818 -0.12794952
0.035159945 0.10515946 0.15440321 0.041305248 -0.23273231 -0.042434804 -0.10118264 -0.23777741
-0.0670287 -0.10379007 -0.093351364 -0.02120829 0.044591542 0.14085348 -0.14592226 -0.17278536
-0.0007348126 -0.016230643 0.081197865 -0.17500085 -0.016957192 0.17779395 0.18194039 0.1579332
-0.09663464 0.1266932 -0.16144533 -0.22840914 -0.22165346 0.068505205 -0.013989983 0.23649202
00000000: fde3 74be 2ff6 77bd d5eb 973d 1443 103e
00000010: 8769 2c3e e44b 2f3d 581f 5c3e 85eb 2b3c
00000020: 96e9 b13b b982 803e 2138 16be d193 43be
00000030: 849b 2abe b801 debd 900a 26be a501 3abe
00000040: 00f0 49bd 525a 893c 5214 453e 493c 27bd
00000050: 86b7 22bd 8c2b cebd 342e 383e 1d47 2b3b
00000060: 68e8 4b3d 105a a0bd b1ca 1c3e 34b7 283e
00000070: 6eb4 023e 118c d3bc d73c fcbd 10e9 303e
00000080: d827 fbbd 8013 d1bc af80 6f3e 2e34 ed3d
00000090: 3d99 203e 4d67 0fbe d6c7 5b3e b8c9 2a3e
000000a0: dabf 823d a310 61be 7723 563e bba0 8abc
000000b0: 6aba af3d b38a 4a3e f89e 4f3d a64a 67be
000000c0: 66df 023d 64f3 6c3e 1da0 99bd 3ad9 ea3c
000000d0: b99d dfbd 9e3c 48be 9335 38bd 0690 68be
000000e0: 5c8c 713e 282a b2bd 3bed fa3d 4c73 76bd
000000f0: 9056 003d e72b 4dbe 6ee9 7abe 83c0 ffbd
00000100: 206b 893d e012 09be 7c98 0ebe 0470 69be
00000110: 68fd f3bd 24f0 5fbe 88fb 94bd 0c08 7b3e
00000120: 0059 1f3c b4eb 57be 7457 3d3e d837 f83d
00000130: c015 da3c 7819 0f3e 9c1e 053e b89d 6dbe
00000140: 84f8 39be 4cdf 22be 14a3 463e 68d5 383e
00000150: c0d1 c83d 4c68 2dbe c0e8 593c 104a 283d
00000160: 4861 ccbd 58d2 b0bd 308c 47be a870 6d3e
00000170: 84c8 48be a059 183e a8e0 bb3d 603b 853c
00000180: b889 44be 302e 193e e889 4abe ccfe 74be
00000190: 0ccc 3cbe a027 7e3d 3429 513e dc6d 193e
000001a0: 5029 313e 4444 273e 3024 debd 6433 273e
000001b0: 00e1 a13d 104e 95bd 1034 98bd 04d0 6e3e
000001c0: 2819 d4bd 50bf 443e 5412 25be 4cf5 643e
000001d0: c0fd 88bc a00a d83c 2057 b53d a09a 1abe
000001e0: f469 5b3e 584b d5bd 20c8 3a3e 80a4 ad3c
000001f0: 40d8 7c3d b831 b3bd e07b 3abd e03c cf3c
00000200: 32e5 b6bd 5f50 383e 6cfb bebd 1a2c 0fbe
00000210: aea2 75be 77cc 15be 2837 f6bd d85a 63bd
00000220: b753 6abc 584a 5abd 2996 cf38 bcd1 ea3d
00000230: 5682 0e3e 8126 52be 8aa8 64be 9298 ba3b
00000240: 90b5 053e beed 163d a99b 68be f483 dabd
00000250: ab78 0dbe 4eca d5bd d809 da3d 396b c0bd
00000260: 7034 743e c089 f8bd 8499 6ebe 7569 273e
00000270: 21a3 a0bd fde8 6a3d dd3e 2abe 506d efbd
00000280: e3b0 c33d e0df 16bd 5318 5b3e 5434 a53d
00000290: 93aa 40be 6c32 713e 5651 d63b 1be0 af3d
000002a0: 59d1 02be 03cb f8bd 64bb 423e 1e09 123e
000002b0: 42a8 7b3d 2978 59be f29d 3bbe 4387 49be
000002c0: 8288 cd3c 01a0 70bd dc50 78be 8d4e 60be
000002d0: a1d6 d6bc 1ba1 89bd b885 3dbd 3a11 92bb
000002e0: b729 77bd 9d28 e1bd 0f4e 95bd 170d 3f3e
000002f0: ec56 0fbe b2d7 213a b156 323d 5746 ef3b
00000300: 2046 a53d cb9c 5dbe 061f c33d 0418 06be
00000310: d0df 3d3e fa5d 8a3d 906d e4bd 7143 2bbe
00000320: cdfb 25be bd1f bd3d 517f 4b3e f7f6 453d
00000330: 09a0 583e 06f8 76bd de1e 353e eb85 423e
00000340: c8ab 3abe 1f99 c03d c806 2a3d 1f1c 3cbd
00000350: 6dae 34bd 45cb 483e 88de 213e e0cb 3b3e
00000360: 3762 80bc a88d febd 3c87 23be c11d 27bd
00000370: ec88 073e 59aa 74bd 14cc 033e 3305 03be
00000380: e003 103d d85d d73d e01b 1e3e b12f 293d
00000390: 6151 6ebe 1ed0 2dbd d838 cfbd ec7b 73be
000003a0: 5846 89bd e38f d4bd 002f bfbd 02bd adbc
000003b0: 9fa5 363d e53b 103e a56c 15be a5ee 30be
000003c0: 70a0 40ba 20f6 84bc 114b a63d 6c33 33be
000003d0: cfe9 8abc 9e0f 363e 954e 3a3e 3eb9 213e
000003e0: 62e8 c5bd ddbb 013e ed51 25be 16e4 69be
000003f0: 20f9 62be 754c 8c3d 3e36 65bc f72a 723e

sequential/dense_1/MatMul f4 [2, 32]
0.25124538 0.29061797 -0.43416247 0.35267588 0.39195535 0.06789162 0.39189267 0.37830862
-0.3402179 -0.3927952 0.2776925 -0.17463641 0.27698278 0.1134628 0.2890895 0.113253884
0.22623654 0.19233757 0.19316387 0.14296246 -0.3278516 -0.028270233 0.08359748 -0.32600373
0.048843585 0.1165564 -0.28513795 0.2192165 -0.0530485 -0.13944887 0.14308614 -0.033853948
0.024686173 -0.39973426 -0.14543992 0.20608173 -0.24228968 0.0820531 -0.37344748 -0.39421278
-0.36773625 0.3816752 -0.36667043 0.002497114 -0.05376151 -0.028741485 0.050360434 -0.007479311
-0.18468226 -0.27908343 0.038148925 0.027027436 0.35481074 -0.34190762 -0.023739697 -0.06628534
0.2980621 0.40151128 0.19770674 0.38673243 -0.3336656 -0.045943815 0.044541188 0.061953183
00000000: 3ca3 803e e1cb 943e 8b4a debe ef91 b43e
00000010: 5fae c83e c30a 8b3d 28a6 c83e abb1 c13e
00000020: 0a31 aebe 741c c9be b62d 8e3e e3d3 32be
00000030: b0d0 8d3e 2f5f e83d 8a03 943e a7f1 e73d
00000040: 8daa 673e 24f4 443e c0cc 453e c064 123e
00000050: 2adc a7be fa96 e7bc 2835 ab3d f6e9 a6be
00000060: 3610 483d 1fb5 ee3d 9afd 91be 4a7a 603e
00000070: 6249 59bd afcb 0ebe 2c85 123e 70aa 0abd
00000080: a83a ca3c f8a9 ccbe 34ee 14be 1707 533e
00000090: c91a 78be 750b a83d 8234 bfbe 42d6 c9be
000000a0: ed47 bcbe ef6a c33e 3abc bbbe 9fa6 233b
000000b0: 0735 5cbd 4373 ebbc be46 4e3d 0215 f5bb
000000c0: 591d 3dbe 06e4 8ebe 0c42 1c3d a468 dd3c
000000d0: c1a9 b53e 840e afbe c179 c2bc 9cc0 87bd
000000e0: 989b 983e e392 cd3e a373 4a3e cb01 c63e
000000f0: 38d6 aabe 952f 3cbd d270 363d 9fc2 7d3d

sequential/lstm/lstm_cell_1/BiasAdd/ReadVariableOp/resource1 f4 [256]
-9.204941e-08 0.008708084 0.00062229263 0.0055198437 0.0034192486 0.019565767 1.5028884e-09 0.0057554757
0.013819968 0.011286766 -0.010393807 -0.00739932 0.011519168 -0.004544883 -0.0031777394 0.0076659466
0.0 -0.012450287 0.0055780057 -0.0069157165 0.011259207 -0.0033411323 0.0 -0.0031535083
-0.00025624965 1.402571e-11 0.010507263 -0.0030826258 -0.007269393 0.006506789 -0.006454366 -0.0055725058
1.8378021e-05 2.6683497e-11 -0.00081885414 0.002895227 0.004852739 -0.00029428396 0.008505241 0.0031252222
-0.0115192 -0.006501268 -0.00087089534 -0.0058097546 0.012282792 -0.0043123136 0.0033531182 0.008628195
-0.01246569 -4.692775e-07 -0.008779363 -2.1558855e-05 -0.011097563 -0.0072481544 0.0024151132 -0.0011058314
-0.0023576615 -0.008063047 -0.011085761 0.0057352013 0.0 -0.0072383336 -0.0019064416 0.007747568
1.0 1.0078439 0.9999199 1.005604 1.0022329 1.0179323 1.0 1.0094231
1.0125141 1.0114787 0.99008614 0.9924147 1.0107223 0.9979815 0.99582255 1.0061405
1.0 0.9897591 1.006783 0.9932229 1.0122811 0.9944929 1.0 0.9990839
0.99932 1.0 1.010779 0.996012 0.99286336 1.006672 0.99464476 0.9941289
0.9999985 1.0 1.0021969 1.0034388 1.0035924 0.9996046 1.0093331 1.0029842
0.9883501 0.9972216 0.9999603 0.99400914 1.0149192 0.9971063 1.0010885 1.0102676
0.98970896 1.0 0.99079376 0.9999996 0.98913425 0.99322975 1.0021429 0.999292
0.99953705 0.99576104 0.99079007 0.9999231 1.0 0.99269867 0.99888855 1.0082756
-1.6607187e-06 0.0022609606 -0.00044703425 -0.0089051835 0.0059216185 0.012382465 1.48370765e-08 0.014319038
0.0025868367 0.008994083 -0.0052252314 -0.004054232 0.011702366 -0.001505302 -0.0038606618 0.003268933
0.0 -0.0068595894 0.009908076 -0.007728558 -0.0025457048 -0.0058335727 0.0 -0.0077633546
-0.0044456 9.1682856e-10 0.010075183 -0.0059767244 -0.013524921 -0.0026701658 -0.008016134 -0.0059530484
0.00087020017 1.4051787e-08 0.0009967074 -0.0031336437 0.004633067 -0.004574564 0.008123853 0.005825744
-0.009941915 -0.006269266 -0.00046041195 0.004448005 0.014478335 -0.0061314255 0.003642404 0.002427199
-0.005517351 -1.4752832e-05 -0.010350191 -0.0011266622 -0.0060420325 -0.008245735 0.006045497 0.0056702523
-0.0035974008 -0.009546535 -0.013589301 -0.0037409018 0.0 -0.010334857 -0.008983674 0.009034442
-9.518107e-08 0.0065326863 4.1477502e-05 0.0056480737 0.0020574713 0.01742261 6.325337e-10 0.0062872223
0.013579735 0.012255291 -0.01107209 -0.0073360247 0.011044906 -0.002774029 -0.0017679727 0.0077329953
0.0 -0.0116437655 0.0069035166 -0.0068920185 0.013492888 -0.0029023525 0.0 -0.0017969966
-0.00017931045 1.3077961e-11 0.011125008 -0.0017304964 -0.007924064 0.004241471 -0.0058669318 -0.00571604
1.2477032e-05 6.6432965e-10 0.001439059 0.002329732 0.0047892174 -0.00012597287 0.008436121 0.0027451732
-0.011496156 -0.006232318 -0.00014398954 -0.006399658 0.012742398 -0.004656094 0.002411773 0.0075150216
-0.012399585 -3.2268945e-06 -0.008532638 -0.00017214035 -0.010865239 -0.0072018476 0.0016437983 -0.0015295187
-0.00062526145 -0.009172383 -0.010643343 0.0007045258 0.0 -0.0070834975 -0.0025116694 0.007468504
00000000: b3ac c5b3 5aac 0e3c 5a21 233a cedf b43b
00000010: 7915 603b 6348 a03c 2f8e ce30 6e98 bc3b
00000020: 266d 623c 21ec 383c c94a 2abc ff75 f2bb
00000030: e4ba 3c3c 3eed 94bb 9f41 50bb 9f32 fb3b
00000040: 0000 0000 4afc 4bbc b4c7 b63b 3c9d e2bb
00000050: 8978 383c e6f6 5abb 0000 0000 17ab 4ebb
00000060: 3f59 86b9 2fbe 762d a826 2c3c e105 4abb
00000070: 1734 eebb e736 d53b 257f d3bb 9199 b6bb
00000080: 802a 9a37 e5b5 ea2d 5fa8 56ba d9bd 3d3b
00000090: ba03 9f3b 204a 9ab9 9159 0b3c 87d0 4c3b
000000a0: 07bb 3cbc 9708 d5bb cc4c 64ba c15f bebb
000000b0: c33d 493c 4f4e 8dbb fdbf 5b3b 465d 0d3c
000000c0: e53c 4cbc 02f1 fbb4 51d7 0fbc 4ad9 b4b7
000000d0: 8ed2 35bc ed81 edbb e046 1e3b 8bf1 90ba
000000e0: ff82 1abb df1a 04bc 0da1 35bc 5bee bb3b
000000f0: 0000 0000 8b2f edbb 91e1 f9ba 50df fd3b
00000100: 0000 803f 0701 813f c0fa 7f3f a2b7 803f
00000110: 2b49 803f 9b4b 823f 0000 803f c734 813f
00000120: 109a 813f 2278 813f 4976 7d3f e40e 7e3f
00000130: 595f 813f b77b 7f3f 3aee 7e3f 36c9 803f
00000140: 0000 803f da60 7d3f 44de 803f db43 7e3f
00000150: 6d92 813f 1697 7e3f 0000 803f f6c3 7f3f
00000160: 6fd3 7f3f 0000 803f 3561 813f a4fa 7e3f
00000170: 4b2c 7e3f a1da 803f 0aa1 7e3f 3b7f 7e3f
00000180: e7ff 7f3f 0000 803f fd47 803f af70 803f
00000190: b775 803f 16e6 7f3f d431 813f c961 803f
000001a0: 8304 7d3f ea49 7f3f 66fd 7f3f 6277 7e3f
000001b0: dfe8 813f 5c42 7f3f ab23 803f 7350 813f
000001c0: 915d 7d3f 0000 803f a9a4 7d3f f9ff 7f3f
000001d0: e737 7d3f 4e44 7e3f 3846 803f 9ad1 7f3f
000001e0: a9e1 7f3f 32ea 7e3f 6ba4 7d3f f6fa 7f3f
000001f0: 0000 803f 8021 7e3f 29b7 7f3f 2d0f 813f
00000200: dce5 deb5 a02c 143b ec5f eab9 0ce7 11bc
00000210: 230a c23b d3df 4a3c 27e6 7e32 669a 6a3c
00000220: eb87 293b eb5b 133c 6b38 abbb 5dd9 84bb
00000230: 48bb 3f3c 8e4d c5ba 2803 7dbb 983b 563b
00000240: 0000 0000 68c6 e0bb 7c55 223c d83f fdbb
00000250: d7d5 26bb 8e27 bfbb 0000 0000 bd63 febb
00000260: 65ac 91bb 1304 7c30 6112 253c 66d8 c3bb
00000270: a197 5dbc f3fd 2ebb 1a56 03bc ca11 c3bb
00000280: 251e 643a 6a68 7132 f3a3 823a d15d 4dbb
00000290: fcd0 973b 39e6 95bb e919 053c e2e5 be3b
000002a0: 6ae3 22bc 6a6e cdbb 7263 f1b9 92c0 913b
000002b0: 8a36 6d3c 20ea c8bb 66b5 6e3b a411 1f3b
000002c0: e5ca b4bb ee82 77b7 d993 29bc 83ac 93ba
000002d0: 3efc c5bb 1f19 07bc 4e19 c63b 86cd b93b
000002e0: 5fc2 6bbb 1269 1cbc a9a5 5ebc eb29 75bb
000002f0: 0000 0000 8853 29bc 4330 13bc 3205 143c
00000300: 5966 ccb3 2510 d63b 21f8 2d38 7a13 b93b
00000310: a4d6 063b ddb9 8e3c 9ade 2d30 0b05 ce3b
00000320: 897d 5e3c 6bca 483c b667 35bc 0963 f0bb
00000330: b2f5 343c 7ccc 35bb 52bb e7ba 1165 fd3b
00000340: 0000 0000 7ec5 3ebc e536 e23b 71d6 e1bb
00000350: 4611 5d3c 6535 3ebb 0000 0000 3389 ebba
00000360: 4805 3cb9 e611 662d aa45 363c d3d1 e2ba
00000370: efd3 01bc 0afc 8a3b 643f c0bb 9e4d bbbb
00000380: 7254 5137 0b9c 3630 cf9e bc3a 6bae 183b
00000390: deee 9c3b 9617 04b9 a837 0a3c 5de8 333b
000003a0: 605a 3cbc 7938 ccbb e6fb 16b9 39b4 d1bb
000003b0: 7ec5 503c 2692 98bb d60e 1e3b 9240 f63b
000003c0: a127 4bbc a08d 58b6 7acc 0bbc 9380 34b9
000003d0: 1e04 32bc 7afd ebbb b874 d73a 227a c8ba
000003e0: 96e8 23ba c347 16bc 6b61 2ebc edaf 383a
000003f0: 0000 0000 af1c e8bb d29a 24bb 5aba f43b

sequential/lstm/while/lstm_cell_1/MatMul_1 f4 [256, 64]
0.015238166 -0.056760293 0.059950568 0.061694216 -0.06196683 -0.0058495174 0.02189763 0.042408906
-0.0406466 -0.05097495 0.017229106 -0.0048026317 -0.01067197 0.05519452 0.06030903 0.01380074
0.1594505 0.019910766 -0.07145286 0.02147761 0.0033715162 -0.0060078437 0.018190334 0.033429116
0.041853994 -0.03009744 -0.05305202 -0.036889933 0.08190175 0.031420756 -0.12518303 0.124841206
0.029431969 -0.10307941 0.018987222 0.033498153 -0.041162096 -0.074788 -0.125377 -0.0679902
-0.093532525 0.008891202 -0.0743791 0.07637782 -0.14423783 0.062655784 0.052140847 -0.092190824
0.077091925 -0.115254894 -0.118659705 0.059280563 -0.021229038 0.031765297 0.06575398 -0.1646149
0.034985185 0.003740266 0.08611931 0.0020170808 0.009103754 0.020773845 0.0068967715 0.054784242
0.009536732 0.05153566 -0.06591863 0.058354698 -0.018451547 -0.03901922 -0.060428955 -0.01714487
0.074575625 -0.02767626 0.015241458 0.019312283 -0.040842142 0.012389686 -0.044379275 0.13277939
0.16242592 0.01062786 -0.019770248 -0.046080917 -0.1297783 0.0033303127 -0.003924663 -0.021132361
-0.051150013 -0.029477406 -0.13395047 0.030054295 -0.10547728 -0.05942597 0.039351616 -0.04893639
-0.07971272 0.0011561294 0.06778381 -0.017010482 -0.05614823 -0.004077734 0.026644366 -0.043356434
-0.022259373 -0.0099539915 0.048944533 -0.08574471 0.06737879 0.049899057 0.02153343 -0.011611666
0.06150554 0.11576217 -0.16911696 0.019457918 0.09710732 -0.06768341 0.028716084 -0.004141783
0.20128006 -0.010792433 -0.018003825 0.04772406 0.005557798 -0.06047164 0.10461101 -0.020559305
-0.031735584 -0.089235134 -0.041532535 -0.015062951 0.0056451415 -0.0032032146 -0.03813396 0.09025863
0.092045434 -0.12838136 0.0048252386 -0.018042708 -0.047175523 -0.047965292 -0.10516475 -0.020144599
-0.027863983 -0.020679682 -0.04723512 0.045524467 -0.06260497 -0.014996687 -0.09582591 -0.040626436
-0.10968352 -0.020685298 0.06806028 -0.004418359 0.013982527 0.05926829 -0.11578657 0.027711604
-0.048987694 -0.16603898 -0.06829732 0.013746067 -0.01913969 0.025364818 -0.038115997 0.08611588
-0.04204898 0.13043924 0.022735042 -0.040705364 -0.099931054 -0.0068140267 -0.04853771 0.12953101
0.070641756 0.06659056 0.024061373 0.07631501 -0.053617295 -0.017496932 0.06736244 -0.047805887
-0.070118584 0.051883727 0.039215166 -0.018374061 -0.03990795 -0.08501859 -0.0776751 -0.12695488
-0.005246027 -0.07736969 -0.07926531 -0.0431621 0.014806609 -0.08524103 -0.0718794 -0.037996095
-0.015433346 -0.0045130546 0.151673 -0.013109112 -0.108963504 0.057838835 -0.029511606 -0.024824765
0.008491669 0.013563966 0.0132090775 -0.020039694 0.08555951 -0.12508366 0.012916221 -0.08455747
-0.012514549 -0.049074166 0.07555729 -0.010736878 -0.0409691 -0.050300553 0.057399414 -0.05724473
0.08472638 0.033299644 0.03936353 0.036776915 0.05113932 -0.0075008078 -0.03780514 0.0079358
-0.029828342 -0.0131668635 -0.063616164 0.11966946 -0.017014015 -0.010182695 -0.1243795 -0.03923938
0.048454612 -0.042120844 -0.08602014 -0.014337817 -0.014872962 -0.030286046 0.11444981 0.016815478
0.011367907 -0.073755346 0.018778006 -0.004877338 0.0014130366 0.08196708 0.030068113 -0.10335269
00000000: 80a9 793c 7b7d 68bd ba8e 753d 13b3 7c3d
00000010: eed0 7dbd 4fad bfbb a962 b33c f6b4 2d3d
00000020: 0d7d 26bd 1ccb 50bd 0e24 8d3c 655f 9dbb
00000030: 7dd9 2ebc a613 623d 9a06 773d 801c 623c
00000040: fe46 233e e71b a33c e155 92bd d0f1 af3c
00000050: a8f4 5c3b 72dd c4bb e503 953c f8ec 083d
00000060: 186f 2b3d e88e f6bc 134d 59bd e619 17bd
00000070: 1bbc a73d 0db3 003d fb2f 00be bfac ff3d
00000080: 501b f13c 4c1b d3bd 178b 9b3c 5c35 093d
00000090: 9699 28bd 732a 99bd d462 00be 723e 8bbd
000000a0: fb8d bfbd 67ac 113c 1254 98bd f96b 9c3d
000000b0: 15b3 13be ad51 803d a491 553d 8bce bcbd
000000c0: 5fe2 9d3d c20a ecbd dc03 f3bd 2dd0 723d
000000d0: 85e8 adbc 541c 023d 06aa 863d cf90 28be
000000e0: a04c 0f3d 401f 753b 525f b03d 0031 043b
000000f0: e927 153c e92d aa3c 50fe e13b 7165 603d
00000100: f43f 1c3c 0e17 533d 5900 87bd 5605 6f3d
00000110: b327 97bc 9ed2 1fbd 5a84 77bd 6673 8cbc
00000120: 1bbb 983d 53b9 e2bc 4fb7 793c cb34 9e3c
00000130: 174a 27bd 1cfe 4a3c 0bc7 35bd 52f7 073e
00000140: fb52 263e 7a20 2e3c 37f5 a1bc 58bf 3cbd
00000150: 9ae4 04be 6041 5a3b 769a 80bb c61d adbc
00000160: ad82 51bd 9a7a f1bc 502a 09be 6d34 f63c
00000170: 7904 d8bd a568 73bd 292f 213d 8671 48bd
00000180: 6c40 a3bd 4489 973a 3dd2 8a3d 9159 8bbc
00000190: b0fb 65bd 839e 85bb 4945 da3c 8496 31bd
000001a0: 4a59 b6bc 1116 23bc 107a 483d ec9a afbd
000001b0: e4fd 893d f462 4c3d e066 b03c db3e 3ebc
000001c0: 3ced 7b3d b714 ed3d ff2c 2dbe 3666 9f3c
000001d0: 34e0 c63d 9a9d 8abd fe3d eb3c cbb7 87bb
000001e0: 5c1c 4e3e bfd2 30bc c27c 93bc 4e7a 433d
000001f0: 301e b63b 1cb1 77bd 4c3e d63d fd6b a8bc
00000200: 2cfd 01bd e9c0 b6bd 051e 2abd 98ca 76bc
00000210: e1fa b83b 06ed 51bb 5b32 1cbd 84d9 b83d
00000220: 5182 bc3d 6776 03be 091d 9e3b 4dce 93bc
00000230: 1f3b 41bd 4177 44bd 9e60 d7bd 4906 a5bc
00000240: 0243 e4bc 7068 a9bc 9d79 41bd dd77 3a3d
00000250: 0937 80bd aab4 75bc 6040 c4bd e867 26bd
00000260: c1a1 e0bd 3774 a9bc 3063 8b3d e2c7 90bb
00000270: f816 653c 4ec3 723d 8221 edbd 7203 e33c
00000280: 52a7 48bd 1f06 2abe 77df 8bbd 2f37 613c
00000290: d7ca 9cbc e1c9 cf3c 851f 1cbd 865d b03d
000002a0: 8d3b 2cbd dd91 053e d73e ba3c abba 26bd
000002b0: a7a8 ccbd 3348 dfbb 7acf 46bd c7a3 043e
000002c0: a0ac 903d a260 883d 5b1c c53c 0b4b 9c3d
000002d0: cf9d 5bbd ba55 8fbc 52f5 893d 1bd0 43bd
000002e0: 559a 8fbd 0884 543d 15a0 203d 3385 96bc
000002f0: 8576 23bd 3a1e aebd 1f14 9fbd 7600 02be
00000300: dde6 abbb 0074 9ebd da55 a2bd beca 30bd
00000310: 6b97 723c d992 aebd 8235 93bd cba1 1bbd
00000320: 25dc 7cbc 3fe2 93bb 2b50 1b3e 9ac7 56bc
00000330: 4228 dfbd 6ae8 6c3d 53c2 f1bc 4e5d cbbc
00000340: a420 0b3c 663b 5e3c e36a 583c 492a a4bc
00000350: d339 af3d ee15 00be 8f9e 533c 782c adbd
00000360: d309 4dbc fe01 49bd c8bd 9a3d bbe9 2fbc
00000370: 37cf 27bd f407 4ebd a61b 6b3d 7379 6abd
00000380: 0685 ad3d 3565 083d a73b 213d 64a3 163d
00000390: 7777 513d 56c9 f5bb 90d9 1abd 2805 023c
000003a0: 915a f4bc d4b9 57bc 3149 82bd 4315 f53d
000003b0: fa60 8bbc 52d5 26bc aeba febd 79b9 20bd
000003c0: 5878 463d e886 2cbd 542b b0bd 2ae9 6abc
000003d0: b9ad 73bc 711a f8bc a964 ea3d 9dc0 893c
000003e0: 7540 3a3c 0b0d 97bd 55d4 993c 14d2 9fbb
000003f0: a435 b93a 5bde a73d 6751 f63c 93aa d3bd

sequential/lstm/while/lstm_cell_1/MatMul f4 [256, 172]
0.06256479 0.0007381603 -0.021354333 0.013470336 -0.001698763 -0.06622888 -0.11488674 -0.061403833
-0.0059527177 0.027261183 0.09896296 -0.087439105 0.020194098 0.06679648 0.013799021 -0.043893024
0.09032825 0.009687084 -0.057556823 0.018875135 0.034190353 0.06366542 0.01694027 -0.05848804
0.061091583 0.03421246 0.01332862 0.08914392 0.111399494 0.01806812 0.018170461 -0.0069008423
0.04380378 -0.11672433 -0.09341805 0.04072483 0.10814516 0.03623669 0.093991995 0.108652055
-0.06787349 0.08019131 0.090268865 0.05832033 0.037812896 -0.029176064 -0.08107474 -0.012380579
0.10753956 0.025399692 -0.0940008 0.115808815 -0.07413222 0.067021035 -0.038208283 -0.039853588
0.045476634 -0.065676376 0.067754254 -0.0001744279 -0.0724624 0.016777653 0.034675777 0.08453131
0.027474847 0.018446939 0.030253584 -0.020705359 0.021076128 0.046634395 0.0037618983 0.03759784
0.034110926 -0.11459184 0.09345223 -0.07596813 0.01971981 -0.021636412 0.0023016736 0.07439044
0.080740094 0.11129777 0.023730457 0.021869486 0.1166361 0.094763584 -0.030003188 -0.11473072
0.1027794 -0.023762334 0.112390205 0.019561835 -0.025024015 0.0110974 0.10583517 -0.063529566
0.0912299 -0.021021662 -0.06086601 0.038913667 -0.057499748 0.088395484 -0.029598963 -0.04157554
-0.06846003 0.027664285 -0.034041803 0.055083074 0.033994492 -0.020905364 -0.050882325 0.025158737
-0.09028631 0.014910899 0.11324133 0.06276845 0.0044106143 -0.093362205 0.021700688 0.08873694
-0.06787005 0.04538353 -0.10499997 -0.084639736 0.0332787 0.051881302 -0.10368179 0.10740698
0.034941092 -0.04485978 0.028632298 0.048256155 0.00688239 -0.10583799 0.108970836 -0.0712454
0.105386704 0.079758584 0.010597765 0.091952845 -0.023730531 -0.098680556 -0.092575975 0.042957544
-0.05162102 -0.11409893 -0.09256573 -0.04969863 -0.09565857 -0.06584485 -0.018255569 -0.0039407345
0.118357316 0.042062774 -0.117378816 0.10395527 -0.06514565 -0.060654517 0.048337862 -0.06904708
-0.01734509 -0.112555996 0.065937445 0.109426305 -0.072998844 -0.073125705 0.025087874 0.100636855
0.05010403 0.072077766 0.018814282 -0.06473899 0.12169176 0.1225446 -0.02037104 -0.002042568
0.077597946 0.056616846 0.027825417 -0.055300675 -0.036325097 0.07695525 0.011310159 0.045424953
-0.049766034 0.11582343 -0.03596588 0.0042202394 -0.064433135 0.05134278 0.010731343 0.052551255
0.029846549 -0.0914119 0.05868246 -0.09381514 0.034939088 0.113940604 -0.008749324 -0.06999315
-0.022359041 0.06406618 -0.092564866 -0.042227343 -0.02662088 0.06921175 0.05074383 0.004420079
0.08596944 0.06429751 -0.11831737 0.09904953 0.08564719 0.05435875 -0.1290078 -0.01571056
0.069373935 -0.075470075 0.09789883 -0.10633292 -7.4112344e-05 0.0034883982 0.08679889 -0.0692468
0.10685972 0.0035204294 -0.021717956 0.000712118 -0.009829801 -0.082656235 0.066529855 -0.04690715
-0.037322856 0.10243623 0.043376066 -0.074096076 0.042988647 0.06901379 0.042484958 -0.08762254
-0.09779116 0.11491791 0.015460959 0.095633835 0.11220565 -0.04765552 0.01610843 -0.013994031
0.10450755 0.12848464 -0.09292738 -0.033048365 -0.028292645 0.05868614 0.024323998 -0.031915855
00000000: f821 803d 1981 413a 48ef aebc afb2 5c3c
00000010: 07a9 deba 02a3 87bd bd49 ebbd 9682 7bbd
00000020: 040f c3bb d852 df3c 18ad ca3d 4613 b3bd
00000030: 186e a53c 98cc 883d 4a15 623c 2cc9 33bd
00000040: 04fe b83d 93b6 1e3c b4c0 6bbd 07a0 9a3c
00000050: 2f0b 0c3d 0463 823d 52c6 8a3c 2891 6fbd
00000060: 2b3b 7a3d 5d22 0c3d 4960 5a3c 1691 b63d
00000070: 6b25 e43d 9803 943c 38da 943c 7620 e2bb
00000080: 986b 333d 2a0d efbd f651 bfbd 14cf 263d
00000090: 367b dd3d ec6c 143d e07e c03d f884 de3d
000000a0: 4201 8bbd 573b a43d e2de b83d 4ce1 6e3d
000000b0: b2e1 1a3d a402 efbc 830a a6bd e9d7 4abc
000000c0: b33d dc3d 0413 d03c 7e83 c0bd 2c2d ed3d
000000d0: a2d2 97bd 5342 893d 4a80 1cbd 843d 23bd
000000e0: b545 3a3d 5681 86bd bec2 8a3d a2e6 36b9
000000f0: 2b67 94bd 4a71 893c 3008 0e3d c01e ad3d
00000100: ee12 e13c 091e 973c 5dd6 f73c 499e a9bc
00000110: d8a7 ac3c b503 3f3d 2e8a 763b 3100 1a3d
00000120: e6b7 0b3d 20af eabd e263 bf3d 2e95 9bbd
00000130: 708b a13c d83e b1bc add7 163b 045a 983d
00000140: 105b a53d 16f0 e33d 6066 c23c a327 b33c
00000150: e8de ee3d 6913 c23d 3fc9 f5bc f1f7 eabd
00000160: 027e d23d 3aa9 c2bc d62c e63d 2440 a03c
00000170: 2aff ccbc dfd1 353c 1cc0 d83d ca1b 82bd
00000180: bed6 ba3d 9f35 acbc a34e 79bd f063 1f3d
00000190: db84 6bbd b108 b53d 8679 f2bc 1d4b 2abd
000001a0: c634 8cbd 36a0 e23c 6b6f 0bbd ca9e 613d
000001b0: cf3d 0b3d ba41 abbc fc69 50bd b219 ce3c
000001c0: 07e8 b8bd d84c 743c 12eb e73d bf8c 803d
000001d0: ea86 903b af34 bfbd a4c5 b13c b6bb b53d
000001e0: 74ff 8abd 15e4 393d 390a d7bd 9957 adbd
000001f0: 3f4f 083d 7d81 543d 1e57 d4bd 31f8 db3d
00000200: 641e 0f3d e4be 37bd 488e ea3c 3fa8 453d
00000210: ac85 e13b 97c1 d8bd 1a2c df3d 1ce9 91bd
00000220: fcd4 d73d 7858 a33d 40a2 2d3c c651 bc3d
00000230: 8866 c2bc 0819 cabd 7998 bdbd 40f4 2f3d
00000240: 9070 53bd b3ac e9bd 1a93 bdbd ca90 4bbd
00000250: a4e8 c3bd aad9 86bd b48c 95bc 4721 81bb
00000260: 5265 f23d 044a 2c3d 4e64 f0bd 80e6 d43d
00000270: 156b 85bd df70 78bd ecfd 453d 8e68 8dbd
00000280: 4a17 8ebc c283 e6bd 360a 873d e61a e03d
00000290: 6b80 95bd eec2 95bd 1685 cd3c b21a ce3d
000002a0: e239 4d3d 829d 933d 6920 9a3c e095 84bd
000002b0: 8839 f93d aaf8 fa3d 2be1 a6bc 9bdc 05bb
000002c0: aceb 9e3d 11e7 673d 21f2 e33c f682 62bd
000002d0: a0c9 14bd b79a 9d3d 3f4e 393c 840f 3a3d
000002e0: 78d7 4bbd d634 ed3d f550 13bd ef49 8a3b
000002f0: 85f5 83bd cf4c 523d 84d2 2f3c fc3f 573d
00000300: c080 f43c 2a36 bbbd 055d 703d 2722 c0bd
00000310: 4a1c 0f3d b159 e93d 5359 0fbc 9258 8fbd
00000320: 4f2a b7bc 2135 833d a692 bdbd 94f6 2cbd
00000330: 0814 dabc e4be 8d3d c3d8 4f3d 4fd6 903b
00000340: bf10 b03d 6aae 833d 6150 f2bd 7bda ca3d
00000350: cb67 af3d 48a7 5e3d 9f1a 04be 6fb3 80bc
00000360: ec13 8e3d 0e90 9abd 2f7f c83d 13c5 d9bd
00000370: c36c 9bb8 9c9d 643b 9ec3 b13d 44d1 8dbd
00000380: 45d9 da3d 01b7 663b dbe9 b1bc 6ead 3a3a
00000390: 2c0d 21bc ac47 a9bd ce40 883d b621 40bd
000003a0: dadf 18bd 16ca d13d 1aab 313d afbf 97bd
000003b0: dd14 303d 1a57 8d3d b504 2e3d 7273 b3bd
000003c0: bb46 c8bd 155a eb3d f64f 7d3c acdb c33d
000003d0: 13cc e53d 6f32 43bd d4f5 833c 3847 65bc
000003e0: 0e08 d63d 7a91 033e b650 bebd b95d 07bd
000003f0: fac5 e7bc e160 703d 1f43 c73c 33ba 02bd
