models/airrope_model.tflite (tflite, 271036 bytes, 9 tensors)

sequential/lstm/TensorArrayV2_1 f4 [30, 1, 64]
0.0 0.0 0.0 0.0 0.0 0.0 0.0 0.0
0.0 0.0 0.0 0.0 0.0 0.0 0.0 0.0
0.0 0.0 0.0 0.0 0.0 0.0 0.0 0.0
0.0 0.0 0.0 0.0 0.0 0.0 0.0 0.0
0.0 0.0 0.0 0.0 0.0 0.0 0.0 0.0
0.0 0.0 0.0 0.0 0.0 0.0 0.0 0.0
0.0 0.0 0.0 0.0 0.0 0.0 0.0 0.0
0.0 0.0 0.0 0.0 0.0 0.0 0.0 0.0
0.0 0.0 0.0 0.0 0.0 0.0 0.0 0.0
0.0 0.0 0.0 0.0 0.0 0.0 0.0 0.0
0.0 0.0 0.0 0.0 0.0 0.0 0.0 0.0
0.0 0.0 0.0 0.0 0.0 0.0 0.0 0.0
0.0 0.0 0.0 0.0 0.0 0.0 0.0 0.0
0.0 0.0 0.0 0.0 0.0 0.0 0.0 0.0
0.0 0.0 0.0 0.0 0.0 0.0 0.0 0.0
0.0 0.0 0.0 0.0 0.0 0.0 0.0 0.0
0.0 0.0 0.0 0.0 0.0 0.0 0.0 0.0
0.0 0.0 0.0 0.0 0.0 0.0 0.0 0.0
0.0 0.0 0.0 0.0 0.0 0.0 0.0 0.0
0.0 0.0 0.0 0.0 0.0 0.0 0.0 0.0
0.0 0.0 0.0 0.0 0.0 0.0 0.0 0.0
0.0 0.0 0.0 0.0 0.0 0.0 0.0 0.0
0.0 0.0 0.0 0.0 0.0 0.0 0.0 0.0
0.0 0.0 0.0 0.0 0.0 0.0 0.0 0.0
0.0 0.0 0.0 0.0 0.0 0.0 0.0 0.0
0.0 0.0 0.0 0.0 0.0 0.0 0.0 0.0
0.0 0.0 0.0 0.0 0.0 0.0 0.0 0.0
0.0 0.0 0.0 0.0 0.0 0.0 0.0 0.0
0.0 0.0 0.0 0.0 0.0 0.0 0.0 0.0
0.0 0.0 0.0 0.0 0.0 0.0 0.0 0.0
0.0 0.0 0.0 0.0 0.0 0.0 0.0 0.0
0.0 0.0 0.0 0.0 0.0 0.0 0.0 0.0
00000000: 0000 0000 0000 0000 0000 0000 0000 0000
00000010: 0000 0000 0000 0000 0000 0000 0000 0000
00000020: 0000 0000 0000 0000 0000 0000 0000 0000
00000030: 0000 0000 0000 0000 0000 0000 0000 0000
00000040: 0000 0000 0000 0000 0000 0000 0000 0000
00000050: 0000 0000 0000 0000 0000 0000 0000 0000
00000060: 0000 0000 0000 0000 0000 0000 0000 0000
00000070: 0000 0000 0000 0000 0000 0000 0000 0000
00000080: 0000 0000 0000 0000 0000 0000 0000 0000
00000090: 0000 0000 0000 0000 0000 0000 0000 0000
000000a0: 0000 0000 0000 0000 0000 0000 0000 0000
000000b0: 0000 0000 0000 0000 0000 0000 0000 0000
000000c0: 0000 0000 0000 0000 0000 0000 0000 0000
000000d0: 0000 0000 0000 0000 0000 0000 0000 0000
000000e0: 0000 0000 0000 0000 0000 0000 0000 0000
000000f0: 0000 0000 0000 0000 0000 0000 0000 0000
00000100: 0000 0000 0000 0000 0000 0000 0000 0000
00000110: 0000 0000 0000 0000 0000 0000 0000 0000
00000120: 0000 0000 0000 0000 0000 0000 0000 0000
00000130: 0000 0000 0000 0000 0000 0000 0000 0000
00000140: 0000 0000 0000 0000 0000 0000 0000 0000
00000150: 0000 0000 0000 0000 0000 0000 0000 0000
00000160: 0000 0000 0000 0000 0000 0000 0000 0000
00000170: 0000 0000 0000 0000 0000 0000 0000 0000
00000180: 0000 0000 0000 0000 0000 0000 0000 0000
00000190: 0000 0000 0000 0000 0000 0000 0000 0000
000001a0: 0000 0000 0000 0000 0000 0000 0000 0000
000001b0: 0000 0000 0000 0000 0000 0000 0000 0000
000001c0: 0000 0000 0000 0000 0000 0000 0000 0000
000001d0: 0000 0000 0000 0000 0000 0000 0000 0000
000001e0: 0000 0000 0000 0000 0000 0000 0000 0000
000001f0: 0000 0000 0000 0000 0000 0000 0000 0000
00000200: 0000 0000 0000 0000 0000 0000 0000 0000
00000210: 0000 0000 0000 0000 0000 0000 0000 0000
00000220: 0000 0000 0000 0000 0000 0000 0000 0000
00000230: 0000 0000 0000 0000 0000 0000 0000 0000
00000240: 0000 0000 0000 0000 0000 0000 0000 0000
00000250: 0000 0000 0000 0000 0000 0000 0000 0000
00000260: 0000 0000 0000 0000 0000 0000 0000 0000
00000270: 0000 0000 0000 0000 0000 0000 0000 0000
00000280: 0000 0000 0000 0000 0000 0000 0000 0000
00000290: 0000 0000 0000 0000 0000 0000 0000 0000
000002a0: 0000 0000 0000 0000 0000 0000 0000 0000
000002b0: 0000 0000 0000 0000 0000 0000 0000 0000
000002c0: 0000 0000 0000 0000 0000 0000 0000 0000
000002d0: 0000 0000 0000 0000 0000 0000 0000 0000
000002e0: 0000 0000 0000 0000 0000 0000 0000 0000
000002f0: 0000 0000 0000 0000 0000 0000 0000 0000
00000300: 0000 0000 0000 0000 0000 0000 0000 0000
00000310: 0000 0000 0000 0000 0000 0000 0000 0000
00000320: 0000 0000 0000 0000 0000 0000 0000 0000
00000330: 0000 0000 0000 0000 0000 0000 0000 0000
00000340: 0000 0000 0000 0000 0000 0000 0000 0000
00000350: 0000 0000 0000 0000 0000 0000 0000 0000
00000360: 0000 0000 0000 0000 0000 0000 0000 0000
00000370: 0000 0000 0000 0000 0000 0000 0000 0000
00000380: 0000 0000 0000 0000 0000 0000 0000 0000
00000390: 0000 0000 0000 0000 0000 0000 0000 0000
000003a0: 0000 0000 0000 0000 0000 0000 0000 0000
000003b0: 0000 0000 0000 0000 0000 0000 0000 0000
000003c0: 0000 0000 0000 0000 0000 0000 0000 0000
000003d0: 0000 0000 0000 0000 0000 0000 0000 0000
000003e0: 0000 0000 0000 0000 0000 0000 0000 0000
000003f0: 0000 0000 0000 0000 0000 0000 0000 0000

sequential/dense/BiasAdd/ReadVariableOp/resource f4 [32]
0.025088072 0.016737003 0.033387825 0.024802445 -0.034982327 -0.008163768 -0.008899744 -0.004141482
0.03855484 -0.0060045477 0.0063898987 0.0093525415 -0.009049646 0.0020397417 0.019904146 -0.0069173295
0.0066848476 -0.006916169 -0.0028266774 -0.0013641561 0.0104958005 0.0025736203 -0.005792575 0.021128956
-0.023490027 0.020112034 0.025596855 -0.019186713 0.006144165 -0.0067326934 -0.0034277479 0.040450785
00000000: 8085 cd3c 0a1c 893c acc1 083d 7f2e cb3c
00000010: a149 0fbd 53c1 05bc 3bd0 11bc 45b5 87bb
00000020: aeeb 1d3d ccc1 c4bb 5b62 d13b 673b 193c
00000030: f744 14bc 30ad 053b 050e a33c c4aa e2bb
00000040: 910c db3b 08a1 e2bb c73f 39bb 7ccd b2ba
00000050: 94f6 2b3c 2faa 283b a4cf bdbb a216 ad3c
00000060: 286e c0bc fec1 a43c 7fb0 d13c 742d 9dbc
00000070: fe54 c93b ed9d dcbb 11a4 60bb b9af 253d

sequential/dense_1/BiasAdd/ReadVariableOp/resource f4 [2]
0.006737051 -0.006737047
00000000: 7bc2 dc3b 72c2 dcbb

sequential/lstm/lstm_cell_1/BiasAdd/ReadVariableOp/resource f4 [256]
0.0020909114 -0.0043753753 0.0 0.0 -0.0101796035 -0.009642919 0.019187562 -0.008112349
-0.006135114 0.0 -0.0059483657 -0.012465199 -0.006649312 -0.009831427 0.0050199726 -0.011932221
0.006862395 -0.011519973 -0.006526571 -0.014835958 0.0 -0.01660702 -0.0068012024 0.002035613
-0.016166471 -0.0078497045 -0.009621756 -0.023279108 -0.01468301 -0.00463069 -0.016782274 0.009973659
-0.012682086 -0.0003135634 -0.0015138803 -0.003615903 0.01010517 -0.01283923 -0.002164081 0.0026011858
-0.010672871 0.012599567 -0.005826047 -0.0107087325 0.006776594 -0.005804501 -0.0073635587 0.028646633
-0.009262345 0.0 -0.0021224364 0.005483158 -0.009215406 -0.0032001934 -0.0073624 0.004476744
0.005808677 -0.009012959 -0.0030036648 0.0073219975 0.0057428204 -0.0049164663 -0.0058645476 0.008993804
1.0014539 0.999453 1.0 1.0 0.9901693 0.99475574 1.0100477 0.9927524
0.99374217 1.0 0.9947418 0.9899102 0.9936772 0.9916814 1.0066354 0.98821604
1.0063916 0.9830589 0.9953819 0.9852845 1.0 0.9898406 0.9932817 1.0023178
0.9829082 0.99037766 0.99334055 0.9824167 0.9834988 0.99227923 0.9838559 1.0116727
0.98664165 0.9992697 0.99909437 0.99217534 1.0065174 0.99358714 0.9999538 1.0008616
0.99006593 1.010574 0.99416 0.9883617 1.0172465 0.9924619 0.9935653 1.0199829
0.99141854 1.0 0.9979251 1.0020772 0.99053544 0.996017 0.9929327 1.0070535
0.99758846 0.99205154 0.99676466 1.0088364 1.0114945 0.99603647 0.993168 1.0205594
0.0038508154 0.0016778961 0.0 0.0 -0.014960102 -0.0068376455 0.0026387891 -0.009636717
-0.0071451655 0.0 -0.011479847 -0.017012483 -0.0066051716 -0.01557888 -0.0030893155 -0.018596595
0.0067990758 -0.0045674243 -0.010332503 -0.0087858625 0.0 -0.011057817 -0.003353467 -0.0005218811
-0.0018083052 -0.010019633 -0.008148508 -0.0135111585 -0.0111527005 -0.007668265 -0.014403054 0.013033939
-0.011879301 -0.005413275 -0.0069407173 -0.011467223 0.0030142409 -0.012844171 -0.007298186 -0.0035629945
-0.01372409 -0.0047536623 -0.0045815883 -0.008863155 0.0064957323 -0.0049918597 -0.009111484 -0.004379234
-0.011648794 0.0 -0.007047074 0.00034686117 -0.007011264 0.006879791 -0.0059100627 -0.007866406
-0.002529373 -0.011483668 -0.0014129762 -0.009364143 0.009465702 -0.0066569885 -0.0043332563 -0.009304138
0.0022219787 -0.00017272195 0.0 0.0 -0.010247818 -0.006794195 0.014085004 -0.009239326
-0.006130961 0.0 -0.0053621475 -0.012663872 -0.006169404 -0.01151926 0.008978934 -0.012665724
-0.00013647488 -0.012828231 -0.0049759406 -0.014224169 0.0 -0.017214302 -0.0067664906 0.0014950626
-0.016277336 -0.012492034 -0.009626696 -0.023519635 -0.014733649 -0.007383836 -0.017183922 0.004347787
-0.013138082 -0.00016487947 -0.0016435503 -0.009424761 0.01022598 -0.012548118 -0.002988897 0.0011078435
-0.010673397 0.015597229 -0.005764945 -0.015103065 0.010128166 -0.0047850055 -0.007507993 0.019477276
-0.00866446 0.0 -0.0021357979 0.004244794 -0.008908808 -0.00040489458 -0.00757433 0.0028152491
0.0038415312 -0.009010146 -0.0024265652 0.005539553 0.004535677 -0.005257829 -0.0049288166 0.012449627
00000000: ac07 093b 4f5f 8fbb 0000 0000 0000 0000
00000010: 5ac8 26bc 55fd 1dbc 3c2f 9d3c a8e9 04bc
00000020: 1109 c9bb 0000 0000 82ea c2bb d63a 4cbc
00000030: 79e2 d9bb fe13 21bc 957e a43b 5d7f 43bc
00000040: f1dd e03b 45be 3cbc d9dc d5bb 8512 73bc
00000050: 0000 0000 720b 88bc 9fdc debb eb67 053b
00000060: 8c6f 84bc 0c9c 00bc 92a4 1dbc d4b3 bebc
00000070: 0291 70bc 0bbd 97bb fb7a 89bc 8f68 233c
00000080: 86c8 4fbc c465 a4b9 656d c6ba c9f8 6cbb
00000090: 2890 253c a25b 52bc 41d3 0dbb a878 2a3b
000000a0: 44dd 2ebc 6a6e 4e3c 6de8 bebb ae73 2fbc
000000b0: 310e de3b af33 bebb 024a f1bb 58ac ea3c
000000c0: 17c1 17bc 0000 0000 9318 0bbb 10ac b33b
000000d0: 37fc 16bc 56ba 51bb 4a40 f1bb a7b1 923b
000000e0: b756 be3b 17ab 13bc 22d9 44bb 5eed ef3b
000000f0: 452e bc3b 4f1a a1bb 642b c0bb c05a 133c
00000100: a42f 803f 27dc 7f3f 0000 803f 0000 803f
00000110: bc7b 7d3f 50a8 7e3f 3e49 813f 0525 7e3f
00000120: e365 7e3f 0000 803f 66a7 7e3f c16a 7d3f
00000130: a161 7e3f d5de 7d3f 6ed9 803f bafb 7c3f
00000140: 71d1 803f c0a9 7b3f 59d1 7e3f 9b3b 7c3f
00000150: 0000 803f 3266 7d3f b647 7e3f f34b 803f
00000160: df9f 7b3f 6489 7d3f 914b 7e3f a97f 7b3f
00000170: 94c6 7b3f 0306 7e3f fbdd 7b3f 7e7e 813f
00000180: 8c94 7c3f 24d0 7f3f a6c4 7f3f 34ff 7d3f
00000190: 90d5 803f ba5b 7e3f f9fc 7f3f 3c1c 803f
000001a0: f674 7d3f 7d5a 813f 4581 7e3f 4605 7d3f
000001b0: 2235 823f fc11 7e3f 4c5a 7e3f cd8e 823f
000001c0: 9bcd 7d3f 0000 803f 0578 7f3f 1144 803f
000001d0: bb93 7d3f f8fa 7e3f d630 7e3f 21e7 803f
000001e0: f561 7f3f 17f7 7d3f f82b 7f3f 8d21 813f
000001f0: a778 813f 3ffc 7e3f 4240 7e3f b1a1 823f
00000200: f65d 7c3b daec db3a 0000 0000 0000 0000
00000210: 371b 75bc 540e e0bb 89ef 2c3b 52e3 1dbc
00000220: fe21 eabb 0000 0000 f815 3cbc c35d 8bbc
00000230: 3270 d8bb 8f3e 7fbc 1d76 4abb e357 98bc
00000240: c8ca de3b 55aa 95bb a949 29bc 94f2 0fbc
00000250: 0000 0000 d92b 35bc d7c5 5bbb d9ce 08ba
00000260: a704 edba 6329 24bc 5281 05bc e85d 5dbc
00000270: d1b9 36bc 1246 fbbb c9fa 6bbc 4d8c 553c
00000280: 66a1 42bc d861 b1bb f56e e3bb 05e1 3bbc
00000290: 928a 453b 5c70 52bc 9f25 efbb 2181 69bb
000002a0: 01db 60bc 9cc4 9bbb 2621 96bb c436 11bc
000002b0: 27da d43b c192 a3bb 5548 15bc ad7f 8fbb
000002c0: 95da 3ebc 0000 0000 24eb e6bb ebda b539
000002d0: bfbe e5bb df6f e13b 33a9 c1bb 19e2 00bc
000002e0: d6c3 25bb ff25 3cbc 9d33 b9ba 106c 19bc
000002f0: 0816 1b3c de22 dabb fdfd 8dbb 6270 18bc
00000300: 9e9e 113b b21c 35b9 0000 0000 0000 0000
00000310: 77e6 27bc d7a1 debb cac4 663c 8b60 17bc
00000320: 3ae6 c8bb 0000 0000 f4b4 afbb 217c 4fbc
00000330: b628 cabb 47bb 3cbc 611c 133c e683 4fbc
00000340: b21a 0fb9 802d 52bc 370d a3bb 7d0c 69bc
00000350: 0000 0000 0205 8dbc 70b9 ddbb faf5 c33a
00000360: 0c58 85bc 63ab 4cbc 4ab9 1dbc 40ac c0bc
00000370: 6765 71bc 1bf4 f1bb 4cc5 8cbc e177 8e3b
00000380: 1c41 57bc 7fe3 2cb9 666c d7ba 506a 1abc
00000390: de8a 273c 9f96 4dbc 5fe1 43bb 0f35 913a
000003a0: 79df 2ebc 858b 7f3c dde7 bcbb d972 77bc
000003b0: 9bf0 253c 89cb 9cbb 9c05 f6bb cf8e 9f3c
000003c0: 61f5 0dbc 0000 0000 bef8 0bbb ea17 8b3b
000003d0: 40f6 11bc 0848 d4b9 1632 f8bb 0b80 383b
000003e0: 33c2 7b3b 4b9f 13bc 0207 1fbb 2385 b53b
000003f0: 04a0 943b de49 acbb e981 a1bb 85f9 4b3c

sequential/dense/MatMul f4 [32, 64]
-0.15147544 -0.09001647 0.21865422 0.07205397 -0.110027656 -0.20831005 0.21802786 0.14302205
0.054436624 -0.096854925 -0.1643487 -0.1340381 -0.10527687 -0.03052066 -0.008882705 0.1261369
0.023069251 -0.13226044 -0.11347246 -0.20417768 -0.12870723 0.18530327 0.14220852 0.25077608
0.029312577 0.058310617 -0.0015391111 0.117604494 -0.1570125 0.2022009 0.027486162 -0.14200757
0.14270458 0.14610279 -0.1768345 -0.14293797 0.1244013 -0.2473255 0.07664794 -0.027135959
-0.080705345 0.021190185 -0.006409644 -0.028750202 0.16634361 -0.12914166 0.06810793 -0.22110881
-0.10235442 0.17385745 -0.01906997 -0.15720618 0.03225416 -0.0656832 -0.24811986 0.17433994
-0.13554211 0.12679821 -0.022419631 0.111322604 0.20563136 -0.15762845 -0.10618464 0.035713572
-0.17738222 0.19949393 -0.0939489 0.16282368 0.18486446 0.22374742 -0.010065222 -0.12255664
0.118098356 0.122776985 0.084051885 0.17475274 0.11241957 -0.0027359435 -0.09203145 -0.16848424
0.16074634 0.097933196 0.037606683 -0.031897776 -0.04181385 -0.122692145 -0.01819358 -0.0755285
0.02464666 -0.082449906 -0.20553239 0.19212754 -0.018076433 0.0094348155 0.22044086 0.12062735
-0.24290825 0.062333915 -0.13650097 -0.20283367 -0.11449867 -0.14335038 -0.13823742 0.05380883
0.2358189 -0.089580305 -0.108519845 -0.23392278 0.2625059 0.12878954 -0.2256612 -0.019114394
0.18176849 0.058935463 0.20588273 0.17725426 0.12788343 0.17379817 0.20245694 -0.05459165
0.16212034 -0.15403986 -0.11456238 -0.105350696 -0.06557501 0.15098427 -0.015927983 0.16801137
-0.13477755 -0.055320438 0.11687338 -0.18247724 0.20701876 -0.16439493 -0.19683589 -0.1046303
-0.21943927 0.1561591 0.06379729 0.17400731 -0.18727748 -0.07666228 -0.011222056 -0.13282691
-0.20036872 -0.16278164 -0.10972685 -0.1618596 -0.2017774 -0.041834082 -0.1589715 0.14860648
-0.049528986 -0.1790324 -0.2410547 0.09024804 -0.002480249 -0.13684577 0.22625114 -0.15399288
0.20294467 0.07046461 -0.10250026 -0.060595132 0.18384063 0.24468106 0.18467009 -0.066502705
-0.1831841 0.20502497 -0.09648038 0.031603713 -0.11681268 0.25708124 0.1828686 -0.20896539
-0.032734286 -0.19095707 -0.1686642 -0.08696097 0.21684355 -0.12079533 0.16948728 0.09719305
-0.14536183 -0.120146565 0.25054887 0.1646928 0.19883907 0.11194931 -0.12575449 -0.2375355
-0.08200897 0.12164281 -0.08409405 -0.053736687 -0.20281078 -0.20387524 0.19149707 0.11581817
0.022846341 0.015954494 -0.13093923 0.20283635 -0.20166212 0.17228895 -0.19169207 0.26092997
0.17054106 0.10318388 -0.0043241302 0.24432682 0.1545217 -0.13599169 0.22141778 -0.051257722
0.15536813 -0.036405202 0.22444063 0.16373344 0.21513326 -0.16908821 -0.036056373 0.23836425
-0.10491116 -0.08956587 0.13602614 -0.12894148 0.09250249 0.23878594 -0.18842967 0.095213756
-0.21160722 0.03937505 -0.16211583 0.019129705 -0.0027149555 -0.14603265 -0.16090237 -0.056859046
-0.18877572 0.1408819 -0.19733381 -0.15322098 0.218387 -0.08156651 0.22969484 0.047200944
0.00937381 -0.004126701 -0.08422984 0.036623035 0.1233039 0.032783087 -0.16448691 0.13365625
00000000: 611c 1bbe 8e5a b8bd e4e6 5f3e 0891 933d
00000010: 2e56 e1bd 3b4f 55be b242 5f3e 5f74 123e
00000020: f0f8 5e3d e05b c6bd 074b 28be 4941 09be
00000030: 669b d7bd 7706 fabc c488 11bc 082a 013e
00000040: bafb bc3c 486f 07be 4064 e8bd f413 51be
00000050: d4cb 03be 24c0 3d3e 1c9f 113e b965 803e
00000060: ee20 f03c 1dd7 6e3d 00bc c9ba a0da f03d
00000070: e3c7 20be c10d 4f3e a92a e13c 6f6a 11be
00000080: 2621 123e f89b 153e 1a14 35be 555e 12be
00000090: 1cc6 fe3d e542 7dbe 98f9 9c3d 3b4c debc
000000a0: d848 a5bd 0a97 ad3c fe07 d2bb 8b85 ebbc
000000b0: fb55 2a3e b63d 04be 2c7c 8b3d 596a 62be
000000c0: 329f d1bd b007 323e a038 9cbc a8fa 20be
000000d0: f01c 043d ea84 86bd 2213 7ebe 2b86 323e
000000e0: 8dcb 0abe 64d7 013e 60a9 b7bc 1bfd e33d
000000f0: 0791 523e 5a69 21be 5577 d9bd 6548 123d
00000100: afa3 35be 2348 4c3e 4868 c0bd 40bb 263e
00000110: 1c4d 3d3e 0b1e 653e 9ae8 24bc fafe fabd
00000120: 8ddd f13d 8072 fb3d 6523 ac3d 62f2 323e
00000130: 3b3c e63d 844d 33bb fc7a bcbd 2287 2cbe
00000140: b09a 243e 3391 c83d 7709 1a3d 3ea7 02bd
00000150: 0045 2bbd 0546 fbbd b40a 95bc b0ae 9abd
00000160: cbe7 c93c 7fdb a8bd 1577 52be 15bd 443e
00000170: 0715 94bc 7c94 1a3c 40bb 613e 790b f73d
00000180: f1bc 78be d951 7f3d e9c6 0bbe a1b3 4fbe
00000190: 477e eabd 71ca 12be 1c8e 0dbe a666 5c3d
000001a0: 827a 713e e175 b7bd a73f debd 7489 6fbe
000001b0: 2c67 863e 68e1 033e bb13 67be ca95 9cbc
000001c0: 8521 3a3e 5066 713d ecd2 523e 2482 353e
000001d0: e0f3 023e 26f8 313e df50 4f3e 7e9b 5fbd
000001e0: e002 263e a0bc 1dbe ae9f eabd 1bc2 d7bd
000001f0: 314c 86bd 9f9b 1a3e 677b 82bc 2c0b 2c3e
00000200: 2003 0abe af97 62bd 505b ef3d 50db 3abe
00000210: bafc 533e 2557 28be 598f 49be 6948 d6bd
00000220: b0b4 60be 2ce8 1f3e 27a8 823d f92e 323e
00000230: abc5 3fbe 1d01 9dbd b7dc 37bc c703 08be
00000240: 752d 4dbe 3bb0 26be 79b8 e0bd 86be 25be
00000250: bc9e 4ebe 375a 2bbd 6dc9 22be 4c2c 183e
00000260: e8de 4abd 4554 37be 0bd7 76be f7d3 b83d
00000270: ac8b 22bb 4c21 0cbe 61ae 673e 4fb0 1dbe
00000280: bad0 4f3e c04f 903d a8eb d1bd 9a32 78bd
00000290: b840 3c3e ac8d 7a3e 281a 3d3e 9232 88bd
000002a0: 9d94 3bbe 11f2 513e 8197 c5bd e572 013d
000002b0: 7d3b efbd 27a0 833e e841 3b3e 06fb 55be
000002c0: 6314 06bd 408a 43be 4fb6 2cbe 9818 b2bd
000002d0: 3c0c 5e3e 8b63 f7bd 138e 2d3e 260d c73d
000002e0: bbd9 14be 670f f6bd f147 803e 3ba5 283e
000002f0: 789c 4b3e ae45 e53d c9c5 00be 823c 73be
00000300: 52f4 a7bd de1f f93d 8039 acbd 001b 5cbd
00000310: a1ad 4fbe acc4 50be cf17 443e 1432 ed3d
00000320: 4028 bb3c 00b3 823c ef14 06be 55b4 4f3e
00000330: 8480 4ebe 846c 303e ed4a 44be 9d98 853e
00000340: 51a2 2e3e 1252 d33d 6fb1 8dbb cf30 7a3e
00000350: f03a 1e3e 6841 0bbe 58bb 623e 9ef3 51bd
00000360: d318 1f3e 9f1d 15bd c4d3 653e bda9 273e
00000370: e54b 5c3e 7625 2dbe d9af 13bd c215 743e
00000380: aadb d6bd 506e b7bd 704a 0b3e 3c09 04be
00000390: f271 bd3d 4d84 743e b5f3 40be 6eff c23d
000003a0: 90af 58be bc47 213d b101 26be e6b5 9c3c
000003b0: 65ed 31bb 9589 15be 97c3 24be 08e5 68bd
000003c0: 6c4e 41be 5843 103e e011 4abe f6e5 1cbe
000003d0: d7a0 5f3e 580c a7bd 2035 6b3e c755 413d
000003e0: 9c94 193c 4739 87bb b280 acbd 0902 163d
000003f0: c186 fc3d 8f47 063d 426f 28be 2fdd 083e

sequential/dense_1/MatMul f4 [2, 32]
0.03964078 0.04386865 -0.2060677 0.26770106 0.09439756 -0.29072547 0.21522918 0.38318443
0.41702014 0.26276988 -0.045109645 0.11674776 -0.3316385 -0.26058367 -0.13462313 0.05508693
0.3226962 -0.15204193 0.36359122 -0.36895156 0.22287571 -0.06959715 -0.06799089 0.3548845
-0.21379408 0.4468799 0.40701184 -0.105368555 -0.22927861 -0.04131246 0.14010586 -0.3459516
-0.057399057 -0.10238707 -0.13083115 -0.16486815 0.15944655 0.35572758 0.16205403 -0.3701065
-0.11743446 0.14457646 -0.3546175 -0.4233805 -0.088837266 -0.38212144 0.364873 0.32164523
-0.18860851 0.34647238 0.34670797 -0.05861405 -0.42243096 0.27185214 0.32324126 -0.36664376
0.3371974 -0.15924986 0.07563181 -0.13932893 -0.01878965 -0.39234117 0.20107566 0.06676474
00000000: 5f5e 223d 9daf 333d 6903 53be 1d10 893e
00000010: 8253 c13d f8d9 94be 0a65 5c3e c030 c43e
00000020: aa83 d53e c689 863e e4c4 38bd 7319 ef3d
00000030: 85cc a9be 396b 85be a5da 09be d5a2 613d
00000040: 7038 a53e e1b0 1bbe a128 ba3e 38e7 bcbe
00000050: 8839 643e f388 8ebd cf3e 8bbd 6cb3 b53e
00000060: d6ec 5abe 71cd e43e db63 d03e 78cb d7bd
00000070: 03c8 6abe 4137 29bd e977 0f3e 9120 b1be
00000080: 461b 6bbd 50b0 d1bd 9af8 05be 32d3 28be
00000090: f545 233e ed21 b63e 7ef1 253e 997e bdbe
000000a0: 7a81 f0bd da0b 143e 6d90 b5be 54c5 d8be
000000b0: 50f0 b5bd 6ca5 c3be a2d0 ba3e afae a43e
000000c0: 9722 41be d464 b13e b583 b13e 4915 70bd
000000d0: df48 d8be 3430 8b3e e17f a53e bbb8 bbbe
000000e0: 23a5 ac3e 6512 23be dae4 9a3d 3eac 0ebe
000000f0: c1ec 99bc f1e0 c8be c7e6 4d3e f4bb 883d

sequential/lstm/lstm_cell_1/BiasAdd/ReadVariableOp/resource1 f4 [256]
0.0020909114 -0.0043753753 0.0 0.0 -0.0101796035 -0.009642919 0.019187562 -0.008112349
-0.006135114 0.0 -0.0059483657 -0.012465199 -0.006649312 -0.009831427 0.0050199726 -0.011932221
0.006862395 -0.011519973 -0.006526571 -0.014835958 0.0 -0.01660702 -0.0068012024 0.002035613
-0.016166471 -0.0078497045 -0.009621756 -0.023279108 -0.01468301 -0.00463069 -0.016782274 0.009973659
-0.012682086 -0.0003135634 -0.0015138803 -0.003615903 0.01010517 -0.01283923 -0.002164081 0.0026011858
-0.010672871 0.012599567 -0.005826047 -0.0107087325 0.006776594 -0.005804501 -0.0073635587 0.028646633
-0.009262345 0.0 -0.0021224364 0.005483158 -0.009215406 -0.0032001934 -0.0073624 0.004476744
0.005808677 -0.009012959 -0.0030036648 0.0073219975 0.0057428204 -0.0049164663 -0.0058645476 0.008993804
1.0014539 0.999453 1.0 1.0 0.9901693 0.99475574 1.0100477 0.9927524
0.99374217 1.0 0.9947418 0.9899102 0.9936772 0.9916814 1.0066354 0.98821604
1.0063916 0.9830589 0.9953819 0.9852845 1.0 0.9898406 0.9932817 1.0023178
0.9829082 0.99037766 0.99334055 0.9824167 0.9834988 0.99227923 0.9838559 1.0116727
0.98664165 0.9992697 0.99909437 0.99217534 1.0065174 0.99358714 0.9999538 1.0008616
0.99006593 1.010574 0.99416 0.9883617 1.0172465 0.9924619 0.9935653 1.0199829
0.99141854 1.0 0.9979251 1.0020772 0.99053544 0.996017 0.9929327 1.0070535
0.99758846 0.99205154 0.99676466 1.0088364 1.0114945 0.99603647 0.993168 1.0205594
0.0038508154 0.0016778961 0.0 0.0 -0.014960102 -0.0068376455 0.0026387891 -0.009636717
-0.0071451655 0.0 -0.011479847 -0.017012483 -0.0066051716 -0.01557888 -0.0030893155 -0.018596595
0.0067990758 -0.0045674243 -0.010332503 -0.0087858625 0.0 -0.011057817 -0.003353467 -0.0005218811
-0.0018083052 -0.010019633 -0.008148508 -0.0135111585 -0.0111527005 -0.007668265 -0.014403054 0.013033939
-0.011879301 -0.005413275 -0.0069407173 -0.011467223 0.0030142409 -0.012844171 -0.007298186 -0.0035629945
-0.01372409 -0.0047536623 -0.0045815883 -0.008863155 0.0064957323 -0.0049918597 -0.009111484 -0.004379234
-0.011648794 0.0 -0.007047074 0.00034686117 -0.007011264 0.006879791 -0.0059100627 -0.007866406
-0.002529373 -0.011483668 -0.0014129762 -0.009364143 0.009465702 -0.0066569885 -0.0043332563 -0.009304138
0.0022219787 -0.00017272195 0.0 0.0 -0.010247818 -0.006794195 0.014085004 -0.009239326
-0.006130961 0.0 -0.0053621475 -0.012663872 -0.006169404 -0.01151926 0.008978934 -0.012665724
-0.00013647488 -0.012828231 -0.0049759406 -0.014224169 0.0 -0.017214302 -0.0067664906 0.0014950626
-0.016277336 -0.012492034 -0.009626696 -0.023519635 -0.014733649 -0.007383836 -0.017183922 0.004347787
-0.013138082 -0.00016487947 -0.0016435503 -0.009424761 0.01022598 -0.012548118 -0.002988897 0.0011078435
-0.010673397 0.015597229 -0.005764945 -0.015103065 0.010128166 -0.0047850055 -0.007507993 0.019477276
-0.00866446 0.0 -0.0021357979 0.004244794 -0.008908808 -0.00040489458 -0.00757433 0.0028152491
0.0038415312 -0.009010146 -0.0024265652 0.005539553 0.004535677 -0.005257829 -0.0049288166 0.012449627
00000000: ac07 093b 4f5f 8fbb 0000 0000 0000 0000
00000010: 5ac8 26bc 55fd 1dbc 3c2f 9d3c a8e9 04bc
00000020: 1109 c9bb 0000 0000 82ea c2bb d63a 4cbc
00000030: 79e2 d9bb fe13 21bc 957e a43b 5d7f 43bc
00000040: f1dd e03b 45be 3cbc d9dc d5bb 8512 73bc
00000050: 0000 0000 720b 88bc 9fdc debb eb67 053b
00000060: 8c6f 84bc 0c9c 00bc 92a4 1dbc d4b3 bebc
00000070: 0291 70bc 0bbd 97bb fb7a 89bc 8f68 233c
00000080: 86c8 4fbc c465 a4b9 656d c6ba c9f8 6cbb
00000090: 2890 253c a25b 52bc 41d3 0dbb a878 2a3b
000000a0: 44dd 2ebc 6a6e 4e3c 6de8 bebb ae73 2fbc
000000b0: 310e de3b af33 bebb 024a f1bb 58ac ea3c
000000c0: 17c1 17bc 0000 0000 9318 0bbb 10ac b33b
000000d0: 37fc 16bc 56ba 51bb 4a40 f1bb a7b1 923b
000000e0: b756 be3b 17ab 13bc 22d9 44bb 5eed ef3b
000000f0: 452e bc3b 4f1a a1bb 642b c0bb c05a 133c
00000100: a42f 803f 27dc 7f3f 0000 803f 0000 803f
00000110: bc7b 7d3f 50a8 7e3f 3e49 813f 0525 7e3f
00000120: e365 7e3f 0000 803f 66a7 7e3f c16a 7d3f
00000130: a161 7e3f d5de 7d3f 6ed9 803f bafb 7c3f
00000140: 71d1 803f c0a9 7b3f 59d1 7e3f 9b3b 7c3f
00000150: 0000 803f 3266 7d3f b647 7e3f f34b 803f
00000160: df9f 7b3f 6489 7d3f 914b 7e3f a97f 7b3f
00000170: 94c6 7b3f 0306 7e3f fbdd 7b3f 7e7e 813f
00000180: 8c94 7c3f 24d0 7f3f a6c4 7f3f 34ff 7d3f
00000190: 90d5 803f ba5b 7e3f f9fc 7f3f 3c1c 803f
000001a0: f674 7d3f 7d5a 813f 4581 7e3f 4605 7d3f
000001b0: 2235 823f fc11 7e3f 4c5a 7e3f cd8e 823f
000001c0: 9bcd 7d3f 0000 803f 0578 7f3f 1144 803f
000001d0: bb93 7d3f f8fa 7e3f d630 7e3f 21e7 803f
000001e0: f561 7f3f 17f7 7d3f f82b 7f3f 8d21 813f
000001f0: a778 813f 3ffc 7e3f 4240 7e3f b1a1 823f
00000200: f65d 7c3b daec db3a 0000 0000 0000 0000
00000210: 371b 75bc 540e e0bb 89ef 2c3b 52e3 1dbc
00000220: fe21 eabb 0000 0000 f815 3cbc c35d 8bbc
00000230: 3270 d8bb 8f3e 7fbc 1d76 4abb e357 98bc
00000240: c8ca de3b 55aa 95bb a949 29bc 94f2 0fbc
00000250: 0000 0000 d92b 35bc d7c5 5bbb d9ce 08ba
00000260: a704 edba 6329 24bc 5281 05bc e85d 5dbc
00000270: d1b9 36bc 1246 fbbb c9fa 6bbc 4d8c 553c
00000280: 66a1 42bc d861 b1bb f56e e3bb 05e1 3bbc
00000290: 928a 453b 5c70 52bc 9f25 efbb 2181 69bb
000002a0: 01db 60bc 9cc4 9bbb 2621 96bb c436 11bc
000002b0: 27da d43b c192 a3bb 5548 15bc ad7f 8fbb
000002c0: 95da 3ebc 0000 0000 24eb e6bb ebda b539
000002d0: bfbe e5bb df6f e13b 33a9 c1bb 19e2 00bc
000002e0: d6c3 25bb ff25 3cbc 9d33 b9ba 106c 19bc
000002f0: 0816 1b3c de22 dabb fdfd 8dbb 6270 18bc
00000300: 9e9e 113b b21c 35b9 0000 0000 0000 0000
00000310: 77e6 27bc d7a1 debb cac4 663c 8b60 17bc
00000320: 3ae6 c8bb 0000 0000 f4b4 afbb 217c 4fbc
00000330: b628 cabb 47bb 3cbc 611c 133c e683 4fbc
00000340: b21a 0fb9 802d 52bc 370d a3bb 7d0c 69bc
00000350: 0000 0000 0205 8dbc 70b9 ddbb faf5 c33a
00000360: 0c58 85bc 63ab 4cbc 4ab9 1dbc 40ac c0bc
00000370: 6765 71bc 1bf4 f1bb 4cc5 8cbc e177 8e3b
00000380: 1c41 57bc 7fe3 2cb9 666c d7ba 506a 1abc
00000390: de8a 273c 9f96 4dbc 5fe1 43bb 0f35 913a
000003a0: 79df 2ebc 858b 7f3c dde7 bcbb d972 77bc
000003b0: 9bf0 253c 89cb 9cbb 9c05 f6bb cf8e 9f3c
000003c0: 61f5 0dbc 0000 0000 bef8 0bbb ea17 8b3b
000003d0: 40f6 11bc 0848 d4b9 1632 f8bb 0b80 383b
000003e0: 33c2 7b3b 4b9f 13bc 0207 1fbb 2385 b53b
000003f0: 04a0 943b de49 acbb e981 a1bb 85f9 4b3c

sequential/lstm/while/lstm_cell_1/MatMul_1 f4 [256, 64]
-0.08589623 -0.008403879 0.11627767 0.0591524 -0.08626545 0.052235708 0.03890839 -0.12322529
-0.038974486 0.03820701 -0.04944285 -0.022256138 -0.042445835 0.056096308 0.13284603 0.106279045
-0.081084415 -0.025414621 -0.016677834 -0.078513265 0.06468005 -0.0024358022 0.0041797203 0.0152727375
-0.048906073 -0.041953474 0.0681434 0.050495207 0.07562309 0.09040464 0.0677065 0.09595022
-0.03427574 -0.00036464306 0.043152332 -0.017915545 0.091918044 -0.081352174 -0.10810926 0.07543199
-0.02144473 -0.04387626 0.06690768 -0.105263926 -0.020795498 -0.054619387 0.025865454 -0.13762897
0.06756584 0.016652085 -0.08133105 -0.026261471 0.13340653 -0.007864396 0.0936034 0.033006046
-0.064724356 0.0058588525 -0.011832981 -0.0945315 -0.07985033 -0.050012868 0.048077006 0.1319962
0.05747242 -0.026531659 -0.023227286 -0.104976594 0.06462849 -0.064262904 0.0035532697 0.018366495
0.009240544 -0.010216322 0.020529946 -0.04140442 -0.011543447 -0.051974062 -0.079585865 0.024441354
0.02551414 -0.033241462 0.086472236 0.05945043 0.008329868 0.044037756 -0.010381239 0.021319186
0.07103795 -0.016417578 0.14696823 0.09972687 0.16541083 -0.010555423 0.0600652 -0.023562407
0.085595466 -0.07730499 -0.13604318 -0.082749814 -0.07980012 -0.009338298 -0.06678413 -0.026396956
-0.096832454 -0.03294592 0.037347626 -0.06903681 -0.07858359 0.014471507 0.0718867 0.02374618
0.02787227 -0.04209187 0.051268 0.07337378 -0.020723857 -0.059321184 0.0013247208 0.0716268
-0.07761731 -0.044578742 0.059338845 0.007726435 0.09235661 -0.01695051 0.012664197 -0.029698538
-0.03325315 0.048752468 -0.06330371 0.09597858 0.07431569 -0.052062344 0.046613857 -0.04872666
-0.07505506 0.015730798 -0.058909558 -0.025713902 -0.015326512 -0.0758447 -0.01113762 -0.07615903
-0.055822086 0.14801306 -0.017744606 0.05888368 0.011547817 0.029675538 -0.012993875 -0.06256871
0.005749649 0.017335758 -0.062864535 -0.043957163 0.013178348 -0.01214564 -0.11192903 0.007007107
-0.037314422 0.00504903 0.09220413 0.014741875 0.030693322 -0.027011909 0.013247819 0.08264016
-0.0024518315 -0.10475329 -0.08261603 -0.09753006 -0.0010387516 -0.013626322 0.093185134 0.012492249
0.0049194223 0.017713841 -0.05510493 -0.06655093 -0.022855218 -0.0016735465 -0.05918314 0.0055286707
-0.1514154 0.008948517 -0.046138063 -0.13758412 0.07349155 -0.0127339745 -0.006266903 -0.02786393
0.039102066 0.09311809 -0.01437819 0.058264256 0.067052424 -0.0636918 -0.049269706 -0.028663194
-0.021824414 0.00077615364 -0.018115537 0.0015679235 -0.033843745 -0.0915056 -0.025918985 -0.0625474
0.03148674 0.0050422344 0.08085284 -0.041249253 0.029562099 0.11275307 0.0013075195 -0.010740129
-0.09006466 0.021996107 0.040373966 -0.01878442 0.036732547 -0.048260085 -0.0062445914 -0.08501195
0.1252246 -0.030430125 -0.060787752 0.020643113 -0.0230998 0.09268702 -0.1625339 -0.047446012
-0.0578928 -0.06280237 0.006899746 -0.050166965 0.06896056 -0.011489989 0.09455507 0.0018700146
0.014956135 0.109398834 0.04778778 0.017229667 0.0075664767 0.08572227 0.01961647 -0.018028237
-0.014247613 -0.068545386 -0.08913271 0.01568493 -0.09824907 -0.029833121 -0.018620174 0.054750238
00000000: 5dea afbd 6cb0 09bc fd22 ee3d c949 723d
00000010: f1ab b0bd 1cf5 553d 675e 1f3d 8a5d fcbd
00000020: b6a3 1fbd f47e 1c3d 9684 4abd 8152 b6bc
00000030: afdb 2dbd 3ec5 653d ca08 083e d4a8 d93d
00000040: 960f a6bd 5332 d0bc f49f 88bc 90cb a0bd
00000050: f976 843d fba1 1fbb 09f6 883b 813a 7a3c
00000060: bc51 48bd 68d7 2bbd c48e 8b3d 10d4 4e3d
00000070: 47e0 9a3d 1126 b93d b5a9 8a3d 8d81 c43d
00000080: b864 0cbd 902d bfb9 80c0 303d 9fc3 92bc
00000090: 873f bc3d f89b a6bd 6368 ddbd 167c 9a3d
000000a0: dcac afbc 98b7 33bd e506 893d 9d94 d7bd
000000b0: 525b aabc 94b8 5fbd cae3 d33c 9cee 0cbe
000000c0: f65f 8a3d f469 883c e590 a6bd 4c22 d7bc
000000d0: b99b 083e abd9 00bc 24b3 bf3d 5931 073d
000000e0: 348e 84bd 9efb bf3b 1fdf 41bc bb99 c1bd
000000f0: 9288 a3bd 4bda 4cbd 65ec 443d 032a 073e
00000100: 3368 6b3d ec58 d9bc 2647 bebc f8fd d6bd
00000110: f15b 843d 459c 83bd f9dd 683b 5575 963c
00000120: a765 173c 5c62 27bc 6b2e a83c ae97 29bd
00000130: ba20 3dbc c1e2 54bd eafd a2bd 3c39 c83c
00000140: 0803 d13c 3328 08bd 5b18 b13d 4b82 733d
00000150: 007a 083c ef60 343d 1216 2abc 93a5 ae3c
00000160: 587c 913d 287e 86bc d77e 163e 9a3d cc3d
00000170: 7561 293e a7f0 2cbc ed06 763d f305 c1bc
00000180: ad4c af3d 1452 9ebd e74e 0bbe bc78 a9bd
00000190: 3f6e a3bd a9ff 18bc 1ec6 88bd 6e3e d8bc
000001a0: 1850 c6bd 4df2 06bd d3f9 183d 2c63 8dbd
000001b0: 6ff0 a0bd e619 6d3c 5639 933d 5987 c23c
000001c0: 6354 e43c 8668 2cbd 65fe 513d fe44 963d
000001d0: 14c5 a9bc c5fa 72bd 41a2 ad3a 12b1 923d
000001e0: d3f5 9ebd 3398 36bd 4a0d 733d 092e fd3b
000001f0: 7625 bd3d ccdb 8abc 7e7d 4f3c 594a f3bc
00000200: 7434 08bd abb0 473d 60a5 81bd 6b90 c43d
00000210: d332 983d 533f 55bd 2cee 3e3d 9b95 47bd
00000220: 78b6 99bd e0dd 803c 264b 71bd f6a5 d2bc
00000230: 0d1c 7bbc 7754 9bbd 907a 36bc 44f9 9bbd
00000240: b3a5 64bd bc90 173e 235d 91bc 0330 713d
00000250: 0e33 3d3c 1d1a f33c 43e4 54bc 0624 80bd
00000260: 8d67 bc3b b803 8e3c 1fbf 80bd 6d0c 34bd
00000270: ffe9 573c 82fe 46bc 0c3b e5bd e09b e53b
00000280: 02d7 18bd 5572 a53b 85d5 bc3d e887 713c
00000290: 9070 fb3c 1448 ddbc 610d 593c 3f3f a93d
000002a0: e8ae 20bb e588 d6bd 9832 a9bd d7bd c7bd
000002b0: b826 88ba f040 5fbc d9d7 be3d 4aac 4c3c
000002c0: 1b33 a13b 9e1c 913c b5b5 61bd db4b 88bd
000002d0: de3a bbbc e75a dbba 056a 72bd da29 b53b
000002e0: a30c 1bbe cd9c 123c 44fb 3cbd dae2 0cbe
000002f0: bd82 963d 29a2 50bc 985a cdbb e642 e4bc
00000300: 7d29 203d b2b4 be3d 8092 6bbc 80a6 6e3d
00000310: c852 893d d970 82bd 08cf 49bd 13cf eabc
00000320: 1dc9 b2bc ca76 4b3a 0967 94bc c882 cd3a
00000330: bd9f 0abd 4a67 bbbd 0d54 d4bc da18 80bd
00000340: 3df8 003d 5439 a53b 2c96 a53d faf4 28bd
00000350: 372c f23c 15eb e63d 1361 ab3a 5ef7 2fbc
00000360: d273 b8bd 2e31 b43c 2c5f 253d c9e1 99bc
00000370: de74 163d 5eac 45bd 6e9f ccbb bf1a aebd
00000380: e13a 003e 9948 f9bc 94fc 78bd bf1b a93c
00000390: cb3b bdbc b1d2 bd3d 496f 26be c056 42bd
000003a0: 0021 6dbd 879e 80bd 4417 e23b e07b 4dbd
000003b0: 323b 8d3d 8240 3cbc 17a6 c13d 471b f53a
000003c0: 940a 753c 7f0c e03d 1fbd 433d 3b25 8d3c
000003d0: 35f0 f73b 288f af3d b8b2 a03c f4af 93bc
000003e0: d26e 69bc 8661 8cbd 368b b6bd af7d 803c
000003f0: cf36 c9bd 9764 f4bc 5689 98bc c941 603d

sequential/lstm/while/lstm_cell_1/MatMul f4 [256, 172]
0.11355714 0.040296383 -0.019693729 0.09804632 0.099255726 -0.07855215 0.09478548 -0.026596965
-0.071395464 0.07035164 0.010694362 -0.020149603 -0.057334762 0.06543435 -0.084618084 -0.11321117
0.111694984 0.04307447 0.039206076 -0.017657503 0.114507034 -0.08812838 0.05156886 0.065498985
-0.09182451 0.11933297 0.005974978 0.09038168 0.05010506 -0.05691717 -0.04981845 -0.057993837
-0.0023541094 -0.09641471 -0.011002805 0.024773821 0.115971126 0.056555327 0.07007305 0.08518317
-0.017878532 -0.07331447 -0.049789667 0.086667106 -0.00863143 0.022268737 -0.044638425 0.051700693
0.024556033 -0.04012986 -0.016787227 -0.058046505 -0.011366607 0.042411588 -0.05201225 -0.04473923
0.030600613 0.090876915 -0.20868796 0.11165347 0.083498634 -0.01696172 0.029033873 -0.06107046
-0.029947864 -0.03905061 0.043531924 0.1086846 -0.095808096 0.0061537987 -0.030922558 0.037478596
0.094906926 -0.07641979 -0.09428746 -0.046424188 -0.030580472 0.09098833 0.034933515 0.022494383
0.12971039 0.06498492 0.054109596 0.004131908 -0.0033693374 0.068038896 -0.04254798 0.04841127
-0.08252774 -0.08547741 0.12874337 -0.086732715 0.09126488 0.065091036 0.022491027 0.03555243
0.014513427 0.10485034 0.044433095 0.11510721 -0.026262574 0.022761649 -0.09839306 -0.066921756
-0.04248457 0.09197621 0.028225744 -0.105174035 -0.000946547 -0.046055038 -0.10147193 0.112407126
0.025564222 0.11701023 -0.052255865 0.11014499 0.08867781 -0.02741105 -0.06428391 -0.007448639
-0.06556448 -0.023794286 0.07160442 -0.034365024 -0.060478527 0.015981738 -0.14487138 0.023238976
0.006118958 0.09393035 -0.035458323 0.07605956 -0.12414848 0.011405036 -0.056902025 -0.06961715
-0.06856138 -0.098753706 0.06680691 0.06597452 0.09160555 -0.07235411 0.059931733 0.0039608413
-0.028316798 -0.011387041 0.07053236 -0.020135064 0.13573287 0.12128213 0.038067177 -0.07005417
0.067178175 -0.008170285 0.16205068 -0.022888606 -0.0070550493 0.09454199 -0.074419126 -0.059659224
0.06411706 -0.0062227836 0.01526991 -0.07061629 0.0072859465 -0.014437923 0.00096034503 -0.0341241
-0.080197856 0.14206745 0.06756197 -0.107291386 -0.10233037 -0.06209174 -0.011512926 -0.07790288
-0.019137952 0.082385644 -0.057510044 -0.071781635 0.09421927 -0.03627615 0.08004099 0.086978234
0.008763948 -0.11503162 0.08679499 0.065744154 0.0029813088 -0.09545099 0.02794874 0.06965315
0.0021388966 -0.11771695 -0.012079084 0.093540534 0.09645118 -0.0637006 0.097091004 -0.010395772
-0.058252215 -0.043638874 0.0010211411 -0.12032526 0.04707602 -0.11809389 -0.04563857 0.10880762
0.08572376 0.06465117 0.056215826 -0.0019969933 -0.006911355 0.04551621 0.013952064 0.10330953
0.019069063 -0.084977545 -0.0142038725 -0.109873064 -0.11945847 0.09277991 0.019358853 0.036882304
-0.10588877 0.03934011 0.039079543 0.06549749 0.08816696 -0.09300957 -0.004126009 -0.0074776793
0.100363694 -0.045604374 0.0055655087 -0.076891996 -0.044175893 -0.05115416 -0.095975034 -0.0582261
-0.01898554 0.0899673 0.022079512 -0.011804245 -0.056189243 0.028944697 0.004637015 0.02866169
0.061447926 -0.0710441 -0.082244575 -0.10132338 -0.044753265 0.011765299 0.08295112 -0.08176434
00000000: a590 e83d d20d 253d be54 a1bc 82cc c83d
00000010: 9646 cb3d f3df a0bd e41e c23d e1e1 d9bc
00000020: c937 92bd 8514 903d 6837 2f3c c810 a5bc
00000030: dbd7 6abd 7202 863d 3f4c adbd 42db e7bd
00000040: 57c0 e43d db6e 303d 8d96 203d 78a6 90bc
00000050: aa82 ea3d a77c b4bd de39 533d 5524 863d
00000060: 7d0e bcbd d864 f43d c0c9 c33b 081a b93d
00000070: f73a 4d3d fa21 69bd 6e0e 4cbd f28a 6dbd
00000080: 6747 1abb 1375 c5bd 1c45 34bc 78f2 ca3c
00000090: 4582 ed3d 8fa6 673d 7682 8f3d 8474 ae3d
000000a0: 0076 92bc e625 96bd 40f0 4bbd 867e b13d
000000b0: d76a 0dbc ed6c b63c c8d6 36bd 1bc4 533d
000000c0: bc29 c93c 355f 24bd 5e85 89bc 2cc2 6dbd
000000d0: 013b 3abc c6b7 2d3d cc0a 55bd 7c40 37bd
000000e0: 23ae fa3c ad1d ba3d 4cb2 55be 93aa e43d
000000f0: 5501 ab3d 4ef3 8abc 72d8 ed3c 0525 7abd
00000100: 3955 f5bc 88f3 1fbd 884e 323d 0896 de3d
00000110: 0937 c4bd cea5 c93b 4e51 fdbc 2883 193d
00000120: 905e c23d fb81 9cbd c919 c1bd 4a27 3ebd
00000130: e683 fabc 1758 ba3d 7216 0f3d 2446 b83c
00000140: cdd2 043e d016 853d 06a2 5d3d f564 873b
00000150: 1ad0 5cbb fa57 8b3d ca46 2ebd e54a 463d
00000160: 4e04 a9bd c80e afbd 4dd5 033e eca0 b1bd
00000170: 15e9 ba3d 734e 853d 1a3f b83c 6d9f 113d
00000180: bac9 6d3c c6bb d63d 7aff 353d 54bd eb3d
00000190: 9c24 d7bc a376 ba3c 4d82 c9bd 460e 89bd
000001a0: 4d04 2ebd 065e bc3d ad39 e73c 7c65 d7bd
000001b0: b221 78ba 35a4 3cbd 84d0 cfbd b535 e63d
000001c0: 0f6c d13c 0fa3 ef3d 3f0a 56bd b293 e13d
000001d0: b69c b53d 238d e0bc 48a7 83bd b613 f4bb
000001e0: ac46 86bd 3cec c2bc 57a5 923d 57c2 0cbd
000001f0: 55b8 77bd 22ec 823c 2a59 14be aa5f be3c
00000200: 8a81 c83b 8e5e c03d bf3c 11bd 1dc5 9b3d
00000210: 8f41 febd 30dc 3a3c 1912 69bd 7093 8ebd
00000220: e969 8cbd 623f cabd 10d2 883d a61d 873d
00000230: b19b bb3d 642e 94bd fa7a 753d f2c9 813b
00000240: a1f8 e7bc b690 3abc 4573 903d 4af2 a4bc
00000250: 8ffd 0a3e c462 f83d 54ec 1b3d 9078 8fbd
00000260: b694 893d a9dc 05bc 9df0 253e e380 bbbc
00000270: 0b2e e7bb 3b9f c13d 0e69 98bd 3b5d 74bd
00000280: ce4f 833d 7ee8 cbbb a52e 7a3c 469f 90bd
00000290: f3be ee3b 0a8d 6cbc aabf 7b3a b6c5 0bbd
000002a0: c63e a4bd 217a 113e ee5d 8a3d 96bb dbbd
000002b0: 9692 d1bd e953 7ebd b6a0 3cbc 8c8b 9fbd
000002c0: 32c7 9cbc ceb9 a83d a78f 6bbd 4002 93bd
000002d0: 08f6 c03d 4d96 14bd 88ec a33d a521 b23d
000002e0: aa96 0f3c b395 ebbd 92c1 b13d dfa4 863d
000002f0: 1062 433b cf7b c3bd c2f4 e43c 50a6 8e3d
00000300: bb2c 0c3b 9615 f1bd 5ae7 45bc 2e92 bf3d
00000310: 3288 c53d 7675 82bd a6d7 c63d 0753 2abc
00000320: e099 6ebd adbe 32bd cfd7 853a 176d f6bd
00000330: c9d2 403d 36db f1bd 82ef 3abd 88d6 de3d
00000340: f08f af3d d567 843d 9142 663d fddf 02bb
00000350: a678 e2bb 356f 3a3d 3397 643c f293 d33d
00000360: b936 9c3c b508 aebd 5cb7 68bc 2105 e1bd
00000370: a4a6 f4bd 6503 be3d 7596 9e3c e611 173d
00000380: 36dc d8bd 1823 213d df11 203d 8c23 863d
00000390: e190 b43d cd7b bebd 7933 87bb 5207 f5bb
000003a0: 7b8b cd3d a7cb 3abd df5e b63b 8d79 9dbd
000003b0: c8f1 34bd 0687 51bd 8f8e c4bd 7e7e 6ebd
000003c0: 9087 9bbc c740 b83d 18e0 b43c 9866 41bc
000003d0: b126 66bd 6e1d ed3c 1af2 973b eccb ea3c
000003e0: d2b0 7b3d 927f 91bd d86f a8bd a282 cfbd
000003f0: 334f 37bd 3ec3 403c 47e2 a93d 1074 a7bd
