models/jumping_modelss.tflite (tflite, 271036 bytes, 9 tensors)

sequential/lstm/TensorArrayV2_1 f4 [30, 1, 64]
000000 00 00 00 00 00 00 00 00 00 00 00 00 00 00 00 00
       0.0 0.0 0.0 0.0
000010 00 00 00 00 00 00 00 00 00 00 00 00 00 00 00 00
       0.0 0.0 0.0 0.0
000020 00 00 00 00 00 00 00 00 00 00 00 00 00 00 00 00
       0.0 0.0 0.0 0.0
000030 00 00 00 00 00 00 00 00 00 00 00 00 00 00 00 00
       0.0 0.0 0.0 0.0
000040 00 00 00 00 00 00 00 00 00 00 00 00 00 00 00 00
       0.0 0.0 0.0 0.0
000050 00 00 00 00 00 00 00 00 00 00 00 00 00 00 00 00
       0.0 0.0 0.0 0.0
000060 00 00 00 00 00 00 00 00 00 00 00 00 00 00 00 00
       0.0 0.0 0.0 0.0
000070 00 00 00 00 00 00 00 00 00 00 00 00 00 00 00 00
       0.0 0.0 0.0 0.0
000080 00 00 00 00 00 00 00 00 00 00 00 00 00 00 00 00
       0.0 0.0 0.0 0.0
000090 00 00 00 00 00 00 00 00 00 00 00 00 00 00 00 00
       0.0 0.0 0.0 0.0
0000a0 00 00 00 00 00 00 00 00 00 00 00 00 00 00 00 00
       0.0 0.0 0.0 0.0
0000b0 00 00 00 00 00 00 00 00 00 00 00 00 00 00 00 00
       0.0 0.0 0.0 0.0
0000c0 00 00 00 00 00 00 00 00 00 00 00 00 00 00 00 00
       0.0 0.0 0.0 0.0
0000d0 00 00 00 00 00 00 00 00 00 00 00 00 00 00 00 00
       0.0 0.0 0.0 0.0
0000e0 00 00 00 00 00 00 00 00 00 00 00 00 00 00 00 00
       0.0 0.0 0.0 0.0
0000f0 00 00 00 00 00 00 00 00 00 00 00 00 00 00 00 00
       0.0 0.0 0.0 0.0
000100 00 00 00 00 00 00 00 00 00 00 00 00 00 00 00 00
       0.0 0.0 0.0 0.0
000110 00 00 00 00 00 00 00 00 00 00 00 00 00 00 00 00
       0.0 0.0 0.0 0.0
000120 00 00 00 00 00 00 00 00 00 00 00 00 00 00 00 00
       0.0 0.0 0.0 0.0
000130 00 00 00 00 00 00 00 00 00 00 00 00 00 00 00 00
       0.0 0.0 0.0 0.0
000140 00 00 00 00 00 00 00 00 00 00 00 00 00 00 00 00
       0.0 0.0 0.0 0.0
000150 00 00 00 00 00 00 00 00 00 00 00 00 00 00 00 00
       0.0 0.0 0.0 0.0
000160 00 00 00 00 00 00 00 00 00 00 00 00 00 00 00 00
       0.0 0.0 0.0 0.0
000170 00 00 00 00 00 00 00 00 00 00 00 00 00 00 00 00
       0.0 0.0 0.0 0.0
000180 00 00 00 00 00 00 00 00 00 00 00 00 00 00 00 00
       0.0 0.0 0.0 0.0
000190 00 00 00 00 00 00 00 00 00 00 00 00 00 00 00 00
       0.0 0.0 0.0 0.0
0001a0 00 00 00 00 00 00 00 00 00 00 00 00 00 00 00 00
       0.0 0.0 0.0 0.0
0001b0 00 00 00 00 00 00 00 00 00 00 00 00 00 00 00 00
       0.0 0.0 0.0 0.0
0001c0 00 00 00 00 00 00 00 00 00 00 00 00 00 00 00 00
       0.0 0.0 0.0 0.0
0001d0 00 00 00 00 00 00 00 00 00 00 00 00 00 00 00 00
       0.0 0.0 0.0 0.0
0001e0 00 00 00 00 00 00 00 00 00 00 00 00 00 00 00 00
       0.0 0.0 0.0 0.0
0001f0 00 00 00 00 00 00 00 00 00 00 00 00 00 00 00 00
       0.0 0.0 0.0 0.0
000200 00 00 00 00 00 00 00 00 00 00 00 00 00 00 00 00
       0.0 0.0 0.0 0.0
000210 00 00 00 00 00 00 00 00 00 00 00 00 00 00 00 00
       0.0 0.0 0.0 0.0
000220 00 00 00 00 00 00 00 00 00 00 00 00 00 00 00 00
       0.0 0.0 0.0 0.0
000230 00 00 00 00 00 00 00 00 00 00 00 00 00 00 00 00
       0.0 0.0 0.0 0.0
000240 00 00 00 00 00 00 00 00 00 00 00 00 00 00 00 00
       0.0 0.0 0.0 0.0
000250 00 00 00 00 00 00 00 00 00 00 00 00 00 00 00 00
       0.0 0.0 0.0 0.0
000260 00 00 00 00 00 00 00 00 00 00 00 00 00 00 00 00
       0.0 0.0 0.0 0.0
000270 00 00 00 00 00 00 00 00 00 00 00 00 00 00 00 00
       0.0 0.0 0.0 0.0
000280 00 00 00 00 00 00 00 00 00 00 00 00 00 00 00 00
       0.0 0.0 0.0 0.0
000290 00 00 00 00 00 00 00 00 00 00 00 00 00 00 00 00
       0.0 0.0 0.0 0.0
0002a0 00 00 00 00 00 00 00 00 00 00 00 00 00 00 00 00
       0.0 0.0 0.0 0.0
0002b0 00 00 00 00 00 00 00 00 00 00 00 00 00 00 00 00
       0.0 0.0 0.0 0.0
0002c0 00 00 00 00 00 00 00 00 00 00 00 00 00 00 00 00
       0.0 0.0 0.0 0.0
0002d0 00 00 00 00 00 00 00 00 00 00 00 00 00 00 00 00
       0.0 0.0 0.0 0.0
0002e0 00 00 00 00 00 00 00 00 00 00 00 00 00 00 00 00
       0.0 0.0 0.0 0.0
0002f0 00 00 00 00 00 00 00 00 00 00 00 00 00 00 00 00
       0.0 0.0 0.0 0.0
000300 00 00 00 00 00 00 00 00 00 00 00 00 00 00 00 00
       0.0 0.0 0.0 0.0
000310 00 00 00 00 00 00 00 00 00 00 00 00 00 00 00 00
       0.0 0.0 0.0 0.0
000320 00 00 00 00 00 00 00 00 00 00 00 00 00 00 00 00
       0.0 0.0 0.0 0.0
000330 00 00 00 00 00 00 00 00 00 00 00 00 00 00 00 00
       0.0 0.0 0.0 0.0
000340 00 00 00 00 00 00 00 00 00 00 00 00 00 00 00 00
       0.0 0.0 0.0 0.0
000350 00 00 00 00 00 00 00 00 00 00 00 00 00 00 00 00
       0.0 0.0 0.0 0.0
000360 00 00 00 00 00 00 00 00 00 00 00 00 00 00 00 00
       0.0 0.0 0.0 0.0
000370 00 00 00 00 00 00 00 00 00 00 00 00 00 00 00 00
       0.0 0.0 0.0 0.0
000380 00 00 00 00 00 00 00 00 00 00 00 00 00 00 00 00
       0.0 0.0 0.0 0.0
000390 00 00 00 00 00 00 00 00 00 00 00 00 00 00 00 00
       0.0 0.0 0.0 0.0
0003a0 00 00 00 00 00 00 00 00 00 00 00 00 00 00 00 00
       0.0 0.0 0.0 0.0
0003b0 00 00 00 00 00 00 00 00 00 00 00 00 00 00 00 00
       0.0 0.0 0.0 0.0
0003c0 00 00 00 00 00 00 00 00 00 00 00 00 00 00 00 00
       0.0 0.0 0.0 0.0
0003d0 00 00 00 00 00 00 00 00 00 00 00 00 00 00 00 00
       0.0 0.0 0.0 0.0
0003e0 00 00 00 00 00 00 00 00 00 00 00 00 00 00 00 00
       0.0 0.0 0.0 0.0
0003f0 00 00 00 00 00 00 00 00 00 00 00 00 00 00 00 00
       0.0 0.0 0.0 0.0

sequential/dense/BiasAdd/ReadVariableOp/resource f4 [32]
000000 bb 3e 89 bc d6 42 6a bb cc 79 96 bc 6f ba b5 bb
       -0.016753545 -0.0035745404 -0.018368624 -0.0055459063
000010 66 ba 31 3c 61 b0 96 3b 26 5e f0 3b 9a 12 fb bb
       0.0108476635 0.0045986627 0.007335442 -0.0076621296
000020 7d e9 b5 bb fc 89 34 3c 56 38 92 bb ab 52 9f 3c
       -0.0055515156 0.011019226 -0.004462282 0.019448599
000030 11 00 50 bc fe 03 67 bb f3 ef 2f bb cb b9 5b 3c
       -0.012695328 -0.0035250182 -0.0026845902 0.013410996
000040 c8 c6 89 3c b8 f3 14 3c b5 f1 9c bc a1 e4 29 15
       0.01681842 0.00909131 -0.019158224 3.4309635e-26
000050 00 00 00 00 99 26 a9 39 83 1e 32 3c 5d 8e 33 3c
       0.0 0.0003226295 0.010871532 0.010959235
000060 00 00 00 00 34 96 ac bb d4 88 15 bc d9 11 ff bb
       0.0 -0.005266929 -0.009126861 -0.00778411
000070 b8 1f 8b 39 4d 14 34 bc e9 d8 2f bc aa ad 76 bc
       0.00026535778 -0.010991168 -0.010732868 -0.015056053

sequential/dense_1/BiasAdd/ReadVariableOp/resource f4 [2]
000000 8c f2 32 3c 8b f2 32 bc
       0.0109220855 -0.010922085

sequential/lstm/lstm_cell_1/BiasAdd/ReadVariableOp/resource f4 [256]
000000 67 6a 27 bb 2e cd 5f bb 58 a0 44 3a 68 da 87 bb
       -0.0025545598 -0.0034149396 0.00075007 -0.004145909
000010 75 e3 c7 bb 75 07 08 3c 00 00 00 00 00 00 00 00
       -0.006100113 0.008302559 0.0 0.0
000020 14 22 8c af 87 dc 7b 3a 5d b8 3c bc ca 50 41 3a
       -2.5490066e-10 0.0009607751 -0.011518565 0.0007374404
000030 c3 a3 bc b7 24 3a 2c 3c 36 71 93 bb 95 4d be 3b
       -2.2487604e-05 0.010511909 -0.00449958 0.0058075883
000040 bb 9e 8b 3b b8 2d 28 3c 38 1b b9 bb 8f f1 cb bb
       0.0042608655 0.010264806 -0.0056489967 -0.0062238644
000050 96 ee 01 2e 23 b8 e4 3b 93 a6 e5 bb ae 1f e5 bb
       2.954311e-11 0.0069799586 -0.0070083826 -0.006992302
000060 95 2d 4c b9 c7 11 e4 bb bf 71 03 bc 2b b7 89 3b
       -0.00019471937 -0.006960127 -0.008022725 0.0042027435
000070 c0 87 a4 3a f7 2a 72 3b c4 46 c4 b9 43 f8 9e 3a
       0.0012552664 0.0036951879 -0.00037436758 0.0012128431
000080 62 a9 05 b9 36 73 c7 b9 84 ce f3 bb ff ec 0c bc
       -0.00012746968 -0.00038042077 -0.00744039 -0.008601426
000090 a8 2c 1d 3b 38 ec 39 bc 5a 26 1c 3c 00 00 00 00
       0.0023982916 -0.011347823 0.009530628 0.0
0000a0 a7 b0 9b bb fa d8 49 3c a7 71 c6 3a 60 5f 9f b9
       -0.004751283 0.012319798 0.0015140072 -0.00030397903
0000b0 bb 9d 07 3b 29 a5 11 bb 45 c3 19 3a 4f ba 34 3c
       0.002069338 -0.0022223687 0.0005865584 0.011030748
0000c0 a6 af e9 bb 9e 85 b6 ba 59 02 02 3c fb 86 08 2e
       -0.0071315346 -0.0013925319 0.00793513 3.1042707e-11
0000d0 96 26 18 bc 4d 04 bd b9 9e 89 6c 3b 23 44 a8 36
       -0.009286543 -0.00036052093 0.0036092768 5.0147223e-06
0000e0 12 73 07 bc 3f 99 07 bc fd fc ea b9 86 4c 08 bc
       -0.008267181 -0.008276283 -0.0004482045 -0.008319026
0000f0 a6 6e fb bb f2 f4 8e ba ae a2 6a ba 31 3e 96 90
       -0.0076731024 -0.001090674 -0.0008950633 -5.926039e-29
000100 67 4a 7e 3f 78 cb 7e 3f 52 3a 80 3f 75 50 7f 3f
       0.9933228 0.9952922 1.0017798 0.9973214
000110 af 5a 7e 3f 56 00 81 3f 00 00 80 3f 00 00 80 3f
       0.9935712 1.0078228 1.0 1.0
000120 00 00 80 3f d1 04 80 3f 30 cb 7d 3f fc dc 7f 3f
       1.0 1.000147 0.99138165 0.9994657
000130 00 00 80 3f 01 5c 81 3f 04 55 7e 3f f5 ad 80 3f
       1.0 1.0106202 0.99348474 1.0053087
000140 e5 b0 80 3f 41 3d 81 3f 37 ce 7e 3f 44 71 7f 3f
       1.0053984 1.0096818 0.9953341 0.99782205
000150 00 00 80 3f f0 55 81 3f 6b 83 7e 3f 43 12 7e 3f
       1.0 1.0104351 0.9941928 0.99246615
000160 1f 08 80 3f e6 13 7e 3f 60 fb 7d 3f b5 cc 7f 3f
       1.0002478 0.9924911 0.9921169 0.99921733
000170 b3 02 80 3f c6 91 80 3f 3a ce 7f 3f af d5 80 3f
       1.0000824 1.0044487 0.9992405 1.0065211
000180 72 18 80 3f 64 ce 7e 3f 8f 26 7e 3f 99 78 7e 3f
       1.000746 0.9953368 0.99277586 0.9940277
000190 3c 43 80 3f aa 7b 7d 3f bd b9 81 3f 00 00 80 3f
       1.0020518 0.9901682 1.0134808 1.0
0001a0 f7 f2 7e 3f 16 50 81 3f f8 90 7f 3f 89 e8 7f 3f
       0.99589485 1.0102565 0.9983058 0.99964195
0001b0 97 40 80 3f 47 3a 7f 3f 5e 51 80 3f c8 79 81 3f
       1.0019711 0.996983 1.0024831 1.011529
0001c0 8c 63 7e 3f 92 0d 80 3f 29 32 81 3f 00 00 80 3f
       0.99370646 1.0004141 1.0093433 1.0
0001d0 71 c6 7d 3f 61 f2 7f 3f fb aa 80 3f 00 00 80 3f
       0.9913092 0.99979216 1.0052179 1.0
0001e0 88 1a 7e 3f 7c 7e 7d 3f ff 65 7f 3f 09 04 80 3f
       0.99259233 0.99021125 0.9976501 1.0001231
0001f0 a7 2b 7e 3f f3 b8 7f 3f c9 95 7f 3f 00 00 80 3f
       0.9928536 0.99891585 0.9983793 1.0
000200 13 c1 33 bb 1d 22 09 bc e5 9a 5c 3b a6 9c 27 bb
       -0.0027428314 -0.00836995 0.003366166 -0.0025575547
000210 3b db b8 bb d4 40 49 3b 00 00 00 00 00 00 00 00
       -0.0056413687 0.0030708807 0.0 0.0
000220 58 05 04 b1 0e 86 2f ba e0 3a 26 bc fb 2e 9e ba
       -1.9211566e-09 -0.0006695696 -0.010145873 -0.0012068445
000230 f5 09 48 ba 34 57 fd 39 29 75 95 ba 4a 42 f0 3b
       -0.0007630878 0.00048320892 -0.0011402714 0.007332121
000240 97 4e 9e 3a 1a 1f 6c bb 89 c4 02 bc 13 b7 1a bc
       0.0012077865 -0.003602928 -0.007981428 -0.009443062
000250 7b f3 af 2e ed dc 0b 3c c9 19 19 bc 32 f7 de 3a
       8.0013295e-11 0.0085365595 -0.009344527 0.0017010926
000260 bb 9f f2 ba c3 88 ce bb 8b ec 11 bc 4f 51 6e 3a
       -0.0018510738 -0.0063029244 -0.008906494 0.00090910954
000270 f0 5c 90 ba 2e df 3e 3b 30 50 bb bb 14 94 3a bc
       -0.0011014026 0.0029124725 -0.005716346 -0.011387844
000280 0f 5f b0 ba 63 af 3b 3a 5b 01 f0 bb a1 9c 2b bc
       -0.0013456064 0.00071596185 -0.0073243803 -0.010474355
000290 3c c6 e4 bb 1c 54 25 bc 58 7e c6 3a 00 00 00 00
       -0.006981639 -0.010090854 0.0015143855 0.0
0002a0 29 08 bd bb d4 2f 04 3c a0 1f 00 bc c4 c4 9c bb
       -0.005768795 0.008068044 -0.00782004 -0.0047841985
0002b0 4f 74 04 3c ea 95 64 38 a6 52 5d 39 14 b3 50 3b
       0.008084371 5.4499054e-05 0.00021106991 0.003184502
0002c0 5c 04 03 bc ae 22 a7 3b 1a 3d 8d 3b 33 9f e4 2c
       -0.007996645 0.0051005697 0.0043102624 6.4978244e-12
0002d0 01 72 53 bc a4 f5 d1 39 44 76 33 3b 15 8d 52 3a
       -0.012905599 0.00040046603 0.0027383724 0.0008031887
0002e0 41 1c 02 bc 58 ad 2d bc 6f c3 33 bb a4 5f 33 bc
       -0.007941307 -0.01060041 -0.002742972 -0.0109480955
0002f0 bf 3d 0f bc ca 08 ea bb f3 92 ce ba 3b d8 0c 91
       -0.008742749 -0.007142161 -0.0015760347 -1.1110684e-28
000300 5a f6 ab bb 18 ca 95 bb d0 48 12 3a 42 07 19 bb
       -0.0052478733 -0.0045712106 0.0005580308 -0.0023350273
000310 79 b6 ab bb f2 86 d8 3b 00 00 00 00 00 00 00 00
       -0.0052402583 0.0066078836 0.0 0.0
000320 7d 4c f8 a9 89 aa 62 ba db bd 4b bc 05 14 e6 ba
       -1.1026681e-13 -0.00086466275 -0.012435402 -0.0017553574
000330 31 83 b5 b7 7d ff 27 3c 18 97 92 bb ac 94 ce 3b
       -2.1637972e-05 0.010253784 -0.004473578 0.006304344
000340 88 08 74 3b ef 37 28 3c 51 31 cb bb f4 f8 52 bb
       0.003723653 0.010267242 -0.0062009473 -0.0032191845
000350 ff de a3 2d d0 2b 16 3c 37 c0 e5 bb b2 36 ea bb
       1.8629985e-11 0.009165719 -0.007011439 -0.0071476335
000360 aa 65 af b9 14 9a f1 bb 9d 91 05 bc f5 a9 8f 3b
       -0.00033454347 -0.007373104 -0.008152393 0.004384274
000370 49 5e 2b b9 35 f5 cf 3b e2 28 ae b9 5c 01 97 3a
       -0.00016342955 0.0063463696 -0.00033218326 0.0011520791
000380 ea bd a9 3a 27 3e 54 bb c5 24 f1 bb 1b 4c 1b bc
       0.0012950276 -0.0032385678 -0.0073591196 -0.009478594
000390 be 9a 1d 3b 1f 8f 2f bc d4 31 18 3c 00 00 00 00
       0.0024048532 -0.010715275 0.009289224 0.0
0003a0 72 de a3 bb f8 8f 5a 3c ee 3c 4b 3a 5e ed 16 b9
       -0.005000883 0.013339989 0.00077529147 -0.00014393541
0003b0 e5 d3 97 3a 87 71 16 bb e2 d6 6b 3b ec e0 3e 3c
       0.0011583535 -0.002295585 0.0035986234 0.011650305
0003c0 be e1 ef bb cd 4b d2 b8 de f8 1e 3c e5 fa 06 2e
       -0.0073206117 -0.00010027699 0.009702889 3.069091e-11
0003d0 fa be 36 bc a1 99 80 ba 77 2a 9a 3b 2b 1d 1e 37
       -0.011153931 -0.000981141 0.0047047692 9.424325e-06
0003e0 ee 1f 07 bc 25 73 1e bc 84 d0 ac b9 19 be 3e bb
       -0.008247359 -0.009671007 -0.00032961753 -0.0029105006
0003f0 06 7d fb bb ef b1 a4 ba 42 44 ac b9 48 dd b9 8f
       -0.007674816 -0.0012565235 -0.00032857253 -1.8327643e-29

sequential/dense/MatMul f4 [32, 64]
000000 40 b6 17 3e ff 1b 6b be 65 fb 65 be f5 a1 c3 3d
       0.14815617 -0.22959898 -0.2245918 0.09552375
000010 99 ee 0b bd 29 d0 09 3e 70 36 ae bd 00 90 40 bc
       -0.03416309 0.13458313 -0.08506477 -0.011753082
000020 4c 95 17 be 10 84 83 bd 45 ec 09 be de a9 8c bc
       -0.14803046 -0.06421673 -0.13469036 -0.017170843
000030 a4 80 15 3e c3 29 d7 3d a9 aa 64 be 20 d9 65 3d
       0.14599854 0.10506012 -0.22330727 0.05611527
000040 c0 51 71 3d a0 69 29 3e ad 5d e5 bd 40 ec e1 bc
       0.058915854 0.16544199 -0.11199508 -0.027578473
000050 00 50 4a 3b 20 71 b1 ba 1f 5f 0c be de 21 80 be
       0.0030870438 -0.0013537742 -0.13708161 -0.2502584
000060 ff ca 86 be 9b 36 87 be c9 64 e0 bd c4 17 f3 bd
       -0.2632675 -0.26408848 -0.10956723 -0.11869767
000070 aa 6b e4 bc 4f db 37 3d 00 97 33 3c e5 67 1e be
       -0.02788337 0.044886883 0.010961294 -0.1546932
000080 07 0c dd bd 57 c2 25 3e 88 36 02 be 58 e5 c8 3d
       -0.1079331 0.16187416 -0.12716115 0.09809369
000090 80 94 73 3e 42 f6 4e be f8 9a 8b bd 50 81 69 3e
       0.23787117 -0.20211127 -0.06816667 0.22803235
0000a0 4a 0d ae bd d4 d0 60 be 54 12 5e 3e d8 0b 8e bd
       -0.084986284 -0.21954662 0.21686679 -0.06935853
0000b0 68 cf 05 be 1b ab 76 3e 64 97 7b be 79 e1 fb 3d
       -0.130674 0.24088709 -0.2456947 0.12298865
0000c0 e3 a7 2f be 6b 32 2d be 28 2f 84 bd 04 31 76 be
       -0.17153887 -0.16913764 -0.06454307 -0.24042135
0000d0 86 67 aa bd 74 cf fb bc 49 2e c0 bd c0 c3 11 3d
       -0.08320527 -0.03073857 -0.09383828 0.035587072
0000e0 dc cd 1c be e9 cc 8b 3d 61 69 c4 bc 7f df 61 3e
       -0.15312904 0.06826193 -0.02397603 0.22057913
0000f0 a8 dc f0 3d 80 61 ef bc c5 08 3d 3e d4 86 20 be
       0.11760837 -0.029221296 0.18460377 -0.15676433
000100 a7 2a 42 be e0 56 40 3d 51 b9 a8 3d 71 49 17 3e
       -0.18961583 0.04695785 0.08238471 0.1477411
000110 89 21 10 be 6b 08 4e 3e 38 fb 8c 3d f4 30 63 be
       -0.14075293 0.20120399 0.06883854 -0.22186643
000120 08 83 a4 bd ea a7 bd 3d 4b 6b 45 be cb 75 67 3e
       -0.08032805 0.09260543 -0.1927921 0.22603528
000130 94 f4 03 be bc 95 f6 bd fd 52 37 3e cc 4b 63 be
       -0.12886268 -0.12040278 0.17902751 -0.22196883
000140 5e 74 23 be 46 65 c4 bd 20 d4 39 3d 00 95 5c be
       -0.1596236 -0.09589629 0.045368314 -0.21541214
000150 dc e0 3f 3e 93 ed e5 3d aa 01 46 bc d7 61 49 bc
       0.18738121 0.11226954 -0.012085358 -0.012291393
000160 e5 0e 77 3e ba a9 76 be fd b9 83 bd ac 5b 22 be
       0.24126776 -0.24088183 -0.06431959 -0.15855283
000170 25 e7 72 be 16 dd ae bd 0a 7b dd bd 54 fe f3 3d
       -0.23720987 -0.085382625 -0.108144835 0.119137436
000180 97 9a 14 3d 2f 2a d3 bd e4 bf 57 3e 4c c3 73 3e
       0.03628024 -0.1031078 0.21069294 0.23804969
000190 80 39 48 be b5 87 76 3d bf c1 10 be 70 f5 54 3e
       -0.19553185 0.060188014 -0.14136408 0.20796752
0001a0 ba 36 94 3d 3f ee 20 be 10 53 0d be bc 8a 04 be
       0.07237001 -0.15715884 -0.13801217 -0.12943548
0001b0 4c 6b 5b be dd 47 da 3d da e2 45 3e c3 e0 b0 3d
       -0.2142765 0.10658238 0.19324818 0.0863662
0001c0 bc 99 b0 3c f5 ee 7e be 56 41 de 3c 60 1c 9b 3c
       0.021557681 -0.24895842 0.027130764 0.018934429
0001d0 ac fb 86 bd 42 38 0f be 28 fd 00 be 20 64 41 be
       -0.06590971 -0.13986304 -0.12596571 -0.18885851
0001e0 9f 68 dc 3d 7f 77 22 3e 65 b9 38 3e f9 83 3d bc
       0.107621424 0.15865897 0.18039472 -0.011567109
0001f0 98 1a 78 3e 00 cb 22 bc f5 63 45 be f4 e0 2e be
       0.24228895 -0.009936094 -0.19276412 -0.17078
000200 fa ce 47 be c6 9e 2c be 80 7b 01 3c 0c d7 71 3b
       -0.19512549 -0.16857442 0.00790298 0.003690186
000210 d1 67 6d 3e ae a5 71 3e 40 ac 17 3e f0 11 54 3e
       0.23184134 0.23598358 0.14811802 0.20709968
000220 40 40 42 3e 56 ed 57 be f0 cc 29 be c5 92 cd bd
       0.18969822 -0.2108663 -0.16582084 -0.1003776
000230 cc 4d 4f be a5 01 ca bd 6c 23 04 3c af 5e 3e be
       -0.20244521 -0.09863595 0.008065086 -0.18590806
000240 80 07 11 bc cb 15 03 bc 8f 57 49 3e 84 de e2 bc
       -0.008851886 -0.008000801 0.19662307 -0.027693994
000250 78 2a 81 bd a9 e9 28 be ff 57 1c bd 1a 05 6e be
       -0.063069284 -0.16495384 -0.038169857 -0.23244134
000260 cf b7 df bd 5d 30 7c 3d 9f b8 a1 bd 24 9a 13 be
       -0.109237306 0.06156956 -0.07896542 -0.14414269
000270 a5 85 05 be 58 e1 4d be d0 a0 55 be 4b 1a 1d 3e
       -0.13039263 -0.20105493 -0.20862126 0.15342061
000280 f0 88 6a 3e d5 76 89 3d f0 a2 6d 3e 2b 19 a3 3d
       0.229038 0.067121185 0.23206687 0.07963785
000290 91 2f fa bd dd 86 d8 3d 57 15 36 3e 34 8f 0a be
       -0.12216104 0.10572598 0.17781578 -0.1353119
0002a0 c7 a9 6d 3e 4e 9b 76 bd fc eb 05 be c0 3b c5 bc
       0.23209296 -0.060206704 -0.13078302 -0.024076343
0002b0 73 93 a9 bd 2f 04 a6 bd 0a 14 5f 3e bf 19 13 3e
       -0.08280077 -0.08106267 0.21784988 0.1436529
0002c0 eb ae 6f 3d ed 6c 63 bd d3 da a4 3d 44 35 3a be
       0.058516424 -0.0555238 0.0804955 -0.18184382
0002d0 e8 27 5b bd f0 90 93 bd 61 d3 d4 bd 9c 29 5b be
       -0.053504854 -0.07205379 -0.1039188 -0.21402591
0002e0 e4 c4 72 3e f4 ad 1e be 23 c9 69 3e 44 4c 77 3e
       0.2370792 -0.15496045 0.22830634 0.24150187
0002f0 98 f4 59 3e e9 b7 00 3a 35 30 2d be b0 c2 68 bd
       0.21284711 0.0004910217 -0.16912921 -0.056826293
000300 f0 fa 03 be 00 32 3c bc bd 92 2c be cb da 34 bb
       -0.12888694 -0.01148653 -0.16852851 -0.002759623
000310 50 7b 10 bd 14 52 34 3e 60 0d 96 bc 08 9f 89 bd
       -0.03527385 0.17609435 -0.018316925 -0.06719786
000320 d8 ad f0 bd 70 06 40 3d 8e 11 5c be 98 9d e2 3d
       -0.11751908 0.04688114 -0.21491072 0.11065215
000330 98 89 0c 3e 64 ca a4 bd ca c4 28 3e cc 3f f6 bd
       0.13724363 -0.080464154 0.16481319 -0.12023887
000340 c0 48 58 3c 99 cc 6e be b4 42 45 3e 50 4d 4a 3d
       0.013200939 -0.23320235 0.19263726 0.049390137
000350 dc aa 6a be cf 3d 70 bd b5 29 76 3e c6 a0 24 be
       -0.2291674 -0.058652695 0.24039347 -0.16076955
000360 b5 e6 19 3e 65 77 45 3e 7e 49 66 3b 68 03 03 3e
       0.15029414 0.19283827 0.003513902 0.12794268
000370 02 f7 b8 bd 8d fe 34 be 74 93 47 be 8c 04 14 be
       -0.09031488 -0.17675228 -0.19489843 -0.1445486
000380 e1 a4 30 be 47 6a d1 bb 98 39 08 3e 00 90 29 bd
       -0.17250396 -0.006390843 0.1330322 -0.041397095
000390 30 1d 23 3e 45 53 46 3c 91 99 bc bd 90 eb 6b bd
       0.15929103 0.012104814 -0.09208978 -0.057597697
0003a0 1c 5a 1e be cc af 4c be 28 6c c7 bd d8 0d 81 bd
       -0.15464061 -0.19988936 -0.09737426 -0.063014686
0003b0 84 27 2b be a0 39 46 3d a0 11 16 bd 48 4a 6f be
       -0.16714293 0.0483948 -0.036637902 -0.2336818
0003c0 30 87 47 3d 31 76 36 3e 28 fa bc bd 64 a4 67 be
       0.04871291 0.17818524 -0.09227401 -0.22621304
0003d0 d0 ab 1d bd 54 45 30 3e 83 04 f6 3d 88 2f e8 3d
       -0.03849393 0.17213947 0.12012579 0.11337191
0003e0 00 4f 62 3d ce 76 25 3e ac 02 5c be 75 2f 9d 3d
       0.05525112 0.16158602 -0.21485394 0.07675067
0003f0 08 6f f4 3d 18 25 4d 3e 24 c2 69 bc d8 35 07 be
       0.1193524 0.20033681 -0.014267478 -0.13204134

sequential/dense_1/MatMul f4 [2, 32]
000000 79 d7 02 3d d5 b4 93 be cd 87 a2 3c db 6a ae 3e
       0.031943772 -0.288489 0.019840145 0.340659
000010 5c ae 51 be 50 ef 2d 3d 21 e6 95 3e c0 2f 4d bd
       -0.20476669 0.042464554 0.29277137 -0.050094366
000020 31 f5 bf bd 61 c9 55 3e df 83 b8 be 87 8d 52 3d
       -0.093729384 0.20877601 -0.3603811 0.051404502
000030 93 3d af 3e 9d f3 71 be cc 59 cc be c1 33 b3 3e
       0.34226665 -0.23628087 -0.3991226 0.35000423
000040 a0 e8 86 3e fe ad 40 3e df 48 55 3e 68 df 15 be
       0.26349354 0.18816373 0.2082858 -0.14636004
000050 4c 0e 96 be 14 1b aa bd 0c 92 bc 3d 1e cf 27 3e
       -0.29307783 -0.08305946 0.09207544 0.16387603
000060 6e 1f 3c 3e 09 a7 4d be 31 be 5a 3d e1 6f cb be
       0.18371364 -0.2008325 0.053404037 -0.39733794
000070 9d 60 8c be 73 20 a7 be 48 6b bb be 40 14 1a be
       -0.2741746 -0.32641944 -0.36605287 -0.15046787
000080 e8 d2 83 bd d0 3d 41 be e6 8f b7 be ca d0 28 3e
       -0.064367115 -0.18871236 -0.35851973 0.16485897
000090 ab 62 be be 20 5c 1c bd 70 00 94 be f1 f9 f2 3d
       -0.37184653 -0.038173795 -0.28906584 0.11864079
0000a0 58 72 8e 3c 6d fd a4 be 13 9c b8 be 76 b6 57 be
       0.017388508 -0.322246 -0.36056575 -0.21065697
0000b0 d4 c5 aa 3e 6e 4d d1 3e 9f bb 48 3e e9 0b 9a 3e
       0.33354056 0.40879387 0.19602822 0.30087212
0000c0 df e3 27 be 73 23 0f 3d e1 f9 9d 3e 6d 2d 85 3e
       -0.1639552 0.034945916 0.30854705 0.2601122
0000d0 1f ed c0 be 28 6c 9a be 12 7a bb be 2a 01 2c be
       -0.3768091 -0.30160642 -0.3661657 -0.16797319
0000e0 e4 6a f8 3d 8e ad 53 3e d6 d8 27 3e 74 65 27 3e
       0.12129763 0.20671675 0.1639131 0.16347295
0000f0 60 f6 cc 3e 18 2c dc 3c 2f 86 0a be 68 d8 3c 3e
       0.4003172 0.026876494 -0.1352775 0.18441927

sequential/lstm/lstm_cell_1/BiasAdd/ReadVariableOp/resource1 f4 [256]
000000 67 6a 27 bb 2e cd 5f bb 58 a0 44 3a 68 da 87 bb
       -0.0025545598 -0.0034149396 0.00075007 -0.004145909
000010 75 e3 c7 bb 75 07 08 3c 00 00 00 00 00 00 00 00
       -0.006100113 0.008302559 0.0 0.0
000020 14 22 8c af 87 dc 7b 3a 5d b8 3c bc ca 50 41 3a
       -2.5490066e-10 0.0009607751 -0.011518565 0.0007374404
000030 c3 a3 bc b7 24 3a 2c 3c 36 71 93 bb 95 4d be 3b
       -2.2487604e-05 0.010511909 -0.00449958 0.0058075883
000040 bb 9e 8b 3b b8 2d 28 3c 38 1b b9 bb 8f f1 cb bb
       0.0042608655 0.010264806 -0.0056489967 -0.0062238644
000050 96 ee 01 2e 23 b8 e4 3b 93 a6 e5 bb ae 1f e5 bb
       2.954311e-11 0.0069799586 -0.0070083826 -0.006992302
000060 95 2d 4c b9 c7 11 e4 bb bf 71 03 bc 2b b7 89 3b
       -0.00019471937 -0.006960127 -0.008022725 0.0042027435
000070 c0 87 a4 3a f7 2a 72 3b c4 46 c4 b9 43 f8 9e 3a
       0.0012552664 0.0036951879 -0.00037436758 0.0012128431
000080 62 a9 05 b9 36 73 c7 b9 84 ce f3 bb ff ec 0c bc
       -0.00012746968 -0.00038042077 -0.00744039 -0.008601426
000090 a8 2c 1d 3b 38 ec 39 bc 5a 26 1c 3c 00 00 00 00
       0.0023982916 -0.011347823 0.009530628 0.0
0000a0 a7 b0 9b bb fa d8 49 3c a7 71 c6 3a 60 5f 9f b9
       -0.004751283 0.012319798 0.0015140072 -0.00030397903
0000b0 bb 9d 07 3b 29 a5 11 bb 45 c3 19 3a 4f ba 34 3c
       0.002069338 -0.0022223687 0.0005865584 0.011030748
0000c0 a6 af e9 bb 9e 85 b6 ba 59 02 02 3c fb 86 08 2e
       -0.0071315346 -0.0013925319 0.00793513 3.1042707e-11
0000d0 96 26 18 bc 4d 04 bd b9 9e 89 6c 3b 23 44 a8 36
       -0.009286543 -0.00036052093 0.0036092768 5.0147223e-06
0000e0 12 73 07 bc 3f 99 07 bc fd fc ea b9 86 4c 08 bc
       -0.008267181 -0.008276283 -0.0004482045 -0.008319026
0000f0 a6 6e fb bb f2 f4 8e ba ae a2 6a ba 31 3e 96 90
       -0.0076731024 -0.001090674 -0.0008950633 -5.926039e-29
000100 67 4a 7e 3f 78 cb 7e 3f 52 3a 80 3f 75 50 7f 3f
       0.9933228 0.9952922 1.0017798 0.9973214
000110 af 5a 7e 3f 56 00 81 3f 00 00 80 3f 00 00 80 3f
       0.9935712 1.0078228 1.0 1.0
000120 00 00 80 3f d1 04 80 3f 30 cb 7d 3f fc dc 7f 3f
       1.0 1.000147 0.99138165 0.9994657
000130 00 00 80 3f 01 5c 81 3f 04 55 7e 3f f5 ad 80 3f
       1.0 1.0106202 0.99348474 1.0053087
000140 e5 b0 80 3f 41 3d 81 3f 37 ce 7e 3f 44 71 7f 3f
       1.0053984 1.0096818 0.9953341 0.99782205
000150 00 00 80 3f f0 55 81 3f 6b 83 7e 3f 43 12 7e 3f
       1.0 1.0104351 0.9941928 0.99246615
000160 1f 08 80 3f e6 13 7e 3f 60 fb 7d 3f b5 cc 7f 3f
       1.0002478 0.9924911 0.9921169 0.99921733
000170 b3 02 80 3f c6 91 80 3f 3a ce 7f 3f af d5 80 3f
       1.0000824 1.0044487 0.9992405 1.0065211
000180 72 18 80 3f 64 ce 7e 3f 8f 26 7e 3f 99 78 7e 3f
       1.000746 0.9953368 0.99277586 0.9940277
000190 3c 43 80 3f aa 7b 7d 3f bd b9 81 3f 00 00 80 3f
       1.0020518 0.9901682 1.0134808 1.0
0001a0 f7 f2 7e 3f 16 50 81 3f f8 90 7f 3f 89 e8 7f 3f
       0.99589485 1.0102565 0.9983058 0.99964195
0001b0 97 40 80 3f 47 3a 7f 3f 5e 51 80 3f c8 79 81 3f
       1.0019711 0.996983 1.0024831 1.011529
0001c0 8c 63 7e 3f 92 0d 80 3f 29 32 81 3f 00 00 80 3f
       0.99370646 1.0004141 1.0093433 1.0
0001d0 71 c6 7d 3f 61 f2 7f 3f fb aa 80 3f 00 00 80 3f
       0.9913092 0.99979216 1.0052179 1.0
0001e0 88 1a 7e 3f 7c 7e 7d 3f ff 65 7f 3f 09 04 80 3f
       0.99259233 0.99021125 0.9976501 1.0001231
0001f0 a7 2b 7e 3f f3 b8 7f 3f c9 95 7f 3f 00 00 80 3f
       0.9928536 0.99891585 0.9983793 1.0
000200 13 c1 33 bb 1d 22 09 bc e5 9a 5c 3b a6 9c 27 bb
       -0.0027428314 -0.00836995 0.003366166 -0.0025575547
000210 3b db b8 bb d4 40 49 3b 00 00 00 00 00 00 00 00
       -0.0056413687 0.0030708807 0.0 0.0
000220 58 05 04 b1 0e 86 2f ba e0 3a 26 bc fb 2e 9e ba
       -1.9211566e-09 -0.0006695696 -0.010145873 -0.0012068445
000230 f5 09 48 ba 34 57 fd 39 29 75 95 ba 4a 42 f0 3b
       -0.0007630878 0.00048320892 -0.0011402714 0.007332121
000240 97 4e 9e 3a 1a 1f 6c bb 89 c4 02 bc 13 b7 1a bc
       0.0012077865 -0.003602928 -0.007981428 -0.009443062
000250 7b f3 af 2e ed dc 0b 3c c9 19 19 bc 32 f7 de 3a
       8.0013295e-11 0.0085365595 -0.009344527 0.0017010926
000260 bb 9f f2 ba c3 88 ce bb 8b ec 11 bc 4f 51 6e 3a
       -0.0018510738 -0.0063029244 -0.008906494 0.00090910954
000270 f0 5c 90 ba 2e df 3e 3b 30 50 bb bb 14 94 3a bc
       -0.0011014026 0.0029124725 -0.005716346 -0.011387844
000280 0f 5f b0 ba 63 af 3b 3a 5b 01 f0 bb a1 9c 2b bc
       -0.0013456064 0.00071596185 -0.0073243803 -0.010474355
000290 3c c6 e4 bb 1c 54 25 bc 58 7e c6 3a 00 00 00 00
       -0.006981639 -0.010090854 0.0015143855 0.0
0002a0 29 08 bd bb d4 2f 04 3c a0 1f 00 bc c4 c4 9c bb
       -0.005768795 0.008068044 -0.00782004 -0.0047841985
0002b0 4f 74 04 3c ea 95 64 38 a6 52 5d 39 14 b3 50 3b
       0.008084371 5.4499054e-05 0.00021106991 0.003184502
0002c0 5c 04 03 bc ae 22 a7 3b 1a 3d 8d 3b 33 9f e4 2c
       -0.007996645 0.0051005697 0.0043102624 6.4978244e-12
0002d0 01 72 53 bc a4 f5 d1 39 44 76 33 3b 15 8d 52 3a
       -0.012905599 0.00040046603 0.0027383724 0.0008031887
0002e0 41 1c 02 bc 58 ad 2d bc 6f c3 33 bb a4 5f 33 bc
       -0.007941307 -0.01060041 -0.002742972 -0.0109480955
0002f0 bf 3d 0f bc ca 08 ea bb f3 92 ce ba 3b d8 0c 91
       -0.008742749 -0.007142161 -0.0015760347 -1.1110684e-28
000300 5a f6 ab bb 18 ca 95 bb d0 48 12 3a 42 07 19 bb
       -0.0052478733 -0.0045712106 0.0005580308 -0.0023350273
000310 79 b6 ab bb f2 86 d8 3b 00 00 00 00 00 00 00 00
       -0.0052402583 0.0066078836 0.0 0.0
000320 7d 4c f8 a9 89 aa 62 ba db bd 4b bc 05 14 e6 ba
       -1.1026681e-13 -0.00086466275 -0.012435402 -0.0017553574
000330 31 83 b5 b7 7d ff 27 3c 18 97 92 bb ac 94 ce 3b
       -2.1637972e-05 0.010253784 -0.004473578 0.006304344
000340 88 08 74 3b ef 37 28 3c 51 31 cb bb f4 f8 52 bb
       0.003723653 0.010267242 -0.0062009473 -0.0032191845
000350 ff de a3 2d d0 2b 16 3c 37 c0 e5 bb b2 36 ea bb
       1.8629985e-11 0.009165719 -0.007011439 -0.0071476335
000360 aa 65 af b9 14 9a f1 bb 9d 91 05 bc f5 a9 8f 3b
       -0.00033454347 -0.007373104 -0.008152393 0.004384274
000370 49 5e 2b b9 35 f5 cf 3b e2 28 ae b9 5c 01 97 3a
       -0.00016342955 0.0063463696 -0.00033218326 0.0011520791
000380 ea bd a9 3a 27 3e 54 bb c5 24 f1 bb 1b 4c 1b bc
       0.0012950276 -0.0032385678 -0.0073591196 -0.009478594
000390 be 9a 1d 3b 1f 8f 2f bc d4 31 18 3c 00 00 00 00
       0.0024048532 -0.010715275 0.009289224 0.0
0003a0 72 de a3 bb f8 8f 5a 3c ee 3c 4b 3a 5e ed 16 b9
       -0.005000883 0.013339989 0.00077529147 -0.00014393541
0003b0 e5 d3 97 3a 87 71 16 bb e2 d6 6b 3b ec e0 3e 3c
       0.0011583535 -0.002295585 0.0035986234 0.011650305
0003c0 be e1 ef bb cd 4b d2 b8 de f8 1e 3c e5 fa 06 2e
       -0.0073206117 -0.00010027699 0.009702889 3.069091e-11
0003d0 fa be 36 bc a1 99 80 ba 77 2a 9a 3b 2b 1d 1e 37
       -0.011153931 -0.000981141 0.0047047692 9.424325e-06
0003e0 ee 1f 07 bc 25 73 1e bc 84 d0 ac b9 19 be 3e bb
       -0.008247359 -0.009671007 -0.00032961753 -0.0029105006
0003f0 06 7d fb bb ef b1 a4 ba 42 44 ac b9 48 dd b9 8f
       -0.007674816 -0.0012565235 -0.00032857253 -1.8327643e-29

sequential/lstm/while/lstm_cell_1/MatMul_1 f4 [256, 64]
000000 2c 31 94 3d 49 af b8 39 f9 4b ca 3d 51 d3 cb bd
       0.07235941 0.00035225812 0.09877772 -0.09952415
000010 03 3f 8d 3d 5c 0c 9d 3b 60 23 30 3b ba a4 9a bd
       0.06896784 0.004792733 0.0026876554 -0.0755095
000020 e8 2e dc bc 8c a4 eb 3c 20 13 92 3d c6 a4 13 3c
       -0.026877835 0.028764986 0.07132554 0.009011453
000030 14 9d 7d 3d b4 58 a1 bd c2 d6 05 3c 2d 35 ff 3c
       0.06191738 -0.07878247 0.008168878 0.031153286
000040 42 52 37 3d 8c 26 f2 bc 0f 85 f3 3d e4 94 c5 3c
       0.04475618 -0.029559396 0.11890613 0.024118848
000050 f0 77 21 3c 05 cf e7 3c f9 68 0e 3e b6 1a 22 bd
       0.0098552555 0.028296957 0.13907231 -0.039576255
000060 29 55 d7 bd c8 e5 e5 bc ed a1 2e bd de cf 8e bd
       -0.1051429 -0.02806367 -0.042634893 -0.06973241
000070 07 b5 29 3d 69 3a d4 3d d3 2a 86 3d 7b 37 e3 3d
       0.041432407 0.10362703 0.06551137 0.110945664
000080 6d 96 32 3c 6a a0 89 bc e2 fc 95 bd 18 12 86 3d
       0.010900122 -0.016800124 -0.07323624 0.0654642
000090 c4 0d 7d 3c 76 5e ca bd 9b 2a 0a 3d ad 3c 85 bd
       0.0154451765 -0.09881298 0.033732038 -0.065057136
0000a0 a8 be 8d 3d 4a 2d 05 3e 90 b7 38 3b 3f b5 d4 bc
       0.069211304 0.13005558 0.0028185584 -0.025965331
0000b0 50 49 82 bd dd e4 f9 ba 95 b4 e0 3c d4 41 63 bc
       -0.063616395 -0.0019065399 0.027429858 -0.013870675
0000c0 f9 c9 07 3e ab 1d da 3c df 5f aa 3c c7 43 66 3d
       0.1326064 0.026625475 0.020797668 0.05621698
0000d0 08 aa f5 3d 22 d4 39 bd f3 a5 f8 bc 57 56 bc bd
       0.119953215 -0.04536832 -0.030352568 -0.091961555
0000e0 8e 57 3e bd 91 e8 00 bb 5d b9 c9 3d fb 0d de bc
       -0.046470217 -0.001966987 0.09849808 -0.027106276
0000f0 a5 2b 32 be e9 38 7b 3d 29 8c fe 3c 80 18 3d 3b
       -0.17399462 0.06133357 0.031072693 0.0028853714
000100 59 17 40 be 17 15 80 3b d3 26 d2 bc c3 73 c5 bc
       -0.18758906 0.003908764 -0.025653278 -0.024103051
000110 85 9b b8 3d d1 3d 7b bc 09 fd af 3d 3d 2d 84 bd
       0.09014038 -0.015334562 0.085931845 -0.06453941
000120 9a 26 8a bc a0 99 55 3c 66 3a be bc ee b2 90 3d
       -0.01686411 0.013037115 -0.023221206 0.07065378
000130 50 c4 d1 bc 41 23 98 bc 2a ec c0 3c d7 e5 d6 bd
       -0.025606304 -0.018571498 0.023550112 -0.10493057
000140 8b 08 07 3c b1 7e 8e 3d bb da da bb d7 84 bc 3d
       0.008241783 0.06957758 -0.0066789067 0.09205025
000150 43 4d 10 3d e1 5a c7 bc d8 6a 34 bd 82 35 c2 bc
       0.035229933 -0.024335327 -0.044047207 -0.023707155
000160 d2 4a 66 3d c6 32 d0 3c 39 0d 66 3d 07 4c 94 3b
       0.056223698 0.025414836 0.056164954 0.0045256647
000170 aa 80 e3 bc 44 25 92 3d f8 d1 e4 3c cb 9f bb bd
       -0.027771313 0.07136014 0.027932152 -0.091613375
000180 78 82 05 3d ee 80 28 3e 41 65 b0 bd 7d 13 7e bc
       0.032595128 0.16455433 -0.08613063 -0.015507576
000190 35 9e f8 3c 5b ad 4d 3c 1d ee a8 bd 67 1e 16 bc
       0.030348876 0.012553538 -0.082485415 -0.009162522
0001a0 82 c3 90 bd 94 26 a5 3c 1e 5f 9e 3c 70 b3 c7 3d
       -0.0706854 0.020159997 0.019332465 0.09751022
0001b0 0d 71 4b 3d 43 a5 3b 3d 09 23 45 bd 7e ad fb bd
       0.04966836 0.045811903 -0.048129115 -0.122889504
0001c0 97 9a 6b 3c 09 ad 50 3d e0 b9 b5 bd 4f 73 45 bd
       0.014380119 0.05094627 -0.088733435 -0.04820567
0001d0 43 c7 a5 3d a2 f3 96 bd 49 da 69 bd da 5c 4e 3d
       0.08094647 -0.07370688 -0.05709294 0.05038152
0001e0 1a bf 97 bd 7e 4f 97 3d 21 a0 02 be 38 5c 29 3d
       -0.074094966 0.07388209 -0.12756397 0.041347712
0001f0 1c cb 33 3c dc 99 0f 3e cf c0 a3 3d e0 ef 68 3d
       0.010973718 0.14023536 0.0799576 0.056869388
000200 fb 03 06 3e 95 b8 ea 3c 5c 49 d3 bd d2 e9 ab bc
       0.13087456 0.028652469 -0.103167266 -0.020985518
000210 42 2d 39 3c 1a 2e 3f 3d 3e da f4 3d 1a bc be 3d
       0.011302294 0.046674825 0.11955689 0.09313221
000220 21 af 8d bc a4 db d4 bd bd bf 9b bb 5f ab 01 3d
       -0.017295422 -0.103934556 -0.0047530816 0.031657573
000230 dc b2 66 3d 62 15 5b bc 06 ea 54 3d 31 1c c0 3c
       0.056322917 -0.013371797 0.051980995 0.023450943
000240 95 7a a7 bd db ba 9f 3d 1d f6 0b 3d 74 62 b6 3d
       -0.081776775 0.07799312 0.03417026 0.08905497
000250 d9 d9 c8 3c 04 96 78 3d 78 da 2a 3d 8c 54 f4 3d
       0.02451794 0.06068994 0.041712254 0.119301885
000260 51 64 e2 3b 5b 0b 79 bd fa b1 b4 3a 10 db eb bd
       0.0069089313 -0.060801845 0.0013785951 -0.11516392
000270 a3 d7 9a bb 1d 4e 49 3d 3f 17 36 bd db 6f 13 bc
       -0.004725413 0.04914676 -0.044455763 -0.008998836
000280 2e be 73 bd fe fe 90 bc 07 95 7f bd 24 17 35 3d
       -0.05950754 -0.017699715 -0.062397983 0.04421152
000290 69 c7 08 3d b8 0f 2c bd af 7c fb 3d c6 1a 11 3e
       0.033393297 -0.042007178 0.12279641 0.1417037
0002a0 a2 09 02 3d 8f 40 33 bd 79 f1 87 3d db 61 c7 bd
       0.031747468 -0.04376274 0.06637854 -0.09735461
0002b0 cf cd 4d bd 05 af c6 3d 92 97 53 3d 02 4d c5 bc
       -0.050245102 0.09701351 0.05165822 -0.024084572
0002c0 ec 42 4a 3c 98 eb 22 bd 96 64 10 bb 08 ad 8e 3d
       0.012345057 -0.03977546 -0.002203261 0.06966597
0002d0 17 ea 1e bd cd 3d bb 3d 95 50 b1 3c 79 f9 68 3c
       -0.038797464 0.09142647 0.02164487 0.014219635
0002e0 54 55 03 3e 76 8d 99 3d 36 9a 57 bc 78 cc 21 3d
       0.12825519 0.07497685 -0.013159325 0.039501637
0002f0 79 ab 86 3d a3 ac 28 3c 3e 2b b6 3d 06 3c 07 3e
       0.065756746 0.010295066 0.088949665 0.13206491
000300 3e c6 b4 3d 72 a7 87 3d 66 aa d0 3d 99 91 bb bd
       0.08826874 0.066237345 0.10188751 -0.0915863
000310 18 5b c9 3d 84 36 e5 3d 1b 40 14 bd f2 db 98 3c
       0.09831828 0.11192039 -0.03619395 0.018659566
000320 8c 87 71 3c bd 03 3d 3d 5e 96 14 3e 38 f5 75 3d
       0.01474179 0.046146143 0.14510486 0.060048312
000330 b4 f6 00 be 1b ea dc 3d 66 e9 83 3d f2 4d a6 bc
       -0.1259411 0.107868396 0.064410016 -0.02030084
000340 4d f6 2b bc 36 04 27 bd c1 39 cf 3d 1c 8e f6 3c
       -0.010495734 -0.0407755 0.101184376 0.03009706
000350 18 77 6c 3d 8d 53 16 3b 86 fa 1e 3d 10 b2 88 3d
       0.057730764 0.0022937984 0.038813137 0.06674588
000360 07 3e 87 bd d9 13 a0 3d 4f bb b8 3c 3c 9f d9 bc
       -0.06603628 0.07816286 0.022550253 -0.026565187
000370 b6 de aa bb 71 50 5b bd da e1 91 bd 8c 60 87 bd
       -0.0052145375 -0.05354351 -0.07123156 -0.06610212
000380 9e 40 d5 bc b3 66 7b bd 50 3c 14 bd 64 3a 21 bd
       -0.026031788 -0.06137724 -0.03619033 -0.039362326
000390 9c 67 b0 bd 99 90 84 bd fd 8d bf 3d ff ad ca 3d
       -0.08613512 -0.06472892 0.09353254 0.09896468
0003a0 fe 4d 5f bd 9f 9a 74 3c 3e a3 a1 3d c1 eb d6 bc
       -0.05451774 0.014929443 0.07892464 -0.026235463
0003b0 d6 bf c7 bc cc 86 02 3c b6 73 f1 bd 28 18 6d 3c
       -0.024383467 0.007966708 -0.11789648 0.014471091
0003c0 a0 dd b7 3d 77 27 40 3c 1c f2 87 bd 78 30 72 3a
       0.089778185 0.011728159 -0.066379756 0.000923879
0003d0 c3 c7 14 bc 28 38 d0 3d b4 21 08 3e 76 fc 99 bd
       -0.00908083 0.10166961 0.13294107 -0.07518856
0003e0 82 e6 b0 bb f8 73 0c bd ce 3d 82 bd c8 33 3b bd
       -0.0053985724 -0.034290284 -0.063594446 -0.04570368
0003f0 2a 78 25 bc 96 29 24 bc 56 05 b8 bd 8d b1 8b bd
       -0.01009945 -0.0100196805 -0.08985393 -0.068209745

sequential/lstm/while/lstm_cell_1/MatMul f4 [256, 172]
000000 e8 f0 d3 bd d9 48 0f 3d d6 00 d0 3d 6c d2 a9 bd
       -0.103486836 0.034981582 0.101564094 -0.08292088
000010 10 cf 88 3d 42 52 7f 3d a1 ca 40 3d fc cc 58 3d
       0.06680119 0.062334307 0.047068242 0.052929863
000020 08 3e 87 3d ec a2 9d bc c1 2f e7 3d 8a 3a 8a bc
       0.066036284 -0.019242726 0.11288405 -0.016873617
000030 9c 74 8b 3b ee 90 78 3d d1 e4 0c 3d e1 7d a3 bd
       0.0042558443 0.06068509 0.034397904 -0.07982994
000040 63 63 81 3c 34 69 99 bc e7 d3 c3 3c ee 51 a9 3d
       0.015794462 -0.018726923 0.023904754 0.0826758
000050 51 8c 28 bd f2 af e7 3c 5d 25 d8 bc 02 0e 8d bd
       -0.04114944 0.02828214 -0.026385004 -0.068874374
000060 15 0c 59 bd 93 f1 0b 3a 36 ec ee 3d 56 b2 91 3d
       -0.052990038 0.00053384266 0.116661474 0.07114093
000070 9d bb 62 3d 12 41 a8 3d 6b f4 8e 3c 53 4c 07 3d
       0.055354703 0.08215536 0.017450532 0.033031773
000080 15 06 aa bc 7d 4f 5f 3d ac 2d e2 bc ce 08 67 bc
       -0.020754853 0.054519165 -0.027609669 -0.01410122
000090 d6 5b 9d bd 42 33 55 bd ed 46 91 bd 09 a3 36 3d
       -0.07683532 -0.052050836 -0.07093606 0.044589076
0000a0 9b 13 e4 3c 8b 9b 31 3d 61 b6 b1 bd 91 85 95 bd
       0.02784138 0.043361228 -0.08677364 -0.073008664
0000b0 4a cc 50 bd 14 33 53 bd 74 57 b8 bd 54 3d b9 bd
       -0.050976075 -0.051562384 -0.09001055 -0.090449005
0000c0 56 22 16 3d ac fe 95 bd d8 3d b9 bc 8f 58 77 bc
       0.03665384 -0.073239654 -0.022612497 -0.015096798
0000d0 ba 28 e1 bd f5 c7 dc bc f6 36 bf 3b e2 74 d7 3d
       -0.10994096 -0.026950816 0.0058354093 0.105203405
0000e0 a9 d1 09 3d 60 13 cc bd 3a 57 36 3c bc a3 5c bb
       0.033647213 -0.09964633 0.011129195 -0.003366693
0000f0 0f c8 44 3d d1 21 4e 3d 83 cc f0 3d 70 ab af 3d
       0.048042353 0.05032522 0.117577575 0.08577621
000100 ce 70 e4 3d 11 94 38 bd b5 45 ed 3d 1c f5 6b bd
       0.11154328 -0.045063082 0.11585561 -0.0576068
000110 aa b2 c0 bd 8d a4 7a 3d 4c bd f8 3b 2c 02 94 3c
       -0.094090775 0.061192084 0.0075909253 0.018067442
000120 3c 84 39 bd 82 79 ca 3d bd f7 1c 3d 3b a9 df bc
       -0.045292124 0.09886457 0.0383222 -0.027302375
000130 68 10 ac bd f4 65 bc 3d b7 c1 94 3c a7 7b 3d bd
       -0.08401567 0.091991335 0.018158777 -0.046260502
000140 7a 2d aa bd 58 e6 ae 3d 4b fe d3 bd 14 c0 81 3c
       -0.08309455 0.08540028 -0.10351237 0.01583866
000150 49 c1 24 3d 80 9b bf bd c7 8f 03 3d e2 4a d6 bd
       0.040223394 -0.09355831 0.03211954 -0.104635015
000160 23 80 c4 bd 8b 08 15 bd ef bc 97 3c fc 51 94 bd
       -0.09594753 -0.0363851 0.018522708 -0.072422
000170 a9 20 a8 bd fd 23 87 bd ac 94 eb 3d b3 2b be bb
       -0.082093544 -0.06598661 0.11502966 -0.005803549
000180 39 0d 6c bd a9 f9 d6 bc 7b 8d 77 bd f8 2f ef bd
       -0.057629798 -0.026242094 -0.06043766 -0.11679071
000190 fe 57 ca bd 01 09 ca 3d 0b 39 35 3d 97 a3 e9 3c
       -0.098800644 0.098649986 0.044243854 0.028520389
0001a0 cd b5 2d 3c a8 5a 41 3d 93 ae cb 3d 37 7c da bb
       0.010602427 0.047205597 0.09945407 -0.0066676396
0001b0 6e d3 ce bc cb 39 e3 bc 70 48 41 3c 53 de fe bc
       -0.025247302 -0.027737519 0.011797056 -0.031111872
0001c0 69 b0 c4 3d 2b dc 30 3c 72 22 af bd 84 74 7b 3d
       0.0960396 0.01079468 -0.08551492 0.061390415
0001d0 26 4a e3 bd e6 a8 ce bd 50 00 09 3d 28 b0 bb 3d
       -0.11098127 -0.100908086 0.033447564 0.091644585
0001e0 74 99 5f bd 54 ff 36 3c 7d ac cd bd 67 ce c3 bd
       -0.054589704 0.011169273 -0.10042665 -0.095608525
0001f0 81 e8 e7 3d 5d db 6d bd 0f a5 ae 3d 95 3c ef bd
       0.113236435 -0.05807053 0.08527576 -0.11681477
000200 54 3f b7 3d 77 09 b4 3c 21 24 0b bd 60 43 9e bd
       0.08947626 0.02197717 -0.033970002 -0.077276945
000210 78 35 0d 3d 63 18 cd 3d 30 72 2c 3d e9 5a 8c bd
       0.03447482 0.10014417 0.042101085 -0.06853277
000220 e3 26 a4 3d 60 1c 2b 3d 1a 9c b0 3c 05 f5 ee ba
       0.080152296 0.041775107 0.02155881 -0.001823098
000230 ba 6d bf 3d 52 17 3a bd 9f 21 be 3d 6a af f8 bd
       0.093471006 -0.045432396 0.092837565 -0.121428326
000240 27 f9 8a 3c 6c b7 d1 bd 18 12 8f bd a4 a2 fe bb
       0.016964508 -0.10240063 -0.06985873 -0.007770853
000250 83 64 b7 3c 7c 55 e4 bd bc d1 6c 3d e5 fb df 3d
       0.022386795 -0.11149117 0.057817206 0.10936717
000260 31 58 6f 3d 27 87 80 bd 42 d6 a4 3d bd 4c 7f bc
       0.058433715 -0.06275778 0.08048679 -0.015582261
000270 e7 dd a0 3d ae d2 bb 3d 21 61 d1 bb 9a 38 ed bd
       0.078548245 0.09171043 -0.0063897525 -0.115830615
000280 24 7b 1a bc 88 77 6d 3d 51 0d 0e 3c c7 19 81 bd
       -0.009428773 0.057975322 0.008670167 -0.06303745
000290 18 08 27 3d 75 b3 e9 bc e9 a9 8c 3d 22 8c 92 3d
       0.040779203 -0.028527955 0.06868345 0.071556345
0002a0 e8 fe c3 bc 69 d1 e5 bd 02 7b 40 3d d0 8a c0 bd
       -0.02392526 -0.112215824 0.04699231 -0.094014764
0002b0 a9 bd 1f 3d df 35 cc 3b 6b 06 88 bd 4d 0f e1 bd
       0.038999233 0.006232008 -0.06641849 -0.109892465
0002c0 72 5c af 3d c5 7a 63 3d 74 b5 0d bd d0 3b 70 bc
       0.085625544 0.055537004 -0.034596875 -0.014662698
0002d0 74 dd 0b bd a4 85 b5 bd f7 7f 8b 3c 0e 54 a5 bc
       -0.03414674 -0.088633806 0.017028792 -0.020181682
0002e0 4c 24 97 3d 67 c9 8c 3d 6f 3c 96 3d 20 d7 e4 3d
       0.0737997 0.06874352 0.073357455 0.11173844
0002f0 f1 2b bc bd 91 19 4b 3d 39 03 c0 3d 40 3f 8b bc
       -0.09188069 0.04958493 0.09375615 -0.016997933
000300 0b df d7 3d 00 3b 8c 3d d7 3c ea bd 3a 7a c1 bd
       0.10540589 0.06847191 -0.114373855 -0.09447141
000310 0e 9a c7 3d da 6a 82 bd f5 fd 4c bd 4b e6 da 3d
       0.097461805 -0.063680366 -0.05004688 0.10688456
000320 63 b9 63 bd 48 57 7b 3d 32 99 fe bc 98 72 d0 bd
       -0.05559672 0.061362535 -0.031078909 -0.10178107
000330 90 fd 3f 3d f5 e6 49 3c 0a 84 d4 3d c8 4b aa bc
       0.046872675 0.012323131 0.10376747 -0.020788088
000340 56 73 fe 3b c6 10 25 bd 61 cb 25 bd 5a 32 2d bd
       0.007765214 -0.0402992 -0.04047716 -0.042284347
000350 52 21 e5 bd d6 a2 b9 3d 41 b7 c5 3c 13 4f e4 3c
       -0.11187996 0.090642616 0.024135234 0.027869737
000360 6d 4c 5f bd 96 ad af 3d 8a 4f 5b 3d fb d0 f7 bc
       -0.054516245 0.08578031 0.05354265 -0.030251017
000370 cf f8 3c bd 43 16 e7 bd ce de 36 bd 1d a6 aa 3d
       -0.04613572 -0.11283543 -0.044646077 0.08332465
000380 19 d3 f4 bd 84 a0 b1 bd c5 35 06 3e b2 f2 82 bc
       -0.11954326 -0.08673194 0.13106449 -0.015984867
000390 4d 64 1d 3c eb 10 80 3d 65 c6 b3 3c 34 8e 8c 3d
       0.009606433 0.06253227 0.021945188 0.068630606
0003a0 93 64 c8 3d aa c4 a9 3c f9 76 dc bc cb 78 c2 bd
       0.09784808 0.02072366 -0.0269122 -0.09495696
0003b0 18 55 ec 3d e3 be 8b 3d a7 c8 0a 3e e2 4d 4b bb
       0.11539668 0.06823518 0.13553105 -0.0031021764
0003c0 29 8d ed bd ca a3 9c 3c 12 79 85 3d 61 b3 8c bd
       -0.1159919 0.01912107 0.06517233 -0.06870151
0003d0 d7 a8 df 3b 6a 17 87 3d 67 d5 e1 bb 8f fe a9 3c
       0.006825547 0.06596263 -0.0068918946 0.020751266
0003e0 fb fd 93 3d ef fb 0a bd 08 81 2e 3d fa 50 de 3c
       0.07226177 -0.03393167 0.042603523 0.027138222
0003f0 71 11 98 3c 34 3c 96 3c e8 e7 b8 3d 09 f2 e3 bd
       0.018563004 0.018339254 0.090286076 -0.11130149
