models/jumping_model.tflite (tflite, 271036 bytes, 9 tensors)

sequential/lstm/TensorArrayV2_1 f4 [30, 1, 64]
0	0x00000000	0.0
1	0x00000000	0.0
2	0x00000000	0.0
3	0x00000000	0.0
4	0x00000000	0.0
5	0x00000000	0.0
6	0x00000000	0.0
7	0x00000000	0.0
8	0x00000000	0.0
9	0x00000000	0.0
10	0x00000000	0.0
11	0x00000000	0.0
12	0x00000000	0.0
13	0x00000000	0.0
14	0x00000000	0.0
15	0x00000000	0.0
16	0x00000000	0.0
17	0x00000000	0.0
18	0x00000000	0.0
19	0x00000000	0.0
20	0x00000000	0.0
21	0x00000000	0.0
22	0x00000000	0.0
23	0x00000000	0.0
24	0x00000000	0.0
25	0x00000000	0.0
26	0x00000000	0.0
27	0x00000000	0.0
28	0x00000000	0.0
29	0x00000000	0.0
30	0x00000000	0.0
31	0x00000000	0.0
32	0x00000000	0.0
33	0x00000000	0.0
34	0x00000000	0.0
35	0x00000000	0.0
36	0x00000000	0.0
37	0x00000000	0.0
38	0x00000000	0.0
39	0x00000000	0.0
40	0x00000000	0.0
41	0x00000000	0.0
42	0x00000000	0.0
43	0x00000000	0.0
44	0x00000000	0.0
45	0x00000000	0.0
46	0x00000000	0.0
47	0x00000000	0.0
48	0x00000000	0.0
49	0x00000000	0.0
50	0x00000000	0.0
51	0x00000000	0.0
52	0x00000000	0.0
53	0x00000000	0.0
54	0x00000000	0.0
55	0x00000000	0.0
56	0x00000000	0.0
57	0x00000000	0.0
58	0x00000000	0.0
59	0x00000000	0.0
60	0x00000000	0.0
61	0x00000000	0.0
62	0x00000000	0.0
63	0x00000000	0.0
64	0x00000000	0.0
65	0x00000000	0.0
66	0x00000000	0.0
67	0x00000000	0.0
68	0x00000000	0.0
69	0x00000000	0.0
70	0x00000000	0.0
71	0x00000000	0.0
72	0x00000000	0.0
73	0x00000000	0.0
74	0x00000000	0.0
75	0x00000000	0.0
76	0x00000000	0.0
77	0x00000000	0.0
78	0x00000000	0.0
79	0x00000000	0.0
80	0x00000000	0.0
81	0x00000000	0.0
82	0x00000000	0.0
83	0x00000000	0.0
84	0x00000000	0.0
85	0x00000000	0.0
86	0x00000000	0.0
87	0x00000000	0.0
88	0x00000000	0.0
89	0x00000000	0.0
90	0x00000000	0.0
91	0x00000000	0.0
92	0x00000000	0.0
93	0x00000000	0.0
94	0x00000000	0.0
95	0x00000000	0.0
96	0x00000000	0.0
97	0x00000000	0.0
98	0x00000000	0.0
99	0x00000000	0.0
100	0x00000000	0.0
101	0x00000000	0.0
102	0x00000000	0.0
103	0x00000000	0.0
104	0x00000000	0.0
105	0x00000000	0.0
106	0x00000000	0.0
107	0x00000000	0.0
108	0x00000000	0.0
109	0x00000000	0.0
110	0x00000000	0.0
111	0x00000000	0.0
112	0x00000000	0.0
113	0x00000000	0.0
114	0x00000000	0.0
115	0x00000000	0.0
116	0x00000000	0.0
117	0x00000000	0.0
118	0x00000000	0.0
119	0x00000000	0.0
120	0x00000000	0.0
121	0x00000000	0.0
122	0x00000000	0.0
123	0x00000000	0.0
124	0x00000000	0.0
125	0x00000000	0.0
126	0x00000000	0.0
127	0x00000000	0.0
128	0x00000000	0.0
129	0x00000000	0.0
130	0x00000000	0.0
131	0x00000000	0.0
132	0x00000000	0.0
133	0x00000000	0.0
134	0x00000000	0.0
135	0x00000000	0.0
136	0x00000000	0.0
137	0x00000000	0.0
138	0x00000000	0.0
139	0x00000000	0.0
140	0x00000000	0.0
141	0x00000000	0.0
142	0x00000000	0.0
143	0x00000000	0.0
144	0x00000000	0.0
145	0x00000000	0.0
146	0x00000000	0.0
147	0x00000000	0.0
148	0x00000000	0.0
149	0x00000000	0.0
150	0x00000000	0.0
151	0x00000000	0.0
152	0x00000000	0.0
153	0x00000000	0.0
154	0x00000000	0.0
155	0x00000000	0.0
156	0x00000000	0.0
157	0x00000000	0.0
158	0x00000000	0.0
159	0x00000000	0.0
160	0x00000000	0.0
161	0x00000000	0.0
162	0x00000000	0.0
163	0x00000000	0.0
164	0x00000000	0.0
165	0x00000000	0.0
166	0x00000000	0.0
167	0x00000000	0.0
168	0x00000000	0.0
169	0x00000000	0.0
170	0x00000000	0.0
171	0x00000000	0.0
172	0x00000000	0.0
173	0x00000000	0.0
174	0x00000000	0.0
175	0x00000000	0.0
176	0x00000000	0.0
177	0x00000000	0.0
178	0x00000000	0.0
179	0x00000000	0.0
180	0x00000000	0.0
181	0x00000000	0.0
182	0x00000000	0.0
183	0x00000000	0.0
184	0x00000000	0.0
185	0x00000000	0.0
186	0x00000000	0.0
187	0x00000000	0.0
188	0x00000000	0.0
189	0x00000000	0.0
190	0x00000000	0.0
191	0x00000000	0.0
192	0x00000000	0.0
193	0x00000000	0.0
194	0x00000000	0.0
195	0x00000000	0.0
196	0x00000000	0.0
197	0x00000000	0.0
198	0x00000000	0.0
199	0x00000000	0.0
200	0x00000000	0.0
201	0x00000000	0.0
202	0x00000000	0.0
203	0x00000000	0.0
204	0x00000000	0.0
205	0x00000000	0.0
206	0x00000000	0.0
207	0x00000000	0.0
208	0x00000000	0.0
209	0x00000000	0.0
210	0x00000000	0.0
211	0x00000000	0.0
212	0x00000000	0.0
213	0x00000000	0.0
214	0x00000000	0.0
215	0x00000000	0.0
216	0x00000000	0.0
217	0x00000000	0.0
218	0x00000000	0.0
219	0x00000000	0.0
220	0x00000000	0.0
221	0x00000000	0.0
222	0x00000000	0.0
223	0x00000000	0.0
224	0x00000000	0.0
225	0x00000000	0.0
226	0x00000000	0.0
227	0x00000000	0.0
228	0x00000000	0.0
229	0x00000000	0.0
230	0x00000000	0.0
231	0x00000000	0.0
232	0x00000000	0.0
233	0x00000000	0.0
234	0x00000000	0.0
235	0x00000000	0.0
236	0x00000000	0.0
237	0x00000000	0.0
238	0x00000000	0.0
239	0x00000000	0.0
240	0x00000000	0.0
241	0x00000000	0.0
242	0x00000000	0.0
243	0x00000000	0.0
244	0x00000000	0.0
245	0x00000000	0.0
246	0x00000000	0.0
247	0x00000000	0.0
248	0x00000000	0.0
249	0x00000000	0.0
250	0x00000000	0.0
251	0x00000000	0.0
252	0x00000000	0.0
253	0x00000000	0.0
254	0x00000000	0.0
255	0x00000000	0.0

sequential/dense/BiasAdd/ReadVariableOp/resource f4 [32]
0	0xbb59d025	-0.0033235636
1	0xbb3b1b39	-0.0028550162
2	0x3a85ef49	0.0010218407
3	0xbc65caec	-0.014025431
4	0xbc11d0e8	-0.008899905
5	0xbc19cf20	-0.009387761
6	0xbb8771a1	-0.0041334187
7	0xbc9acb7a	-0.018895853
8	0x3b540a29	0.0032354689
9	0xbbf62201	-0.007511378
10	0x3c0da876	0.008646121
11	0xbc2eb1cc	-0.010662507
12	0x3be8531b	0.007089985
13	0x3a80ec91	0.0009836127
14	0xbbfa4656	-0.007637779
15	0xbaf2450d	-0.0018483714
16	0xbc1daf70	-0.009624347
17	0xbbe6d579	-0.007044491
18	0x3ca2b3b1	0.019861074
19	0xbb89f293	-0.0042098253
20	0x00000000	0.0
21	0x3c454fba	0.012042934
22	0xbc102f43	-0.008800331
23	0xbc5f66c7	-0.013635344
24	0x3c805458	0.015665218
25	0xbb9a73ac	-0.004713496
26	0xbbed1818	-0.007235538
27	0xbc820316	-0.015870612
28	0x3b5c245e	0.0033591012
29	0xbb4d0bca	-0.0031287544
30	0xbb2aa8e5	-0.002604061
31	0xbc6d4b58	-0.014483295

sequential/dense_1/BiasAdd/ReadVariableOp/resource f4 [2]
0	0x3b68014a	0.003540116
1	0xbb68014d	-0.0035401166

sequential/lstm/lstm_cell_1/BiasAdd/ReadVariableOp/resource f4 [256]
0	0xbc34b7d8	-0.01103016
1	0x3c1e005a	0.0096436385
2	0x3aec6b3a	0.0018037327
3	0x3a913ea6	0.0011081293
4	0xbb7437e4	-0.0037264759
5	0xbba876dd	-0.0051411227
6	0xbb96cef6	-0.0046023084
7	0x3b599f81	0.0033206644
8	0xbbc9b325	-0.006155389
9	0xbba440a7	-0.00501259
10	0xbb944c49	-0.0045256955
11	0xbca906d4	-0.020633139
12	0x3b716199	0.0036831854
13	0x3c28aafa	0.01029467
14	0x3a04e9af	0.0005070222
15	0xbc65c742	-0.014024558
16	0xbacb58af	-0.0015514101
17	0x34f43904	4.5490026e-07
18	0x3b6fa0fd	0.0036564462
19	0x00000000	0.0
20	0x39927d7f	0.00027940792
21	0xbaae3042	-0.0013289528
22	0xbbfdd71b	-0.00774659
23	0xbc239c8c	-0.009986054
24	0x3c24c267	0.010056115
25	0x3c337bf4	0.010954846
26	0x3bbd8811	0.0057840426
27	0xb9d3973d	-0.00040357737
28	0x3ac67766	0.0015141785
29	0x392d6edd	0.00016539865
30	0x3aaa6671	0.0013000501
31	0xbbfff2d4	-0.00781093
32	0xbc09212b	-0.008369724
33	0x3b0dd202	0.0021640067
34	0xbc105625	-0.008809601
35	0x3b989af3	0.0046571433
36	0x3b0e804f	0.0021743958
37	0xbb9d7001	-0.0048046117
38	0x1c81c916	8.588483e-22
39	0x3be64fb9	0.0070285466
40	0x3a9001fe	0.0010986922
41	0xbc179794	-0.009252448
42	0xbaaf6272	-0.001338078
43	0x3b9912bc	0.0046714228
44	0x3bb0a8a8	0.005391199
45	0x3bec2347	0.007206354
46	0xb994509c	-0.00028288818
47	0xbba65f1e	-0.005077257
48	0x3c38fa53	0.011290151
49	0xbb99f286	-0.0046981005
50	0xbab32cff	-0.0013670026
51	0xbb9c121c	-0.004762901
52	0x3baf3e0b	0.0053479723
53	0x3b62f59a	0.0034631253
54	0x3b7e4bc9	0.0038802496
55	0xbbcaec70	-0.0061927363
56	0xbbf2bbfa	-0.0074076625
57	0x3b8c0b60	0.004273817
58	0xbab764d9	-0.0013991847
59	0x3bf20fa8	0.0073871203
60	0x3a9acedd	0.0011810918
61	0x3c3ece4a	0.011645863
62	0xbaf5ceae	-0.0018753612
63	0xbb12f771	-0.0022425319
64	0x3f7efd7f	0.99605554
65	0x3f80cc83	1.0062412
66	0x3f806d08	1.0033274
67	0x3f8025de	1.0011556
68	0x3f7f20a1	0.9965916
69	0x3f7fffcc	0.9999969
70	0x3f7f5418	0.9973769
71	0x3f8041d2	1.0020087
72	0x3f7db854	0.9910939
73	0x3f7ea644	0.9947245
74	0x3f7e57fc	0.99353004
75	0x3f7b3b1c	0.9813707
76	0x3f80427a	1.0020287
77	0x3f82291d	1.0168797
78	0x3f7f2d78	0.99678755
79	0x3f7d495b	0.98940057
80	0x3f7e7333	0.9939453
81	0x3f800000	1.0
82	0x3f805d24	1.0028424
83	0x3f800000	1.0
84	0x3f8006ee	1.0002115
85	0x3f7f7300	0.9978485
86	0x3f7d9856	0.9906057
87	0x3f7d7db9	0.9901996
88	0x3f81d10d	1.0141922
89	0x3f8127f5	1.0090319
90	0x3f812818	1.0090361
91	0x3f801c16	1.0008571
92	0x3f8080da	1.0039322
93	0x3f7f79e9	0.99795395
94	0x3f7fa9df	0.9986858
95	0x3f7df042	0.9919473
96	0x3f7dd758	0.99156713
97	0x3f807d71	1.0038282
98	0x3f7dfa9e	0.99210536
99	0x3f8092f6	1.0044849
100	0x3f803688	1.0016642
101	0x3f80accf	1.0052737
102	0x3f800000	1.0
103	0x3f8147ff	1.0100096
104	0x3f80291d	1.0012547
105	0x3f7ec964	0.9952605
106	0x3f8000a9	1.0000201
107	0x3f807add	1.0037495
108	0x3f80bbce	1.0057313
109	0x3f80caca	1.0061886
110	0x3f7fffee	0.9999989
111	0x3f7eada1	0.99483687
112	0x3f81e68f	1.0148486
113	0x3f7e9518	0.9944625
114	0x3f7f693e	0.9976996
115	0x3f7e66b0	0.9937544
116	0x3f806160	1.0029716
117	0x3f80846e	1.0040414
118	0x3f808252	1.0039771
119	0x3f7ecbef	0.9952993
120	0x3f7e70e4	0.9939101
121	0x3f80a2f5	1.004973
122	0x3f7f9901	0.9984284
123	0x3f819d91	1.012621
124	0x3f808a7b	1.0042261
125	0x3f817dc7	1.0116509
126	0x3f7e3103	0.99293536
127	0x3f7eeeb6	0.99582994
128	0xbc603760	-0.013685077
129	0x3c7237ec	0.014783841
130	0x3b770173	0.0037690073
131	0xb97ab930	-0.00023910846
132	0xbbc39f8b	-0.0059699467
133	0xbbaa68ce	-0.005200482
134	0xbc2e1d5e	-0.010627119
135	0x39c72227	0.00037981683
136	0xbb8d8b25	-0.004319566
137	0xbb975cdb	-0.0046192235
138	0xbbb986aa	-0.005661805
139	0xbc26235f	-0.010140269
140	0xbb5358e1	-0.003224902
141	0x3b35ca04	0.002773882
142	0x3b364e35	0.002781761
143	0xbc273aaf	-0.010206862
144	0xbba3ebcc	-0.0050024744
145	0xb67e8bb8	-3.7930276e-06
146	0x3ba88237	0.005142476
147	0x00000000	0.0
148	0x3b4ee076	0.0031566895
149	0x3ab9ab8c	0.0014165505
150	0xbc0510c9	-0.008121678
151	0xbc29644f	-0.010338857
152	0x3b816eb1	0.003949963
153	0x3c083be0	0.008315057
154	0x3bacf29a	0.005277944
155	0x3ae8f4b0	0.0017773118
156	0x3bfc5d45	0.0077015483
157	0xbbd04ce8	-0.006356824
158	0xbbb5b94a	-0.00554577
159	0xbc20827c	-0.009796735
160	0x3a1af52b	0.00059111667
161	0x38049d44	3.1617717e-05
162	0xbc16e99d	-0.009210971
163	0xba56c1af	-0.0008192313
164	0x3b461e24	0.0030230368
165	0xbc3c0343	-0.011475387
166	0x23c226da	2.1049976e-17
167	0x3aa179f6	0.0012319672
168	0x3a0a9fc3	0.00052880886
169	0xbc358c59	-0.011080825
170	0x3b2b1640	0.0026105791
171	0x3ab64857	0.0013907057
172	0x3bd059f5	0.00635838
173	0x3ba9e4bf	0.0051847394
174	0xbb3280a2	-0.0027237316
175	0xbb959f32	-0.0045660967
176	0x3c12ea22	0.008966954
177	0xbbaacf9a	-0.0052127363
178	0xba6f5d5a	-0.0009131037
179	0xbb924b25	-0.0044645243
180	0x3ba027e9	0.00488757
181	0x37d56c7b	2.5442094e-05
182	0x3b20a104	0.0024510035
183	0xbb59b810	-0.0033221282
184	0xbc0c433f	-0.008560955
185	0x3a5f4059	0.00085163635
186	0xbbbc7f20	-0.005752459
187	0x3a059e11	0.0005097101
188	0xbc05e6ab	-0.008172671
189	0x3c1717e0	0.009222001
190	0xbbb151f9	-0.005411383
191	0xbc24115a	-0.010013903
192	0xbb9bff2b	-0.004760643
193	0x3c75d649	0.015004703
194	0x3b64b8b1	0.0034900124
195	0x3a9ffefc	0.0012206729
196	0xbb89cf51	-0.0042056222
197	0xbb83e5c0	-0.004025191
198	0xbb8baebc	-0.0042627733
199	0x3b2d2145	0.0026417535
200	0xbb2d839a	-0.0026476146
201	0xbb9aa4c7	-0.00471935
202	0xbbf80c7c	-0.0075698476
203	0xbc95d032	-0.018287752
204	0x3add8bb3	0.0016902596
205	0x3c1fb3e7	0.009747482
206	0xbb0a9252	-0.0021144343
207	0xbc5c4cab	-0.013446013
208	0xbbc8b26c	-0.006124785
209	0x344b4d97	1.8934075e-07
210	0x3b4f74ee	0.003165539
211	0x00000000	0.0
212	0x391d7338	0.00015015609
213	0x3b000b3b	0.0019537944
214	0xbbeae963	-0.007168935
215	0xbc2a3619	-0.010388874
216	0x3c04d7ec	0.00810812
217	0x3c184a9a	0.00929513
218	0x3bf01f49	0.007327948
219	0x3907dbfe	0.00012956557
220	0x3b530ee0	0.003220491
221	0x3a2c39b1	0.0006569876
222	0x3beafb89	0.0071710986
223	0xbbfd1d6e	-0.0077244556
224	0xbc1232ba	-0.008923227
225	0x3b6f1299	0.003647959
226	0xbc0c9dcf	-0.008582546
227	0x3b85fdc7	0.0040890905
228	0x3b2cd8bf	0.0026374308
229	0xbba4d67a	-0.0050304504
230	0x1e9b7ab3	1.646201e-20
231	0x3c012522	0.007882388
232	0x3a762f8f	0.0009391242
233	0xbc23dffa	-0.010002131
234	0xb99774fa	-0.0002888812
235	0x3b5a13ea	0.003327603
236	0x3bc1bac6	0.0059121577
237	0x3bbd1306	0.00577009
238	0xb7ff9309	-3.0466837e-05
239	0xbba9b945	-0.0051795566
240	0x3c1c194c	0.009527516
241	0x3b4af2ca	0.0030967467
242	0xbafa79fb	-0.0019109839
243	0xbb967673	-0.004591757
244	0x3bb0a9cf	0.0053913365
245	0x3b480203	0.0030518777
246	0x3b5ba42d	0.0033514604
247	0xbb814a98	-0.00394566
248	0xbbe65ff7	-0.007030483
249	0x3b9f096c	0.004853418
250	0xbaa16203	-0.0012312535
251	0x3c73f7a7	0.014890588
252	0x3abe8cef	0.0014537851
253	0x3c4b8259	0.012421214
254	0xbb4ef8ae	-0.003158133
255	0xbb54155d	-0.0032361366

sequential/dense/MatMul f4 [32, 64]
0	0x3d26337a	0.040576436
1	0x3dcaebcf	0.09908258
2	0x3e6d4a83	0.23172955
3	0xbd8bd8e8	-0.06828481
4	0x3e816f86	0.25280398
5	0x3e12c768	0.1433388
6	0x3e6f4a1b	0.23368113
7	0x3e599dd6	0.21251616
8	0x3e1e9bd9	0.15489139
9	0x3cede096	0.029037755
10	0x3e0849df	0.1330943
11	0xbc94511f	-0.018105088
12	0x3c7f69ca	0.015589187
13	0xbe86cf61	-0.26330093
14	0xbe1c1d62	-0.15245584
15	0xbe5a833e	-0.21339127
16	0xbe765280	-0.24054909
17	0x3c74457b	0.014909144
18	0x3e52f064	0.20599514
19	0x3d6edc00	0.058315277
20	0x3d436bf8	0.04771039
21	0xbe3d94e5	-0.1851383
22	0xbd4814fa	-0.04884813
23	0x3dde5be1	0.10857368
24	0xbdd1661b	-0.10224553
25	0x3e240dff	0.16020964
26	0xbd6987dd	-0.057014335
27	0x3d6f03d1	0.05835325
28	0xbd8bb2b9	-0.06821198
29	0x3d397578	0.045278043
30	0xbe1dcf4f	-0.15411113
31	0xbdaf83a4	-0.0857003
32	0xbe711b1a	-0.23545495
33	0xbe6749d8	-0.22586763
34	0xbce146ae	-0.027499523
35	0x3db35628	0.087566674
36	0xbe134e47	-0.14385329
37	0x3e2af07e	0.16693303
38	0xbd1e1cc0	-0.038601637
39	0xbe7ccb45	-0.24686916
40	0xbdf91e1c	-0.12163946
41	0xbd775f30	-0.060393512
42	0xbe65ae9d	-0.22429891
43	0xbe292252	-0.16516998
44	0x3e6914d9	0.22761859
45	0x3e54b553	0.20772295
46	0xbc88b251	-0.01668659
47	0x3e58e198	0.21179807
48	0xbc63bc90	-0.013899937
49	0xbe2be01f	-0.16784714
50	0x3d9184f9	0.07105441
51	0xbd144b70	-0.036204755
52	0x3e3a1580	0.18172264
53	0xbe1bca1f	-0.15213822
54	0xbc3c9050	-0.011509016
55	0xbca75ee7	-0.020430995
56	0x3e0c1d19	0.13682975
57	0xbe19837e	-0.14991567
58	0xbe21e5f1	-0.15810372
59	0x3e35e6b7	0.17763792
60	0xbd19078a	-0.037360705
61	0x3e793779	0.24337567
62	0xbd65352b	-0.055958908
63	0xbdf86817	-0.121292286
64	0xbe30dc09	-0.17271437
65	0x3cbd351b	0.023096612
66	0xbe0925e7	-0.13393365
67	0xbd2e2def	-0.042524274
68	0xbe4ed8ca	-0.20199886
69	0xbe0a72d4	-0.13520366
70	0xbdfbf58e	-0.12302695
71	0x3cb06240	0.021531224
72	0x3d11ab51	0.03556377
73	0xbd18a2b8	-0.037264556
74	0xbde1e6fb	-0.11030384
75	0xbe69ce20	-0.22832537
76	0xbe15e08d	-0.1463644
77	0xbe24e565	-0.16103132
78	0xbe402121	-0.18762638
79	0xbce2e986	-0.027699243
80	0x3de11bb8	0.10991615
81	0xbe095aa3	-0.13413481
82	0xbcf0b398	-0.029382512
83	0x3ca62620	0.020281851
84	0xbe4dbe38	-0.20092094
85	0x3d89c6cd	0.06727371
86	0x3dda0513	0.10645499
87	0xbdab40f3	-0.083619975
88	0x3d3d6c3c	0.0462458
89	0x3dc90dce	0.09817086
90	0x3e053b77	0.13010965
91	0xbb904086	-0.004402223
92	0xbd911dd0	-0.070857644
93	0xbe58814d	-0.21143074
94	0xbe25168b	-0.1612188
95	0xbe425afa	-0.18980017
96	0xbe0d2555	-0.13783772
97	0x3df7e8a0	0.121049166
98	0xbd7fa2a0	-0.06241095
99	0xbdc060b7	-0.09393447
100	0x3e681ba3	0.22666793
101	0x3e249ac9	0.16074671
102	0x3d422c70	0.04740566
103	0x3e2c8f4c	0.16851538
104	0xbdad7aa4	-0.084706575
105	0x3e432c54	0.19059879
106	0xbe2f0249	-0.17090715
107	0x3e390149	0.18066896
108	0x3dd28723	0.102796815
109	0x3e409069	0.18805088
110	0x3d972468	0.07379991
111	0x3e388312	0.1801875
112	0xbe5f943c	-0.2183389
113	0x3e266807	0.16250621
114	0xbe01f83f	-0.12692355
115	0x3e499416	0.19685397
116	0x3df46cf1	0.119348414
117	0xbe158b0c	-0.14603823
118	0x3e4cb00f	0.19989036
119	0xbdcf980c	-0.101364225
120	0x3ddd7fa4	0.10815361
121	0xbe589eef	-0.21154378
122	0x3d0d6eeb	0.034529608
123	0xbe731430	-0.2373817
124	0xbda65515	-0.08121697
125	0xbd215d8b	-0.03939585
126	0x3dba2edf	0.09090971
127	0xbe19c6a1	-0.15017177
128	0xbda7a027	-0.081848435
129	0x3dd35bb8	0.10320228
130	0x3e293bb4	0.16526681
131	0xbce34b78	-0.027745947
132	0xbe4fb728	-0.20284712
133	0x3e1efbe8	0.15525782
134	0x3d4b94db	0.049702507
135	0x3e54407c	0.20727724
136	0xbdb2713d	-0.08713005
137	0x3dbd4638	0.09241909
138	0x3d55f632	0.052236743
139	0x3e577ccc	0.210437
140	0x3c4d0911	0.012514369
141	0x3e4ddffa	0.20104972
142	0x3e797f9c	0.24365085
143	0x3e3aa638	0.1822747
144	0xbe1f1598	-0.15535581
145	0xbdc8fd42	-0.0981393
146	0xbdd1c2e8	-0.102422535
147	0x3dc94528	0.09827644
148	0xbd2f21bc	-0.04275678
149	0xbdd54e7c	-0.1041536
150	0xbe2d9068	-0.16949618
151	0xbe1ae9ee	-0.151283
152	0x3dfed41b	0.124428
153	0xbdf7e6c4	-0.12104562
154	0xbe38226f	-0.17981885
155	0xbe16b096	-0.147158
156	0xbe2e17ce	-0.17001268
157	0xbe50acae	-0.20378372
158	0xbe7ad400	-0.24494934
159	0xbc5aedc0	-0.013362348
160	0xbce3a65e	-0.027789291
161	0x3e5302aa	0.20606485
162	0xbd029110	-0.031876624
163	0xbe450896	-0.19241557
164	0x3d940c50	0.07228911
165	0xbe1042ca	-0.14087978
166	0x3d55baf0	0.05218023
167	0xbe09d7dd	-0.13461252
168	0x3ce6ec60	0.028188884
169	0x3db5c3b8	0.08875221
170	0x3e3bc2ae	0.18335983
171	0xbe751163	-0.23932414
172	0x3e269865	0.16269071
173	0xbe439aa4	-0.1910196
174	0x3d726270	0.05917591
175	0x3df32ca1	0.11873747
176	0x3e25544f	0.16145442
177	0x3e76af31	0.24090268
178	0x3e4021dc	0.18762916
179	0xbe617741	-0.22018148
180	0xbd8b6e80	-0.068081856
181	0x3dc9c6e5	0.09852389
182	0xbe3af6e5	-0.18258245
183	0x3de38ed2	0.11111225
184	0xbdc953b4	-0.09830418
185	0xbe24ca08	-0.16092694
186	0xbe4f07e3	-0.20217852
187	0xbe67d77b	-0.22640793
188	0xbe613744	-0.21993738
189	0xbe29696b	-0.1654412
190	0x3e412191	0.18860461
191	0xbe541bd9	-0.20713748
192	0xbdfcd508	-0.1234532
193	0xbc917f12	-0.017760787
194	0x3c8f9742	0.01752818
195	0x3e05ab38	0.13053596
196	0x3e2ecb04	0.17069632
197	0x3e551678	0.20809352
198	0x3e455dc1	0.19274046
199	0x3e67bcd4	0.22630626
200	0xbe5649f8	-0.20926654
201	0x3e5251c8	0.2053901
202	0x3c3af840	0.0114117265
203	0xbd7fc420	-0.0624429
204	0x3e46361c	0.19356579
205	0xbe58bce8	-0.21165812
206	0x3d841e76	0.064511225
207	0xbde88df1	-0.11355198
208	0xbdcc67b8	-0.0998072
209	0xbd0b9f90	-0.034087718
210	0x3e22e579	0.1590785
211	0xbe4b88b4	-0.19876367
212	0x3e6c0174	0.2304743
213	0xbdfffa04	-0.124988586
214	0xbe72b864	-0.23703152
215	0x3da829f0	0.08211124
216	0xbdf0aad3	-0.11751332
217	0xbdb11616	-0.08646791
218	0xbe84c4f5	-0.25931516
219	0x3cc5260f	0.024066
220	0x3de84e7d	0.113430955
221	0xbd9c9486	-0.07645516
222	0xbe142f50	-0.14471173
223	0x3c07e880	0.008295178
224	0x3e3de0a0	0.18542719
225	0x3e6b04a5	0.2295099
226	0x3e47c6f4	0.19509488
227	0xbd85ecda	-0.065393165
228	0x3cf8306e	0.03029653
229	0x3e5d215c	0.21594757
230	0x3c561880	0.013067365
231	0xbe2c82e2	-0.16846803
232	0x3e047c64	0.12938076
233	0x3dae83c8	0.08521229
234	0xbe05edf8	-0.13079059
235	0xbe209535	-0.15681918
236	0xbe5f3be8	-0.21800196
237	0xbe441187	-0.19147311
238	0xbdc6ecbf	-0.097131245
239	0x3e285ee4	0.16442448
240	0xbc970bd1	-0.018438252
241	0xbb9fc7db	-0.0048761196
242	0xbd93adfb	-0.072109185
243	0x3e6e5ea4	0.2327829
244	0x3e577308	0.21039975
245	0xbe5b54dc	-0.2141909
246	0xbe3f4843	-0.1867991
247	0xbe147d38	-0.14500892
248	0x3d9eef65	0.07760505
249	0xbd132ae6	-0.035929583
250	0xbe275400	-0.16340637
251	0x3d2ae6f3	0.041724157
252	0xbdd22b92	-0.10262217
253	0xbdf356b6	-0.11881773
254	0xbe4d7cb8	-0.20067108
255	0x3cbae580	0.022814512

sequential/dense_1/MatMul f4 [2, 32]
0	0xbe2204b8	-0.15822113
1	0xbeb351d4	-0.35023367
2	0x3e24f431	0.16108777
3	0x3ead1d3e	0.33811373
4	0xbe287969	-0.16452564
5	0x3dff58b0	0.12468088
6	0x3e7df44f	0.24800228
7	0x3da24c67	0.07924729
8	0xbd0d6160	-0.034516692
9	0xbe7a334b	-0.24433629
10	0x3ed76be9	0.42074516
11	0x3eae7178	0.34070945
12	0x3dec612f	0.11541974
13	0xbecb3e77	-0.39696094
14	0xbe280154	-0.16406757
15	0x3c85db03	0.016339784
16	0xbe9fb6d4	-0.31194174
17	0xbdddb564	-0.10825613
18	0xbd31da7d	-0.043421257
19	0xbeae3b7e	-0.34029764
20	0xbe15a186	-0.14612398
21	0x3ebc8a69	0.3682435
22	0x3d5c2ab9	0.05375168
23	0x3eadfc7c	0.33981693
24	0xbee74471	-0.45169404
25	0xbe583e18	-0.21117437
26	0x3cad151e	0.021128234
27	0x3d364f3b	0.044509154
28	0x3e31ed99	0.17375793
29	0xbd360e89	-0.044447456
30	0xbe1e4585	-0.15456207
31	0xbe349019	-0.17633094
32	0x3ecb8d31	0.39756158
33	0x3e2ba87f	0.16763495
34	0x3cb77418	0.022394225
35	0xbe498084	-0.19677931
36	0xbd582565	-0.052770037
37	0xbd4b5a23	-0.049646508
38	0xbd00b463	-0.03142203
39	0x3e359fa9	0.17736687
40	0xbecdadc2	-0.4017163
41	0xbebac5e1	-0.36479095
42	0x3eaa856d	0.3330492
43	0x3cede203	0.029038435
44	0xbbe7f1df	-0.007078394
45	0xbe657964	-0.22409588
46	0xbddd27fc	-0.10798642
47	0x3e2bbf31	0.16772152
48	0x3d64f37b	0.055896264
49	0x3d311959	0.043237064
50	0xbe48741b	-0.1957554
51	0xbd34392c	-0.043999836
52	0x3e843b0b	0.25826296
53	0x3e37870a	0.17922607
54	0xbeb1c2c5	-0.3471891
55	0x3da643ee	0.08118425
56	0x3e956d09	0.2918475
57	0xbe890a0e	-0.26765484
58	0xbd6c426c	-0.057680532
59	0x3ceb6465	0.028734395
60	0x3d4049aa	0.04694525
61	0x3ea38de2	0.31944185
62	0x3ecd7575	0.40128675
63	0x3ebd6b9b	0.3699616

sequential/lstm/lstm_cell_1/BiasAdd/ReadVariableOp/resource1 f4 [256]
0	0xbc34b7d8	-0.01103016
1	0x3c1e005a	0.0096436385
2	0x3aec6b3a	0.0018037327
3	0x3a913ea6	0.0011081293
4	0xbb7437e4	-0.0037264759
5	0xbba876dd	-0.0051411227
6	0xbb96cef6	-0.0046023084
7	0x3b599f81	0.0033206644
8	0xbbc9b325	-0.006155389
9	0xbba440a7	-0.00501259
10	0xbb944c49	-0.0045256955
11	0xbca906d4	-0.020633139
12	0x3b716199	0.0036831854
13	0x3c28aafa	0.01029467
14	0x3a04e9af	0.0005070222
15	0xbc65c742	-0.014024558
16	0xbacb58af	-0.0015514101
17	0x34f43904	4.5490026e-07
18	0x3b6fa0fd	0.0036564462
19	0x00000000	0.0
20	0x39927d7f	0.00027940792
21	0xbaae3042	-0.0013289528
22	0xbbfdd71b	-0.00774659
23	0xbc239c8c	-0.009986054
24	0x3c24c267	0.010056115
25	0x3c337bf4	0.010954846
26	0x3bbd8811	0.0057840426
27	0xb9d3973d	-0.00040357737
28	0x3ac67766	0.0015141785
29	0x392d6edd	0.00016539865
30	0x3aaa6671	0.0013000501
31	0xbbfff2d4	-0.00781093
32	0xbc09212b	-0.008369724
33	0x3b0dd202	0.0021640067
34	0xbc105625	-0.008809601
35	0x3b989af3	0.0046571433
36	0x3b0e804f	0.0021743958
37	0xbb9d7001	-0.0048046117
38	0x1c81c916	8.588483e-22
39	0x3be64fb9	0.0070285466
40	0x3a9001fe	0.0010986922
41	0xbc179794	-0.009252448
42	0xbaaf6272	-0.001338078
43	0x3b9912bc	0.0046714228
44	0x3bb0a8a8	0.005391199
45	0x3bec2347	0.007206354
46	0xb994509c	-0.00028288818
47	0xbba65f1e	-0.005077257
48	0x3c38fa53	0.011290151
49	0xbb99f286	-0.0046981005
50	0xbab32cff	-0.0013670026
51	0xbb9c121c	-0.004762901
52	0x3baf3e0b	0.0053479723
53	0x3b62f59a	0.0034631253
54	0x3b7e4bc9	0.0038802496
55	0xbbcaec70	-0.0061927363
56	0xbbf2bbfa	-0.0074076625
57	0x3b8c0b60	0.004273817
58	0xbab764d9	-0.0013991847
59	0x3bf20fa8	0.0073871203
60	0x3a9acedd	0.0011810918
61	0x3c3ece4a	0.011645863
62	0xbaf5ceae	-0.0018753612
63	0xbb12f771	-0.0022425319
64	0x3f7efd7f	0.99605554
65	0x3f80cc83	1.0062412
66	0x3f806d08	1.0033274
67	0x3f8025de	1.0011556
68	0x3f7f20a1	0.9965916
69	0x3f7fffcc	0.9999969
70	0x3f7f5418	0.9973769
71	0x3f8041d2	1.0020087
72	0x3f7db854	0.9910939
73	0x3f7ea644	0.9947245
74	0x3f7e57fc	0.99353004
75	0x3f7b3b1c	0.9813707
76	0x3f80427a	1.0020287
77	0x3f82291d	1.0168797
78	0x3f7f2d78	0.99678755
79	0x3f7d495b	0.98940057
80	0x3f7e7333	0.9939453
81	0x3f800000	1.0
82	0x3f805d24	1.0028424
83	0x3f800000	1.0
84	0x3f8006ee	1.0002115
85	0x3f7f7300	0.9978485
86	0x3f7d9856	0.9906057
87	0x3f7d7db9	0.9901996
88	0x3f81d10d	1.0141922
89	0x3f8127f5	1.0090319
90	0x3f812818	1.0090361
91	0x3f801c16	1.0008571
92	0x3f8080da	1.0039322
93	0x3f7f79e9	0.99795395
94	0x3f7fa9df	0.9986858
95	0x3f7df042	0.9919473
96	0x3f7dd758	0.99156713
97	0x3f807d71	1.0038282
98	0x3f7dfa9e	0.99210536
99	0x3f8092f6	1.0044849
100	0x3f803688	1.0016642
101	0x3f80accf	1.0052737
102	0x3f800000	1.0
103	0x3f8147ff	1.0100096
104	0x3f80291d	1.0012547
105	0x3f7ec964	0.9952605
106	0x3f8000a9	1.0000201
107	0x3f807add	1.0037495
108	0x3f80bbce	1.0057313
109	0x3f80caca	1.0061886
110	0x3f7fffee	0.9999989
111	0x3f7eada1	0.99483687
112	0x3f81e68f	1.0148486
113	0x3f7e9518	0.9944625
114	0x3f7f693e	0.9976996
115	0x3f7e66b0	0.9937544
116	0x3f806160	1.0029716
117	0x3f80846e	1.0040414
118	0x3f808252	1.0039771
119	0x3f7ecbef	0.9952993
120	0x3f7e70e4	0.9939101
121	0x3f80a2f5	1.004973
122	0x3f7f9901	0.9984284
123	0x3f819d91	1.012621
124	0x3f808a7b	1.0042261
125	0x3f817dc7	1.0116509
126	0x3f7e3103	0.99293536
127	0x3f7eeeb6	0.99582994
128	0xbc603760	-0.013685077
129	0x3c7237ec	0.014783841
130	0x3b770173	0.0037690073
131	0xb97ab930	-0.00023910846
132	0xbbc39f8b	-0.0059699467
133	0xbbaa68ce	-0.005200482
134	0xbc2e1d5e	-0.010627119
135	0x39c72227	0.00037981683
136	0xbb8d8b25	-0.004319566
137	0xbb975cdb	-0.0046192235
138	0xbbb986aa	-0.005661805
139	0xbc26235f	-0.010140269
140	0xbb5358e1	-0.003224902
141	0x3b35ca04	0.002773882
142	0x3b364e35	0.002781761
143	0xbc273aaf	-0.010206862
144	0xbba3ebcc	-0.0050024744
145	0xb67e8bb8	-3.7930276e-06
146	0x3ba88237	0.005142476
147	0x00000000	0.0
148	0x3b4ee076	0.0031566895
149	0x3ab9ab8c	0.0014165505
150	0xbc0510c9	-0.008121678
151	0xbc29644f	-0.010338857
152	0x3b816eb1	0.003949963
153	0x3c083be0	0.008315057
154	0x3bacf29a	0.005277944
155	0x3ae8f4b0	0.0017773118
156	0x3bfc5d45	0.0077015483
157	0xbbd04ce8	-0.006356824
158	0xbbb5b94a	-0.00554577
159	0xbc20827c	-0.009796735
160	0x3a1af52b	0.00059111667
161	0x38049d44	3.1617717e-05
162	0xbc16e99d	-0.009210971
163	0xba56c1af	-0.0008192313
164	0x3b461e24	0.0030230368
165	0xbc3c0343	-0.011475387
166	0x23c226da	2.1049976e-17
167	0x3aa179f6	0.0012319672
168	0x3a0a9fc3	0.00052880886
169	0xbc358c59	-0.011080825
170	0x3b2b1640	0.0026105791
171	0x3ab64857	0.0013907057
172	0x3bd059f5	0.00635838
173	0x3ba9e4bf	0.0051847394
174	0xbb3280a2	-0.0027237316
175	0xbb959f32	-0.0045660967
176	0x3c12ea22	0.008966954
177	0xbbaacf9a	-0.0052127363
178	0xba6f5d5a	-0.0009131037
179	0xbb924b25	-0.0044645243
180	0x3ba027e9	0.00488757
181	0x37d56c7b	2.5442094e-05
182	0x3b20a104	0.0024510035
183	0xbb59b810	-0.0033221282
184	0xbc0c433f	-0.008560955
185	0x3a5f4059	0.00085163635
186	0xbbbc7f20	-0.005752459
187	0x3a059e11	0.0005097101
188	0xbc05e6ab	-0.008172671
189	0x3c1717e0	0.009222001
190	0xbbb151f9	-0.005411383
191	0xbc24115a	-0.010013903
192	0xbb9bff2b	-0.004760643
193	0x3c75d649	0.015004703
194	0x3b64b8b1	0.0034900124
195	0x3a9ffefc	0.0012206729
196	0xbb89cf51	-0.0042056222
197	0xbb83e5c0	-0.004025191
198	0xbb8baebc	-0.0042627733
199	0x3b2d2145	0.0026417535
200	0xbb2d839a	-0.0026476146
201	0xbb9aa4c7	-0.00471935
202	0xbbf80c7c	-0.0075698476
203	0xbc95d032	-0.018287752
204	0x3add8bb3	0.0016902596
205	0x3c1fb3e7	0.009747482
206	0xbb0a9252	-0.0021144343
207	0xbc5c4cab	-0.013446013
208	0xbbc8b26c	-0.006124785
209	0x344b4d97	1.8934075e-07
210	0x3b4f74ee	0.003165539
211	0x00000000	0.0
212	0x391d7338	0.00015015609
213	0x3b000b3b	0.0019537944
214	0xbbeae963	-0.007168935
215	0xbc2a3619	-0.010388874
216	0x3c04d7ec	0.00810812
217	0x3c184a9a	0.00929513
218	0x3bf01f49	0.007327948
219	0x3907dbfe	0.00012956557
220	0x3b530ee0	0.003220491
221	0x3a2c39b1	0.0006569876
222	0x3beafb89	0.0071710986
223	0xbbfd1d6e	-0.0077244556
224	0xbc1232ba	-0.008923227
225	0x3b6f1299	0.003647959
226	0xbc0c9dcf	-0.008582546
227	0x3b85fdc7	0.0040890905
228	0x3b2cd8bf	0.0026374308
229	0xbba4d67a	-0.0050304504
230	0x1e9b7ab3	1.646201e-20
231	0x3c012522	0.007882388
232	0x3a762f8f	0.0009391242
233	0xbc23dffa	-0.010002131
234	0xb99774fa	-0.0002888812
235	0x3b5a13ea	0.003327603
236	0x3bc1bac6	0.0059121577
237	0x3bbd1306	0.00577009
238	0xb7ff9309	-3.0466837e-05
239	0xbba9b945	-0.0051795566
240	0x3c1c194c	0.009527516
241	0x3b4af2ca	0.0030967467
242	0xbafa79fb	-0.0019109839
243	0xbb967673	-0.004591757
244	0x3bb0a9cf	0.0053913365
245	0x3b480203	0.0030518777
246	0x3b5ba42d	0.0033514604
247	0xbb814a98	-0.00394566
248	0xbbe65ff7	-0.007030483
249	0x3b9f096c	0.004853418
250	0xbaa16203	-0.0012312535
251	0x3c73f7a7	0.014890588
252	0x3abe8cef	0.0014537851
253	0x3c4b8259	0.012421214
254	0xbb4ef8ae	-0.003158133
255	0xbb54155d	-0.0032361366

sequential/lstm/while/lstm_cell_1/MatMul_1 f4 [256, 64]
0	0xbdba2d45	-0.09090666
1	0xbbcd6649	-0.006268297
2	0xbe2f63a8	-0.1712786
3	0xbd9b2429	-0.075752564
4	0x3cc1e666	0.023669433
5	0xbd8bf3b8	-0.06833595
6	0xbbad7bc6	-0.005294296
7	0xbd616dc0	-0.055036306
8	0xbdc06533	-0.09394302
9	0xbc213875	-0.009840121
10	0xbd09cd95	-0.033643324
11	0xbc53f763	-0.0129374
12	0x3c812a90	0.015767366
13	0x3cc8262b	0.024432262
14	0xbd8c97b1	-0.0686487
15	0xbb7a25a5	-0.003816941
16	0xbdf4e4a7	-0.119576745
17	0x3d08018b	0.033204596
18	0x3c1d8d6e	0.009616239
19	0xbd2311a8	-0.03981176
20	0x3e050363	0.12989573
21	0x3d2524ec	0.040318415
22	0xbcc27033	-0.023735141
23	0xbd68558d	-0.056722213
24	0xbdeee8ef	-0.11665522
25	0xbd5236d6	-0.051321827
26	0x3bf45f83	0.007457675
27	0xbd332314	-0.043734625
28	0xbd521e81	-0.051298622
29	0x3be5c430	0.0070119128
30	0x3c6d0b5b	0.014468039
31	0xbd2c6e29	-0.042097244
32	0xbda75f13	-0.08172431
33	0xbc36cea0	-0.011157662
34	0xbd0e7b7b	-0.03478573
35	0x3dc49340	0.09598398
36	0x3d05ef86	0.03269913
37	0x3b84329f	0.004034355
38	0x3bb01fcf	0.0053748856
39	0x3bf033cb	0.007330393
40	0xbc8b4d31	-0.017004581
41	0x3ce181c1	0.027527692
42	0xbd20efd2	-0.03929121
43	0x3d34f8df	0.044182654
44	0xbd8e0c93	-0.06935992
45	0xbc93c9bf	-0.018040536
46	0xbdaf3bb8	-0.08556312
47	0x3cc095e4	0.023508973
48	0x3c7d40aa	0.015457312
49	0xbd540a08	-0.05176738
50	0xbc25fc62	-0.0101309735
51	0xbc0691a2	-0.0082134325
52	0xbd6017dd	-0.054710258
53	0xbc604d12	-0.01369025
54	0x3db606f3	0.08888044
55	0x3de7799b	0.11302491
56	0x3b8722d6	0.004124026
57	0xbc3e516a	-0.01161609
58	0x3da356bc	0.07975528
59	0x3b973144	0.004614027
60	0x3cd0497e	0.025425669
61	0xbe080101	-0.13281633
62	0x3d79585c	0.06087528
63	0x3b925cdd	0.0044666366
64	0x3d98490f	0.0743581
65	0x3d945f69	0.072447605
66	0xbd22680f	-0.03965002
67	0x3dea1576	0.114298746
68	0xbd8d0138	-0.06884998
69	0x3d8cdd4e	0.06878148
70	0x3d16bdf5	0.03680225
71	0xbc67a494	-0.01413836
72	0xbd8252bb	-0.06363436
73	0x3c2a073e	0.010377703
74	0xbd3b1602	-0.045675285
75	0xbd28972a	-0.041159786
76	0x3c2c6bd2	0.010523753
77	0x3d5ce510	0.05392939
78	0x3d24bb3c	0.040217623
79	0xbcb5b5cc	-0.022181414
80	0x3d83e126	0.06439428
81	0xbdfdecea	-0.123987034
82	0xbba6409e	-0.005073621
83	0x3d389aaa	0.045069374
84	0x3d5959ac	0.053064033
85	0x3b75f213	0.003752832
86	0x3cb79183	0.022408253
87	0x3df50618	0.11964053
88	0x3d32d918	0.043664068
89	0x3c3e7b86	0.01162613
90	0x3d445f59	0.047942493
91	0x3d4391a2	0.04774631
92	0xbd9e321b	-0.077244006
93	0xbd897576	-0.06711857
94	0x3dd734a9	0.10508091
95	0xbd5ae6c3	-0.053442728
96	0xbdb544d6	-0.0885102
97	0x3d8f507f	0.06997775
98	0x3d62559b	0.05525742
99	0xbde485ab	-0.11158308
100	0x3d4a99e8	0.049463183
101	0xbb90b743	-0.0044163777
102	0xbd981f58	-0.07427853
103	0xbc4ec6bd	-0.012620625
104	0xbd5d5653	-0.054037403
105	0xbdb6f8c9	-0.08934171
106	0xbda63e49	-0.08117349
107	0xbd27d899	-0.040978048
108	0x3da0c320	0.07849717
109	0x3d23a442	0.03995157
110	0x3dd182eb	0.10230049
111	0x3bab2c78	0.005223807
112	0xbdfe7025	-0.124237336
113	0xbd91af3d	-0.07113502
114	0xbdaa4d81	-0.08315564
115	0xbd019e03	-0.031644832
116	0x3d2e1a06	0.042505287
117	0x3de5ca0e	0.112201795
118	0xbd2ca099	-0.042145345
119	0x3c66caab	0.014086406
120	0xbd23bab9	-0.039972994
121	0xbd8adee3	-0.067807935
122	0x3dc2b5e8	0.09507352
123	0xbd96b751	-0.073591836
124	0xbc023a2b	-0.007948439
125	0x3da57324	0.08078602
126	0xbd15b66b	-0.03655092
127	0x3d69cd94	0.05708082
128	0x3c9880f4	0.018616177
129	0x3c9aba0f	0.018887548
130	0xbd998f8d	-0.07498083
131	0x3bea4694	0.007149527
132	0xb9708a92	-0.00022939805
133	0xbc263ccd	-0.010146332
134	0x3d80b92e	0.0628532
135	0x3d9cb3a0	0.07651448
136	0xbd5eacf7	-0.05436417
137	0x3de2a982	0.11067487
138	0xbccdd73e	-0.02512705
139	0x3d5aaa38	0.05338499
140	0x3dd2d264	0.10294035
141	0xbdd64ca4	-0.10463837
142	0x3d9e4e68	0.077297986
143	0x3d3a3487	0.04546025
144	0x3b94af1e	0.004537477
145	0x3cf4d615	0.029887239
146	0xbd73a796	-0.059485994
147	0xbd90b9bc	-0.07066676
148	0x3d46ac2d	0.048504043
149	0x3c77268e	0.015084876
150	0x3d879300	0.06619835
151	0xbd7a6998	-0.06113586
152	0x3d5f8a1b	0.054575067
153	0x3ca1371c	0.019679599
154	0x3b9feaac	0.00488027
155	0xbd69ded6	-0.05709728
156	0xba9f8b46	-0.0012172244
157	0xbd8467c7	-0.064651065
158	0x3d8c309e	0.068452105
159	0x3c54a285	0.012978201
160	0x3cb19beb	0.021680793
161	0xbdb713c7	-0.08939319
162	0x3d8c5a45	0.06853155
163	0xbcf5805a	-0.02996843
164	0xbc5a9a29	-0.013342419
165	0xbd76ce7e	-0.06025552
166	0x3ccaec51	0.024770888
167	0x3c2a328c	0.010388028
168	0xbc37ae31	-0.011210964
169	0xbd1e23d7	-0.0386084
170	0xbc9c3641	-0.019068839
171	0x3d95cb4c	0.073141664
172	0x3daedbed	0.08538041
173	0x3d1515ed	0.036397863
174	0xbdb270b0	-0.087129
175	0xbdc035e3	-0.09385278
176	0xbd295e15	-0.04134949
177	0x3d9ee8c9	0.07759244
178	0x3d127806	0.035758995
179	0xbd861a81	-0.06548024
180	0xbca63392	-0.020288263
181	0x3d68d6a8	0.056845337
182	0xbb5ae90e	-0.0033403072
183	0x3d2aa95c	0.04166542
184	0xbcad2f69	-0.021140771
185	0x3ba0c7a2	0.0049066106
186	0xbc1ae731	-0.009454534
187	0x3d0ab6d0	0.03386575
188	0x3d6de11c	0.05807601
189	0x3bd8f473	0.0066209375
190	0x3cc9e3db	0.024644783
191	0x3cbb7f2a	0.022887785
192	0xbdbb78c3	-0.09153893
193	0x3dfff9a6	0.124987885
194	0xbbdbd677	-0.006708916
195	0xbd299f2a	-0.041411556
196	0x3d599ec8	0.05312994
197	0x3ceaea0d	0.028676057
198	0xbd2de8d6	-0.042458378
199	0xbda5012c	-0.08056864
200	0x3d7892ad	0.060686756
201	0xbd70b9a3	-0.058770787
202	0x3b9c7deb	0.004775753
203	0xbd57aab7	-0.05265304
204	0xbd56b748	-0.052420884
205	0xbcbb53f6	-0.022867184
206	0x3b76af3d	0.0037641071
207	0xbdd7cfda	-0.105376914
208	0xbc2b2b40	-0.010447323
209	0xbd889b1d	-0.066702105
210	0x3d79c10a	0.060975112
211	0x3d48d187	0.049027946
212	0xbd0bf2d6	-0.034167133
213	0xbd30ad41	-0.043133978
214	0xbcc91d7b	-0.02455019
215	0xbddd8aa5	-0.1081746
216	0x3d926c3b	0.071495496
217	0x3d012993	0.03153379
218	0xbd824631	-0.06361044
219	0xbcb99689	-0.022654789
220	0x3d237554	0.039906815
221	0x3d8ad2f5	0.06778518
222	0x3dd485ae	0.1037706
223	0x3cb4923d	0.022042388
224	0xbd878c0b	-0.06618508
225	0xbbdbf583	-0.006712617
226	0x3bfb67df	0.0076722945
227	0x3d8c9c29	0.06865723
228	0xbcf9edbf	-0.030508874
229	0x3bc5b189	0.0060331267
230	0x3d05e01d	0.032684434
231	0xbcdbc510	-0.026827365
232	0xbd89596f	-0.06706511
233	0x3c875004	0.016517647
234	0x3c831157	0.01599948
235	0xbd371cca	-0.04470519
236	0x3d642b4a	0.055705346
237	0x3d410e63	0.04713286
238	0x3d52d770	0.05147499
239	0x3dd4a11d	0.103822924
240	0x3d7f6dd0	0.062360585
241	0xbcaa3709	-0.020778196
242	0x3d3e06ce	0.04639321
243	0xbdbd1766	-0.092329785
244	0xbdf7a7b1	-0.120925315
245	0x3ddeaf8b	0.10873326
246	0xbd1423c2	-0.036166914
247	0x3d66407c	0.05621384
248	0xbda980aa	-0.08276494
249	0x3cbb193d	0.022839183
250	0xbd93cead	-0.07217155
251	0x3d8116bc	0.06303164
252	0xbd17f31e	-0.03709709
253	0x3c83bd49	0.01608147
254	0x3e1174bd	0.14204688
255	0xbdcec6fc	-0.10096547

sequential/lstm/while/lstm_cell_1/MatMul f4 [256, 172]
0	0xbd99aac1	-0.07503272
1	0x3c4e8eb6	0.012607267
2	0xbdd4a46b	-0.10382923
3	0xbdae39d1	-0.08507121
4	0x3c59800f	0.01327516
5	0x3d3510e3	0.044205558
6	0xbdbfe203	-0.0936928
7	0xbc5fd081	-0.013660551
8	0xbde6af2e	-0.112638816
9	0xbda4b442	-0.08042194
10	0xbda82bf4	-0.082115084
11	0x3d27a35c	0.040927276
12	0xbd214139	-0.03936884
13	0xbd8d4e77	-0.068997316
14	0x3d257f14	0.040404394
15	0x3d94bdb8	0.072627485
16	0xbce444c4	-0.027864821
17	0xbd24425e	-0.040102355
18	0x3db5fd18	0.088861644
19	0x3a4e139c	0.00078611984
20	0x3db836cd	0.089948274
21	0xbcc3684e	-0.023853447
22	0x3dc89f9f	0.0979607
23	0x3b72c873	0.0037045747
24	0x3d44c0ad	0.048035312
25	0xbdf9ac46	-0.12191062
26	0xbdbaa276	-0.09113018
27	0xbdb9b828	-0.09068328
28	0xbd5ac1cf	-0.053407487
29	0x3d54a312	0.05191333
30	0x3b649a99	0.0034882186
31	0x3c886bb4	0.01665292
32	0xbdb3a724	-0.08772114
33	0x3cb3c8b1	0.021946283
34	0xbd011ac1	-0.031519655
35	0xbdd53f45	-0.10412458
36	0xbca347b6	-0.019931655
37	0xbdc594bc	-0.096475095
38	0x3c9bb7a0	0.019008458
39	0xbdc1cf5f	-0.09463381
40	0xbd4c7060	-0.049911857
41	0xbdc0f83a	-0.094223455
42	0xbc99d6aa	-0.018779118
43	0x3db50f8d	0.08840857
44	0xbd6785be	-0.05652403
45	0xbdfa4b37	-0.12221377
46	0xbd998ac6	-0.07497172
47	0x3db74dc1	0.08950377
48	0xbd9e518f	-0.077304
49	0x3dd4f577	0.10398381
50	0xbd61296e	-0.05497115
51	0x3dd154ee	0.10221277
52	0x3db1ffcb	0.08691367
53	0x3d7e391f	0.062066194
54	0xbdea1872	-0.11430444
55	0xbd6bc83d	-0.05756401
56	0xbd86e04a	-0.065857485
57	0x3d9d8bbc	0.07692668
58	0x3ce35967	0.027752591
59	0x3b8253f6	0.003977294
60	0xbc496bca	-0.012293765
61	0xb9713fae	-0.00023007274
62	0xbdb53c86	-0.088494346
63	0x3d828c72	0.06374444
64	0xbdf878b3	-0.121323965
65	0xbb3828d9	-0.002810052
66	0xbdbfe99b	-0.093707286
67	0xbd2d10fd	-0.04225253
68	0xbda53aac	-0.080678314
69	0xbdfc3d91	-0.1231643
70	0x3cdf1ffb	0.02723693
71	0x3b855c73	0.0040698587
72	0x3cc508dc	0.024052076
73	0x3d735940	0.059411287
74	0xbdccf0dc	-0.10006878
75	0x3d6584bf	0.0560348
76	0x3db1ac6b	0.08675464
77	0x3d61d4e5	0.055134673
78	0x3d9cd6f1	0.07658184
79	0x3cd36b9e	0.025808152
80	0xbd8ed865	-0.06974868
81	0xbdbb5caf	-0.09148537
82	0xbda38c1d	-0.07985709
83	0x3da53273	0.08066263
84	0x3dcab60f	0.09898006
85	0x3dcc18c8	0.09965664
86	0xbaa90ed9	-0.0012898102
87	0x3cc14d01	0.023596289
88	0x3c0eb4e4	0.00871012
89	0xbc69e5df	-0.014275997
90	0x3d42c84e	0.047554307
91	0xbc0399fd	-0.008032319
92	0x3d39cd53	0.045361828
93	0xbd5ef43e	-0.054432146
94	0xbd91a5d8	-0.0711171
95	0xbc7a29d3	-0.015268761
96	0xbdd909ea	-0.10597594
97	0x3ced18a3	0.028942412
98	0xbd5964ce	-0.05307465
99	0x3ce3d3e8	0.027811006
100	0xbe036d44	-0.1283465
101	0xbdec7a7d	-0.115468
102	0xbc2f2766	-0.010690546
103	0x3db31e47	0.08746009
104	0x3dcb6fd0	0.09933436
105	0x3d06ba13	0.032892298
106	0xbdc30917	-0.09523218
107	0x3d13f452	0.036121674
108	0x3ddb8587	0.10718828
109	0x3d2a7d92	0.04162366
110	0x3dd6de31	0.104915984
111	0xbda926ba	-0.0825934
112	0xbde88489	-0.11353404
113	0x3c1c06bf	0.009523093
114	0x3d45117a	0.04811237
115	0x3d794ca2	0.0608641
116	0x3dc36d4d	0.09542332
117	0xbe039103	-0.12848286
118	0xbc81311f	-0.015770493
119	0xbda38021	-0.07983423
120	0x3d9bc60c	0.07606134
121	0xbd2e6759	-0.04257903
122	0x3c71ae39	0.014751011
123	0x3dcaeb77	0.099081926
124	0xbd8274b7	-0.06369918
125	0xbd160a9a	-0.036631204
126	0x3dc00a75	0.093769945
127	0xbd9614a0	-0.07328153
128	0x3da32752	0.07966484
129	0xbd66f3da	-0.0563849
130	0xbda13358	-0.07871121
131	0xbd4be0a1	-0.04977477
132	0xbca2b5ca	-0.019862074
133	0xbb31d053	-0.0027132228
134	0xbdc58256	-0.09644
135	0x3d8f9350	0.070105195
136	0x3cd12e89	0.025534885
137	0x3d9826f1	0.074293025
138	0xbca43ffc	-0.020050041
139	0xbd77dae1	-0.060511474
140	0xbd648a06	-0.055795692
141	0x3dd4e3d9	0.10395021
142	0xbd5ab4c5	-0.05339505
143	0xbc79c783	-0.015245321
144	0x3d3ba3ff	0.045810696
145	0xbd9a3308	-0.07529265
146	0x3dde4768	0.108534634
147	0xbdee28af	-0.116288535
148	0xbba29013	-0.0049610226
149	0xbcc7b12c	-0.024376474
150	0xbdaa4fca	-0.08316
151	0x3d585620	0.05281651
152	0xbdcf57ca	-0.10124166
153	0x3d935538	0.071939886
154	0xbdb8e2d0	-0.09027636
155	0xbcc6e508	-0.024279132
156	0x3bdb5088	0.0066929497
157	0xbd33c31c	-0.043887243
158	0x3dc61f9d	0.096739985
159	0xbdcbeac4	-0.09956887
160	0x3da311f9	0.079624124
161	0xbc26e032	-0.010185288
162	0x3d904f59	0.07046384
163	0x3ceb1e8c	0.02870109
164	0xbd7bad95	-0.061444838
165	0x3cb979eb	0.022641143
166	0x3d08557e	0.033284657
167	0x3ac7b6b5	0.0015236946
168	0x3a8b7474	0.0010639564
169	0x3d267b90	0.040645182
170	0x3d41ee82	0.0473466
171	0x3da603a0	0.0810616
172	0x3e01c1ce	0.12671587
173	0x3dafbcf3	0.08580961
174	0xbd61dc59	-0.05514178
175	0xbccaa10f	-0.024735002
176	0x3ce2b7bc	0.027675502
177	0x3cb6a6e2	0.022296373
178	0xbdaad708	-0.08341795
179	0xbdc8ca46	-0.098042056
180	0x3c8f0b3a	0.017461408
181	0x3d6c3cd5	0.0576752
182	0x3cf86ec3	0.030326253
183	0x3d036606	0.03207972
184	0x3d907a21	0.07054544
185	0xbdd7bdc1	-0.105342396
186	0xbd1d9284	-0.038469806
187	0xbd45d931	-0.048302833
188	0xbdbcf881	-0.09227086
189	0xb9a6d224	-0.00031818554
190	0x3d4c095e	0.04981362
191	0xbcd2e339	-0.025743114
192	0x3d7dc10d	0.061951686
193	0x3d2d311b	0.04228316
194	0xbdcaab26	-0.09895925
195	0xbcb8d405	-0.022562036
196	0x3dc37db2	0.09545459
197	0x3d8e3cac	0.06945166
198	0x3d9cfcbd	0.076653935
199	0xbd97af8a	-0.07406528
200	0x3d9d6eef	0.076871745
201	0xbbe53dc0	-0.0069958866
202	0xbd5cfa0f	-0.053949412
203	0xbd022b3d	-0.031779516
204	0x3db121ee	0.0864905
205	0x3ce21697	0.027598662
206	0xbc83ba50	-0.016080052
207	0x3ca65b91	0.020307334
208	0xbdd2e533	-0.102976225
209	0x3df7d3a1	0.12100912
210	0xbd585fb5	-0.05282565
211	0x3dbb9eec	0.09161171
212	0xbd259f05	-0.040434856
213	0x3d805e11	0.06267942
214	0xbcbd69c1	-0.023121716
215	0x3de65279	0.11246199
216	0xbcbf0220	-0.023316443
217	0x3ca1d3cc	0.019754313
218	0x3d8fb182	0.07016279
219	0xbd8f5d96	-0.07000272
220	0xbddc4066	-0.107544705
221	0x3c3863c1	0.011254252
222	0x3d9c7128	0.0763877
223	0xbd5d53de	-0.05403506
224	0x3d193a28	0.037408978
225	0xbdc7785f	-0.09739756
226	0xbdf48573	-0.11939516
227	0xbdae384d	-0.08506832
228	0x3c33a743	0.010965171
229	0xbc92ca80	-0.017918825
230	0xbcbfffea	-0.023437459
231	0x3df6581f	0.120285265
232	0xbd75a5f8	-0.059972733
233	0xbce71b3d	-0.02821123
234	0x3c39b8c1	0.011335553
235	0xbdc09c9b	-0.0940487
236	0xbdacaa12	-0.08430876
237	0xbd953671	-0.072857745
238	0xbd936fa8	-0.07199031
239	0xbd42d059	-0.047561977
240	0xbd851c54	-0.06499544
241	0x3dafa715	0.0857679
242	0x3d28d48c	0.041218325
243	0xbc141e65	-0.00904045
244	0xbc011d78	-0.007880561
245	0x3c1b97ed	0.009496671
246	0x3db0e69e	0.08637737
247	0x3da9d836	0.08293192
248	0x3d25cbac	0.04047744
249	0x3df0479e	0.1173241
250	0x3d3ce960	0.046121
251	0xbc7ae7e2	-0.015314074
252	0x3d55ec64	0.052227393
253	0x3db8466c	0.08997807
254	0xbd24497d	-0.040109146
255	0x3dfa38c2	0.12217857
