models/running_modelss.tflite (tflite, 271036 bytes, 9 tensors)

sequential/lstm/TensorArrayV2_1 f4 [30, 1, 64]
0.0 0.0 0.0 0.0 0.0 0.0 0.0 0.0
0.0 0.0 0.0 0.0 0.0 0.0 0.0 0.0
0.0 0.0 0.0 0.0 0.0 0.0 0.0 0.0
0.0 0.0 0.0 0.0 0.0 0.0 0.0 0.0
0.0 0.0 0.0 0.0 0.0 0.0 0.0 0.0
0.0 0.0 0.0 0.0 0.0 0.0 0.0 0.0
0.0 0.0 0.0 0.0 0.0 0.0 0.0 0.0
0.0 0.0 0.0 0.0 0.0 0.0 0.0 0.0
0.0 0.0 0.0 0.0 0.0 0.0 0.0 0.0
0.0 0.0 0.0 0.0 0.0 0.0 0.0 0.0
0.0 0.0 0.0 0.0 0.0 0.0 0.0 0.0
0.0 0.0 0.0 0.0 0.0 0.0 0.0 0.0
0.0 0.0 0.0 0.0 0.0 0.0 0.0 0.0
0.0 0.0 0.0 0.0 0.0 0.0 0.0 0.0
0.0 0.0 0.0 0.0 0.0 0.0 0.0 0.0
0.0 0.0 0.0 0.0 0.0 0.0 0.0 0.0
0.0 0.0 0.0 0.0 0.0 0.0 0.0 0.0
0.0 0.0 0.0 0.0 0.0 0.0 0.0 0.0
0.0 0.0 0.0 0.0 0.0 0.0 0.0 0.0
0.0 0.0 0.0 0.0 0.0 0.0 0.0 0.0
0.0 0.0 0.0 0.0 0.0 0.0 0.0 0.0
0.0 0.0 0.0 0.0 0.0 0.0 0.0 0.0
0.0 0.0 0.0 0.0 0.0 0.0 0.0 0.0
0.0 0.0 0.0 0.0 0.0 0.0 0.0 0.0
0.0 0.0 0.0 0.0 0.0 0.0 0.0 0.0
0.0 0.0 0.0 0.0 0.0 0.0 0.0 0.0
0.0 0.0 0.0 0.0 0.0 0.0 0.0 0.0
0.0 0.0 0.0 0.0 0.0 0.0 0.0 0.0
0.0 0.0 0.0 0.0 0.0 0.0 0.0 0.0
0.0 0.0 0.0 0.0 0.0 0.0 0.0 0.0
0.0 0.0 0.0 0.0 0.0 0.0 0.0 0.0
0.0 0.0 0.0 0.0 0.0 0.0 0.0 0.0
00000000: 0000 0000 0000 0000 0000 0000 0000 0000
00000010: 0000 0000 0000 0000 0000 0000 0000 0000
00000020: 0000 0000 0000 0000 0000 0000 0000 0000
00000030: 0000 0000 0000 0000 0000 0000 0000 0000
00000040: 0000 0000 0000 0000 0000 0000 0000 0000
00000050: 0000 0000 0000 0000 0000 0000 0000 0000
00000060: 0000 0000 0000 0000 0000 0000 0000 0000
00000070: 0000 0000 0000 0000 0000 0000 0000 0000
00000080: 0000 0000 0000 0000 0000 0000 0000 0000
00000090: 0000 0000 0000 0000 0000 0000 0000 0000
000000a0: 0000 0000 0000 0000 0000 0000 0000 0000
000000b0: 0000 0000 0000 0000 0000 0000 0000 0000
000000c0: 0000 0000 0000 0000 0000 0000 0000 0000
000000d0: 0000 0000 0000 0000 0000 0000 0000 0000
000000e0: 0000 0000 0000 0000 0000 0000 0000 0000
000000f0: 0000 0000 0000 0000 0000 0000 0000 0000
00000100: 0000 0000 0000 0000 0000 0000 0000 0000
00000110: 0000 0000 0000 0000 0000 0000 0000 0000
00000120: 0000 0000 0000 0000 0000 0000 0000 0000
00000130: 0000 0000 0000 0000 0000 0000 0000 0000
00000140: 0000 0000 0000 0000 0000 0000 0000 0000
00000150: 0000 0000 0000 0000 0000 0000 0000 0000
00000160: 0000 0000 0000 0000 0000 0000 0000 0000
00000170: 0000 0000 0000 0000 0000 0000 0000 0000
00000180: 0000 0000 0000 0000 0000 0000 0000 0000
00000190: 0000 0000 0000 0000 0000 0000 0000 0000
000001a0: 0000 0000 0000 0000 0000 0000 0000 0000
000001b0: 0000 0000 0000 0000 0000 0000 0000 0000
000001c0: 0000 0000 0000 0000 0000 0000 0000 0000
000001d0: 0000 0000 0000 0000 0000 0000 0000 0000
000001e0: 0000 0000 0000 0000 0000 0000 0000 0000
000001f0: 0000 0000 0000 0000 0000 0000 0000 0000
00000200: 0000 0000 0000 0000 0000 0000 0000 0000
00000210: 0000 0000 0000 0000 0000 0000 0000 0000
00000220: 0000 0000 0000 0000 0000 0000 0000 0000
00000230: 0000 0000 0000 0000 0000 0000 0000 0000
00000240: 0000 0000 0000 0000 0000 0000 0000 0000
00000250: 0000 0000 0000 0000 0000 0000 0000 0000
00000260: 0000 0000 0000 0000 0000 0000 0000 0000
00000270: 0000 0000 0000 0000 0000 0000 0000 0000
00000280: 0000 0000 0000 0000 0000 0000 0000 0000
00000290: 0000 0000 0000 0000 0000 0000 0000 0000
000002a0: 0000 0000 0000 0000 0000 0000 0000 0000
000002b0: 0000 0000 0000 0000 0000 0000 0000 0000
000002c0: 0000 0000 0000 0000 0000 0000 0000 0000
000002d0: 0000 0000 0000 0000 0000 0000 0000 0000
000002e0: 0000 0000 0000 0000 0000 0000 0000 0000
000002f0: 0000 0000 0000 0000 0000 0000 0000 0000
00000300: 0000 0000 0000 0000 0000 0000 0000 0000
00000310: 0000 0000 0000 0000 0000 0000 0000 0000
00000320: 0000 0000 0000 0000 0000 0000 0000 0000
00000330: 0000 0000 0000 0000 0000 0000 0000 0000
00000340: 0000 0000 0000 0000 0000 0000 0000 0000
00000350: 0000 0000 0000 0000 0000 0000 0000 0000
00000360: 0000 0000 0000 0000 0000 0000 0000 0000
00000370: 0000 0000 0000 0000 0000 0000 0000 0000
00000380: 0000 0000 0000 0000 0000 0000 0000 0000
00000390: 0000 0000 0000 0000 0000 0000 0000 0000
000003a0: 0000 0000 0000 0000 0000 0000 0000 0000
000003b0: 0000 0000 0000 0000 0000 0000 0000 0000
000003c0: 0000 0000 0000 0000 0000 0000 0000 0000
000003d0: 0000 0000 0000 0000 0000 0000 0000 0000
000003e0: 0000 0000 0000 0000 0000 0000 0000 0000
000003f0: 0000 0000 0000 0000 0000 0000 0000 0000

sequential/dense/BiasAdd/ReadVariableOp/resource f4 [32]
0.0070537715 -0.006024624 -0.010154615 -0.003829654 0.006323373 -0.0059968675 -0.00064408896 0.0
-0.014758391 -0.008626384 -0.0005484924 0.03152659 0.02660221 -0.0021966563 0.004169273 0.0
0.0082396185 -0.002510772 0.002925669 0.0012499104 -0.015342996 -0.0018945328 0.0052992054 0.0016793143
0.0063160975 0.007148173 0.0036642835 -0.011136224 -0.0055603283 0.017463958 -0.0019664625 -0.002163915
00000000: 5323 e73b 366a c5bb 8b5f 26bc effa 7abb
00000010: 4c34 cf3b 5f81 c4bb 14d8 28ba 0000 0000
00000020: 2ecd 71bc ad55 0dbc b4c8 0fba 0722 013d
00000030: e1ec d93c c7f5 0fbb 669e 883b 0000 0000
00000040: 77ff 063c c48b 24bb 95bc 3f3b 09d4 a33a
00000050: 3161 7bbc f951 f8ba f5a4 ad3b 701c dc3a
00000060: 44f7 ce3b 393b ea3b 7a24 703b b574 36bc
00000070: 6a33 b6bb 9310 8f3c c4df 00bb 78d0 0dbb

sequential/dense_1/BiasAdd/ReadVariableOp/resource f4 [2]
-0.001764834 0.0017648329
00000000: 0152 e7ba f751 e73a

sequential/lstm/lstm_cell_1/BiasAdd/ReadVariableOp/resource f4 [256]
0.0028190934 0.0017851485 0.0 0.007307392 0.01427444 0.0027006809 -0.004194479 -0.0020700323
0.006596425 -0.022570292 -0.0056772367 0.0020061515 0.0 0.0020111098 -0.00610198 -0.004222285
-0.0017962896 -0.0071756393 0.00024262803 -0.006500166 0.0031379228 0.008870089 -0.0024196208 0.0
0.0032439316 0.0050697583 0.00723999 0.0052462625 0.000113154965 0.0033704909 -0.009247592 -0.0049495543
-0.009435807 -0.0070187533 -0.0057652784 0.0072131697 -0.007935556 -0.002614493 -0.009378785 -0.0040352754
-0.007885194 -0.0006535199 0.0 0.0030700334 -0.0012511665 0.0 0.0016548192 0.0036360377
-0.011863034 0.0 0.0055649728 -0.0059804386 -0.0037193222 -0.006622956 -0.009298395 -0.0028806415
-0.012238634 0.0 0.00393895 0.01106393 0.009550833 -0.01560569 -0.005801803 -0.012539926
0.9992581 0.9963329 1.0 1.0054804 1.0109534 1.0027021 0.996495 0.9968673
1.0080485 0.98205763 0.9960337 1.0013874 1.0 1.0016714 0.9950261 0.9974097
0.9987026 0.9934537 1.0004663 0.9939137 1.0026015 1.0103624 1.003336 1.0
1.0040386 1.0049679 1.0071844 1.0056523 0.9996705 1.0025951 0.994828 0.9973613
0.9903229 0.9958469 0.9936692 1.0090069 0.99165606 0.9970243 0.9885476 0.9976339
0.9914903 0.9999695 1.0 1.002297 0.9924539 1.0 0.9999008 1.0038756
0.9884942 1.0 1.0086354 0.99400365 0.9943434 0.99110705 0.9929318 1.001742
0.9888307 1.0 1.0060993 1.0075108 1.0077863 0.99228054 0.99405944 0.98793787
-0.0025403434 0.0002328848 0.0 0.004181653 0.0008923545 0.0007963299 0.00033878256 -0.0006127004
-0.0033411095 -0.014630115 -0.0034002764 0.00089213345 0.0 0.0037856903 -0.005898817 -0.0006148578
0.001375891 -0.0074172174 0.005736384 -0.0064077103 0.0042332024 0.00271343 -0.007380791 0.0
0.0029992815 -0.006343303 -0.00039763318 0.0047413893 -0.0042200238 -0.004169479 -0.010522682 -0.003690624
-0.0047710272 -0.005457375 -0.0057794205 -0.004093548 -0.0057281833 -0.004131946 -0.0034075824 -0.0059915944
-0.0052426886 -0.0051073 0.0 0.0018415122 0.003074982 0.0 0.0028019017 0.0054925173
-0.0021873082 0.0 0.005123592 -0.005960694 -0.006675593 -0.00545894 -0.006175584 -0.0016668425
-0.008630409 0.0 0.005939839 0.006105622 0.006650176 0.007707853 -0.006002861 -0.0099407
-0.0017775838 0.00024330107 0.0 0.006492236 0.012376399 0.0025064934 -0.0050305706 -0.0030496055
0.007775007 -0.020449236 -0.0025515037 0.0006364073 0.0 -0.00035589578 -0.0052962997 -0.0028779677
-0.002903247 -0.005787414 0.0013627991 -0.0063364045 0.003995126 0.009769764 -0.0029793347 0.0
0.0031598045 0.0054763556 0.0050200685 0.0051716515 -0.0030370122 0.0030524824 -0.010716566 -0.0049504642
-0.00856585 -0.005739339 -0.0057840403 0.0039126347 -0.008671372 -0.0026867501 -0.008810567 -0.004330834
-0.0079071075 -0.00077158445 0.0 0.0012245654 -0.002136128 0.0 0.0031287293 0.0034935253
-0.009766661 0.0 0.0088839615 -0.005972591 -0.0018888493 -0.0068841022 -0.007250604 0.0021561186
-0.012353565 0.0 0.0054657008 0.009293937 0.008636122 -0.004071 -0.0057416973 -0.012671445
00000000: 8ac0 383b a5fb e93a 0000 0000 d972 ef3b
00000010: 57df 693c e8fd 303b d771 89bb 61a9 07bb
00000020: d326 d83b 55e5 b8bc 1d08 babb a379 033b
00000030: 0000 0000 d3cc 033b 1ef3 c7bb 185b 8abb
00000040: 7a71 ebba a021 ebbb f769 7e39 58ff d4bb
00000050: 9ca5 4d3b da53 113c 8092 1ebb 0000 0000
00000060: 2498 543b 3720 a63b 703d ed3b d7e8 ab3b
00000070: 9c4d ed38 74e3 5c3b 3683 17bc df2f a2bb
00000080: a598 1abc 92fd e5bb a9ea bcbb 745c ec3b
00000090: 2204 02bc ea57 2bbb 7aa9 19bc 583a 84bb
000000a0: e730 01bc fa50 2bba 0000 0000 9d32 493b
000000b0: 2efe a3ba 0000 0000 85e6 d83a 974a 6e3b
000000c0: 2c5d 42bc 0000 0000 605a b63b 8ef7 c3bb
000000d0: dfbf 73bb 6205 d9bb 4c58 18bc 25c9 3cbb
000000e0: 8d84 48bc 0000 0000 4f12 813b 7c45 353c
000000f0: 197b 1c3c 02af 7fbc 0d1d bebb 4374 4dbc
00000100: 61cf 7f3f ac0f 7f3f 0000 803f 95b3 803f
00000110: ec66 813f 8b58 803f 4c1a 7f3f b232 7f3f
00000120: bc07 813f 2168 7b3f 11fc 7e3f 762d 803f
00000130: 0000 803f c536 803f 08ba 7e3f 3e56 7f3f
00000140: f9aa 7f3f fb52 7e3f 480f 803f 2171 7e3f
00000150: 3f55 803f 8e53 813f 506d 803f 0000 803f
00000160: 5684 803f caa2 803f 6beb 803f 37b9 803f
00000170: 68ea 7f3f 0955 803f 0cad 7e3f 1253 7f3f
00000180: cd85 7d3f d3ef 7e3f 1b61 7e3f 2327 813f
00000190: 2cdd 7d3f fc3c 7f3f 7511 7d3f ef64 7f3f
000001a0: 4fd2 7d3f 00fe 7f3f 0000 803f 454b 803f
000001b0: 7511 7e3f 0000 803f 80f9 7f3f ff7e 803f
000001c0: f50d 7d3f 0000 803f f71a 813f 0677 7e3f
000001d0: 4a8d 7e3f 31b9 7d3f c730 7e3f 1539 803f
000001e0: 0224 7d3f 0000 803f ddc7 803f 1df6 803f
000001f0: 24ff 803f 1906 7e3f ae7a 7e3f 7fe9 7c3f
00000200: e47b 26bb 8a32 7439 0000 0000 3f06 893b
00000210: e6ec 693a ccc0 503a a09e b139 a19d 20ba
00000220: 84f6 5abb 26b3 6fbc 2cd7 5ebb 10de 693a
00000230: 0000 0000 5819 783b dd4a c1bb 692e 21ba
00000240: 3e57 b43a 210c f3bb 47f8 bb3b c5f7 d1bb
00000250: adb6 8a3b cdd3 313b 90da f1bb 0000 0000
00000260: 988f 443b 7bdb cfbb 6c79 d0b9 a85d 9b3b
00000270: 2048 8abb 20a0 88bb 5467 2cbc 65de 71bb
00000280: 4756 9cbb c8d3 b2bb 4b61 bdbb 2b23 86bb
00000290: 7cb3 bbbb 4665 87bb bf51 5fbb 2355 c4bb
000002a0: dcca abbb 235b a7bb 0000 0000 e55e f13a
000002b0: a385 493b 0000 0000 1ca0 373b 93fa b33b
000002c0: f158 0fbb 0000 0000 cee3 a73b ed51 c3bb
000002d0: efbe dabb e8e0 b2bb 8e5c cabb f479 daba
000002e0: 8f66 0dbc 0000 0000 fba2 c23b ab11 c83b
000002f0: b8e9 d93b 2892 fc3b a6b3 c4bb 51de 22bc
00000300: d1fd e8ba a21e 7f39 0000 0000 d3bc d43b
00000310: 61c6 4a3c fb43 243b 7cd7 a4bb e4db 47bb
00000320: 7cc5 fe3b 2885 a7bc 2137 27bb 92d4 263a
00000330: 0000 0000 8697 bab9 958c adbb 499c 3cbb
00000340: 6744 3ebb 59a4 bdbb f39f b23a 9da1 cfbb
00000350: 8ce9 823b 5c11 203c f140 43bb 0000 0000
00000360: b914 4f3b 0073 b33b 637f a43b f576 a93b
00000370: 9c08 47bb 280c 483b 8994 2fbc 8137 a2bb
00000380: c757 0cbc 1111 bcbb 0c88 bdbb 8f35 803b
00000390: 5f12 0ebc 3014 30bb 325a 10bc abe9 8dbb
000003a0: d08c 01bc 2844 4aba 0000 0000 9981 a03a
000003b0: 48fe 0bbb 0000 0000 5e0b 4d3b a1f3 643b
000003c0: 5804 20bc 0000 0000 098e 113c bab5 c3bb
000003d0: 4493 f7ba 0994 e1bb 7a96 edbb ab4d 0d3b
000003e0: 9b66 4abc 0000 0000 9f19 b33b 9945 183c
000003f0: 857e 0d3c 0666 85bb d924 bcbb e49b 4fbc

sequential/dense/MatMul f4 [32, 64]
-0.19225943 -0.15440434 0.19767618 0.02628293 0.13201201 0.16470273 0.18916245 0.16562742
-0.042480197 0.2118924 0.22567652 -0.1484094 0.139638 -0.24834359 -0.050146174 0.025856387
-0.13769718 0.13062982 0.14694141 0.18294987 -0.19767427 0.09113546 -0.0036709565 0.012004614
0.12973364 -0.06188774 -0.16507308 0.10265982 -0.09222445 -0.08220285 -0.2485971 0.12947384
0.09115261 0.08607359 0.18904883 0.17326939 -0.10958944 0.027084528 0.06818654 -0.13950638
-0.09266118 -0.16057533 -0.20358306 -0.20662017 0.21537411 0.009242237 0.11787854 -0.00094083004
-0.074288696 -0.08868116 0.26492572 0.20812953 0.14749172 -0.23185357 -0.13542317 0.09243307
0.18056487 0.01672399 0.06529279 -0.11058659 -0.09486682 0.033450134 0.10236215 -0.22202334
-0.19702603 -0.21922342 0.14741987 -0.25488976 -0.21246983 0.019414427 -0.079356335 0.19420414
0.06901714 -0.058245238 -0.1981251 -0.07721493 -0.10797995 0.14621484 0.17628497 -0.23922268
0.1455542 -0.106086746 -0.060786504 0.22677428 -0.15943922 0.10612202 -0.016534567 0.052774966
0.20180126 0.15566546 -0.009970791 -0.0534387 -0.14048332 -0.23774609 -0.14220333 -0.13190937
0.16845682 0.11119068 0.24336769 0.20673297 -0.1026058 0.08277788 0.016983092 0.07823851
0.23787202 -0.1709258 -0.20157224 -0.07873122 -0.1642086 -0.03209144 0.19499691 -0.0005582918
-0.115361184 -0.15502065 0.17874335 0.2179241 -0.22893989 -0.17488343 -0.060842827 -0.13250746
0.24140908 0.15178663 -0.17761435 0.0020073806 -0.03330821 0.01750744 -0.11799851 0.11251468
0.2556389 0.022046026 -0.2108559 0.07088506 -0.017025283 0.059660304 0.14294969 -0.12041709
0.13776761 -0.22202803 0.039444376 -0.24518576 0.013595283 0.11761562 -0.07452925 -0.14467636
0.048653398 -0.013198414 0.21438766 0.038649917 -0.022337498 0.21605778 -0.004552753 0.2089122
0.08258587 -0.07675254 -0.24299856 -0.026847823 -0.04379873 0.0025389683 -0.23885393 -0.08661151
0.1838104 -0.07663437 -0.1865452 0.055606928 0.027314588 -0.07439555 0.03106151 -0.2240277
-0.11771547 -0.023043307 -0.08562267 0.1323893 0.20876466 0.1399883 0.21956646 -0.12212788
-0.15813872 -0.17620975 -0.050109282 -0.23704596 -0.12725188 0.19312516 -0.22197059 0.1817857
0.18535534 0.007520318 -0.109163836 0.24073026 0.053128798 0.15005007 0.10346466 0.20734599
0.21058562 -0.019276695 0.20470291 -0.1061103 0.11281658 0.0075229323 0.17922452 0.15191403
0.20168449 0.17951043 0.0026715922 -0.09752568 -0.12925315 -0.035554685 0.049390674 0.17105149
0.08027454 0.15527096 -0.0627254 0.07358388 0.048839208 0.10705237 0.1628477 -0.012895882
-0.099889144 0.17112845 0.0604358 -0.042581946 -0.100777 -0.03141118 0.14190054 0.021505117
-0.18681127 -0.13907334 0.16184156 -0.23948665 0.022062922 0.061519947 0.03854628 0.13521092
-0.027336951 -0.23632148 0.1126796 -0.12206592 -0.1484265 0.18453884 0.08528674 -0.20901144
-0.1677677 -0.04328996 -0.14001939 -0.10022353 -0.029688392 -0.07343313 0.23471461 0.13179585
-0.12648673 -0.14524639 -0.1629053 -0.055737782 0.17362376 -0.00076676294 0.23316608 -0.16220282
00000000: a8df 44be 2c1c 1ebe a06b 4a3e 4d4f d73c
00000010: 282e 073e d5a7 283e cdb3 413e 3c9a 293e
00000020: b7ff 2dbd 52fa 583e bf17 673e a2f8 17be
00000030: 44fd 0e3e c84d 7ebe 1366 4dbd c6d0 d33c
00000040: 7d00 0dbe d3c3 053e cf77 163e 3657 3b3e
00000050: 206b 4abe 3aa5 ba3d 6e94 70bb 00af 443c
00000060: e5d8 043e 007e 7dbd eb08 29be 503f d23d
00000070: 2ce0 bcbd f859 a8bd 3d90 7ebe ca94 043e
00000080: 38ae ba3d 5a47 b03d 0496 413e 886d 313e
00000090: 6e70 e0bd 5fe0 dd3c 62a5 8b3d c3da 0ebe
000000a0: 25c5 bdbd dc6d 24be 1478 50be 3d94 53be
000000b0: 088b 5c3e c06c 173c 4e6a f13d 09a2 76ba
000000c0: ac24 98bd 789e b5bd 58a4 873e e81f 553e
000000d0: 1208 173e 066b 6dbe 5fac 0abe 8d4d bd3d
000000e0: ffe5 383e c000 893c 3ab8 853d 397b e2bd
000000f0: 8949 c2bd 0203 093d 3fa3 d13d 165a 63be
00000100: 31c1 49be 1b7c 60be 3cf5 163e e980 82be
00000110: b191 59be 010b 9f3c 9385 a2bd 73dd 463e
00000120: dc58 8d3d 8f92 6ebd 4ee1 4abe dc22 9ebd
00000130: 9824 ddbd 58b9 153e 0c84 343e caf6 74be
00000140: 290c 153e 0244 d9bd 45fb 78bd 8437 683e
00000150: 0944 23be 8056 d93d 8073 87bc 902a 583d
00000160: fda4 4e3e c466 1f3e 875c 23bc 8ae2 5abd
00000170: dcda 0fbe b673 73be c09d 11be 4013 07be
00000180: f27f 2c3e f0b7 e33d 6135 793e cfb1 533e
00000190: fd22 d2bd 7387 a93d 2020 8b3c 833b a03d
000001a0: b994 733e 2c07 2fbe f468 4ebe d53d a1bd
000001b0: 4d26 28be 5072 03bd 45ad 473e 545a 12ba
000001c0: 7c42 ecbd bcbd 1ebe 7f08 373e 7f27 5f3e
000001d0: 386f 6abe a414 33be 5436 79bd 09b0 07be
000001e0: f133 773e f46d 1b3e 89e0 35be 428e 033b
000001f0: 316e 08bd c36b 8f3c 34a9 f1bd 196e e63d
00000200: 1ae3 823e de99 b43c 9cea 57be 302c 913d
00000210: 9b78 8bbc 5d5e 743d 6761 123e 3c9d f6bd
00000220: f412 0d3e 515b 63be 6d90 213d fa11 7bbe
00000230: c0be 5e3c 75e0 f03d cba2 98bd 0a26 14be
00000240: c948 473d 293e 58bc 7088 5b3e 604f 1e3d
00000250: 21fd b6bc 403e 5d3e 432f 95bb 14ed 553e
00000260: c822 a93d 7030 9dbd 9dd4 78be f7ef dbbc
00000270: 4c66 33bd d264 263b 2096 74be 6061 b1bd
00000280: cb38 3c3e 7bf2 9cbd b405 3fbe 17c4 633d
00000290: d8c2 df3c b25c 98bd b574 fe3c 8467 65be
000002a0: cf14 f1bd 51c5 bcbc f05a afbd 1091 073e
000002b0: 67c6 553e 1859 0f3e 08d6 603e 2f1e fabd
000002c0: 1eef 21be 5470 34be 643f 4dbd 2dbc 72be
000002d0: 514e 02be 9ac2 453e 424c 63be 0826 3a3e
000002e0: cacd 3d3e 006d f63b 4a91 dfbd fe81 763e
000002f0: 959d 593d baa6 193e 48e5 d33d 8252 543e
00000300: c2a3 573e 29ea 9dbc a49d 513e 5b50 d9bd
00000310: 610c e73d ee82 f63b a286 373e 5a8f 1b3e
00000320: 6186 4e3e 95d1 373e e115 2f3b 8bbb c7bd
00000330: f05a 04be caa1 11bd e04d 4a3d 1f28 2f3e
00000340: fa66 a43d 5aff 1e3e 2d76 80bd 25b3 963d
00000350: 9f0b 483d 463e db3d 8cc1 263e 4049 53bc
00000360: ae92 ccbd 4c3c 2f3e 888b 773d 686a 2ebd
00000370: 2c64 cebd 02a9 00bd 604e 113e 802b b03c
00000380: 744b 3fbe 3e69 0ebe cbb9 253e fd3b 75be
00000390: 4dbd b43c 57fc 7b3d b4e2 1d3d bb74 0a3e
000003a0: bef1 dfbc 42fe 71be 90c4 e63d b2fd f9bd
000003b0: 1efd 17be c0f7 3c3e d0aa ae3d 1807 56be
000003c0: 4ccb 2bbe d050 31bd 3e61 0fbe fe41 cdbd
000003d0: 1235 f3bc 1c64 96bd 0759 703e 7ef5 063e
000003e0: bd85 01be 78bb 14be a6d0 26be 4d4d 64bd
000003f0: 6dca 313e 9700 49ba 17c3 6e3e 7f18 26be

sequential/dense_1/MatMul f4 [2, 32]
-0.15119097 -0.24343583 0.044877704 -0.39807272 0.16984846 -0.3223349 -0.023324933 -0.24524029
0.1776505 0.3598384 -0.17854127 0.24442689 0.3609829 0.26922023 -0.11594762 -0.31576622
0.31415647 0.42303067 0.08584316 -0.14832632 0.19934778 0.17092927 -0.23327129 0.11916545
-0.18198578 -0.008261856 0.051821392 0.06631527 -0.06701869 -0.31373718 -0.18366447 0.4083667
-0.41918623 0.27554584 -0.41001475 -0.0377518 0.28328845 -0.3070528 -0.36433136 -0.16560948
-0.38149136 -0.22478467 0.25193352 -0.13602632 0.3861525 0.37931985 0.23653232 0.07061246
0.42932022 0.40189826 -0.07331677 -0.34368017 0.20209284 -0.074082896 0.2748931 0.3427267
-0.27107412 0.38658056 0.20759372 0.024124421 0.4030638 -0.023618301 -0.19585586 0.0066481945
00000000: ced1 1abe 3e47 79be afd1 373d 30d0 cbbe
00000010: c1ec 2d3e 1409 a5be ee13 bfbc 4520 7bbe
00000020: 03ea 353e bd3c b83e 86d3 36be 0b4b 7a3e
00000030: c0d2 b83e 3cd7 893e f275 edbd 1cac a1be
00000040: 1ed9 a03e 7a97 d83e 8ace af3d dbe2 17be
00000050: d321 4c3e 1508 2f3e abde 6ebe 040d f43d
00000060: 7b5a 3abe bc5c 07bc ab42 543d 4dd0 873d
00000070: 1841 89bd 29a2 a0be 8a12 3cbe 7115 d13e
00000080: 949f d6be 5814 8d3e 74ed d1be a2a1 1abd
00000090: 2f0b 913e 0636 9dbe a489 babe 8895 29be
000000a0: d652 c3be f42d 66be 6efd 803e 7c4a 0bbe
000000b0: c8b5 c53e 3636 c23e 8735 723e 449d 903d
000000c0: dccf db3e 9cc5 cd3e 1a27 96bd d9f6 afbe
000000d0: 6df1 4e3e c6b8 97bd cabe 8c3e e079 af3e
000000e0: 3aca 8abe e3ed c53e 7393 543e 94a0 c53c
000000f0: 615e ce3e 2b7b c1bc 708e 48be 19d9 d93b

sequential/lstm/lstm_cell_1/BiasAdd/ReadVariableOp/resource1 f4 [256]
0.0028190934 0.0017851485 0.0 0.007307392 0.01427444 0.0027006809 -0.004194479 -0.0020700323
0.006596425 -0.022570292 -0.0056772367 0.0020061515 0.0 0.0020111098 -0.00610198 -0.004222285
-0.0017962896 -0.0071756393 0.00024262803 -0.006500166 0.0031379228 0.008870089 -0.0024196208 0.0
0.0032439316 0.0050697583 0.00723999 0.0052462625 0.000113154965 0.0033704909 -0.009247592 -0.0049495543
-0.009435807 -0.0070187533 -0.0057652784 0.0072131697 -0.007935556 -0.002614493 -0.009378785 -0.0040352754
-0.007885194 -0.0006535199 0.0 0.0030700334 -0.0012511665 0.0 0.0016548192 0.0036360377
-0.011863034 0.0 0.0055649728 -0.0059804386 -0.0037193222 -0.006622956 -0.009298395 -0.0028806415
-0.012238634 0.0 0.00393895 0.01106393 0.009550833 -0.01560569 -0.005801803 -0.012539926
0.9992581 0.9963329 1.0 1.0054804 1.0109534 1.0027021 0.996495 0.9968673
1.0080485 0.98205763 0.9960337 1.0013874 1.0 1.0016714 0.9950261 0.9974097
0.9987026 0.9934537 1.0004663 0.9939137 1.0026015 1.0103624 1.003336 1.0
1.0040386 1.0049679 1.0071844 1.0056523 0.9996705 1.0025951 0.994828 0.9973613
0.9903229 0.9958469 0.9936692 1.0090069 0.99165606 0.9970243 0.9885476 0.9976339
0.9914903 0.9999695 1.0 1.002297 0.9924539 1.0 0.9999008 1.0038756
0.9884942 1.0 1.0086354 0.99400365 0.9943434 0.99110705 0.9929318 1.001742
0.9888307 1.0 1.0060993 1.0075108 1.0077863 0.99228054 0.99405944 0.98793787
-0.0025403434 0.0002328848 0.0 0.004181653 0.0008923545 0.0007963299 0.00033878256 -0.0006127004
-0.0033411095 -0.014630115 -0.0034002764 0.00089213345 0.0 0.0037856903 -0.005898817 -0.0006148578
0.001375891 -0.0074172174 0.005736384 -0.0064077103 0.0042332024 0.00271343 -0.007380791 0.0
0.0029992815 -0.006343303 -0.00039763318 0.0047413893 -0.0042200238 -0.004169479 -0.010522682 -0.003690624
-0.0047710272 -0.005457375 -0.0057794205 -0.004093548 -0.0057281833 -0.004131946 -0.0034075824 -0.0059915944
-0.0052426886 -0.0051073 0.0 0.0018415122 0.003074982 0.0 0.0028019017 0.0054925173
-0.0021873082 0.0 0.005123592 -0.005960694 -0.006675593 -0.00545894 -0.006175584 -0.0016668425
-0.008630409 0.0 0.005939839 0.006105622 0.006650176 0.007707853 -0.006002861 -0.0099407
-0.0017775838 0.00024330107 0.0 0.006492236 0.012376399 0.0025064934 -0.0050305706 -0.0030496055
0.007775007 -0.020449236 -0.0025515037 0.0006364073 0.0 -0.00035589578 -0.0052962997 -0.0028779677
-0.002903247 -0.005787414 0.0013627991 -0.0063364045 0.003995126 0.009769764 -0.0029793347 0.0
0.0031598045 0.0054763556 0.0050200685 0.0051716515 -0.0030370122 0.0030524824 -0.010716566 -0.0049504642
-0.00856585 -0.005739339 -0.0057840403 0.0039126347 -0.008671372 -0.0026867501 -0.008810567 -0.004330834
-0.0079071075 -0.00077158445 0.0 0.0012245654 -0.002136128 0.0 0.0031287293 0.0034935253
-0.009766661 0.0 0.0088839615 -0.005972591 -0.0018888493 -0.0068841022 -0.007250604 0.0021561186
-0.012353565 0.0 0.0054657008 0.009293937 0.008636122 -0.004071 -0.0057416973 -0.012671445
00000000: 8ac0 383b a5fb e93a 0000 0000 d972 ef3b
00000010: 57df 693c e8fd 303b d771 89bb 61a9 07bb
00000020: d326 d83b 55e5 b8bc 1d08 babb a379 033b
00000030: 0000 0000 d3cc 033b 1ef3 c7bb 185b 8abb
00000040: 7a71 ebba a021 ebbb f769 7e39 58ff d4bb
00000050: 9ca5 4d3b da53 113c 8092 1ebb 0000 0000
00000060: 2498 543b 3720 a63b 703d ed3b d7e8 ab3b
00000070: 9c4d ed38 74e3 5c3b 3683 17bc df2f a2bb
00000080: a598 1abc 92fd e5bb a9ea bcbb 745c ec3b
00000090: 2204 02bc ea57 2bbb 7aa9 19bc 583a 84bb
000000a0: e730 01bc fa50 2bba 0000 0000 9d32 493b
000000b0: 2efe a3ba 0000 0000 85e6 d83a 974a 6e3b
000000c0: 2c5d 42bc 0000 0000 605a b63b 8ef7 c3bb
000000d0: dfbf 73bb 6205 d9bb 4c58 18bc 25c9 3cbb
000000e0: 8d84 48bc 0000 0000 4f12 813b 7c45 353c
000000f0: 197b 1c3c 02af 7fbc 0d1d bebb 4374 4dbc
00000100: 61cf 7f3f ac0f 7f3f 0000 803f 95b3 803f
00000110: ec66 813f 8b58 803f 4c1a 7f3f b232 7f3f
00000120: bc07 813f 2168 7b3f 11fc 7e3f 762d 803f
00000130: 0000 803f c536 803f 08ba 7e3f 3e56 7f3f
00000140: f9aa 7f3f fb52 7e3f 480f 803f 2171 7e3f
00000150: 3f55 803f 8e53 813f 506d 803f 0000 803f
00000160: 5684 803f caa2 803f 6beb 803f 37b9 803f
00000170: 68ea 7f3f 0955 803f 0cad 7e3f 1253 7f3f
00000180: cd85 7d3f d3ef 7e3f 1b61 7e3f 2327 813f
00000190: 2cdd 7d3f fc3c 7f3f 7511 7d3f ef64 7f3f
000001a0: 4fd2 7d3f 00fe 7f3f 0000 803f 454b 803f
000001b0: 7511 7e3f 0000 803f 80f9 7f3f ff7e 803f
000001c0: f50d 7d3f 0000 803f f71a 813f 0677 7e3f
000001d0: 4a8d 7e3f 31b9 7d3f c730 7e3f 1539 803f
000001e0: 0224 7d3f 0000 803f ddc7 803f 1df6 803f
000001f0: 24ff 803f 1906 7e3f ae7a 7e3f 7fe9 7c3f
00000200: e47b 26bb 8a32 7439 0000 0000 3f06 893b
00000210: e6ec 693a ccc0 503a a09e b139 a19d 20ba
00000220: 84f6 5abb 26b3 6fbc 2cd7 5ebb 10de 693a
00000230: 0000 0000 5819 783b dd4a c1bb 692e 21ba
00000240: 3e57 b43a 210c f3bb 47f8 bb3b c5f7 d1bb
00000250: adb6 8a3b cdd3 313b 90da f1bb 0000 0000
00000260: 988f 443b 7bdb cfbb 6c79 d0b9 a85d 9b3b
00000270: 2048 8abb 20a0 88bb 5467 2cbc 65de 71bb
00000280: 4756 9cbb c8d3 b2bb 4b61 bdbb 2b23 86bb
00000290: 7cb3 bbbb 4665 87bb bf51 5fbb 2355 c4bb
000002a0: dcca abbb 235b a7bb 0000 0000 e55e f13a
000002b0: a385 493b 0000 0000 1ca0 373b 93fa b33b
000002c0: f158 0fbb 0000 0000 cee3 a73b ed51 c3bb
000002d0: efbe dabb e8e0 b2bb 8e5c cabb f479 daba
000002e0: 8f66 0dbc 0000 0000 fba2 c23b ab11 c83b
000002f0: b8e9 d93b 2892 fc3b a6b3 c4bb 51de 22bc
00000300: d1fd e8ba a21e 7f39 0000 0000 d3bc d43b
00000310: 61c6 4a3c fb43 243b 7cd7 a4bb e4db 47bb
00000320: 7cc5 fe3b 2885 a7bc 2137 27bb 92d4 263a
00000330: 0000 0000 8697 bab9 958c adbb 499c 3cbb
00000340: 6744 3ebb 59a4 bdbb f39f b23a 9da1 cfbb
00000350: 8ce9 823b 5c11 203c f140 43bb 0000 0000
00000360: b914 4f3b 0073 b33b 637f a43b f576 a93b
00000370: 9c08 47bb 280c 483b 8994 2fbc 8137 a2bb
00000380: c757 0cbc 1111 bcbb 0c88 bdbb 8f35 803b
00000390: 5f12 0ebc 3014 30bb 325a 10bc abe9 8dbb
000003a0: d08c 01bc 2844 4aba 0000 0000 9981 a03a
000003b0: 48fe 0bbb 0000 0000 5e0b 4d3b a1f3 643b
000003c0: 5804 20bc 0000 0000 098e 113c bab5 c3bb
000003d0: 4493 f7ba 0994 e1bb 7a96 edbb ab4d 0d3b
000003e0: 9b66 4abc 0000 0000 9f19 b33b 9945 183c
000003f0: 857e 0d3c 0666 85bb d924 bcbb e49b 4fbc

sequential/lstm/while/lstm_cell_1/MatMul_1 f4 [256, 64]
-0.0028606106 0.046490543 -0.018604077 0.019401036 -0.06318116 0.024984257 0.08691532 0.019947745
-0.06926436 0.040437825 -0.18552682 0.081710085 0.029689211 -0.05347834 0.06422908 0.024020538
-0.02193516 0.08528667 -0.052892335 0.13355783 0.0100518 -0.022323534 0.03446467 -0.08820435
0.014984547 -0.10151554 0.028784892 0.026198607 -0.045927104 -0.061559755 -0.030899474 0.059831195
0.066584386 0.058764804 -0.06953471 0.015674008 -0.029634122 0.03923857 0.03994366 0.055424936
-0.04220619 -0.03945582 0.037394706 0.08831609 0.015747622 0.047546253 -0.0031448556 0.085696
-0.058397982 -0.017126892 0.086650915 0.020030824 0.00023377745 -0.016530529 0.05447011 -0.020152543
-0.0015522977 -0.12937188 0.036786843 -0.07457238 0.05074595 -0.040681 0.060570776 -0.0075051775
0.0024517193 0.041428037 -0.011120167 0.059492502 -0.02156041 0.0767621 0.017422833 0.028386064
-0.09921365 -0.067393914 0.057208247 -0.07770737 -0.03854403 -0.0579019 -0.016618887 -0.09047377
0.053221144 -0.016076138 -0.0041264 0.033459675 -0.02253935 -0.07365084 -0.0687662 0.007915806
0.035847712 0.049218778 0.0949139 0.054027244 -0.046802286 -0.082223035 -0.02585952 -0.01963276
0.08412324 0.046097722 0.10902986 0.05404825 0.07958786 -0.0580885 0.08458651 -0.0828189
-0.009896537 0.036828734 -0.02425609 0.0663242 0.030759016 0.027672477 0.04980326 0.10784079
-0.06530877 -0.041070435 0.21056964 0.01590221 -0.03823807 0.14725538 0.060963783 -0.07425754
0.03998502 0.008756456 0.03256171 -0.11123902 -0.08427566 0.06981589 -0.017437473 -0.027701119
-0.014411787 -0.058195118 0.13541234 -0.030023267 -0.050799087 -0.070909545 -0.038008478 0.035332937
-0.03155607 0.0005451953 -0.059352774 0.048768282 0.0044744355 -0.026170898 0.05289441 0.002729104
-0.049465433 -0.014815557 -0.036619935 -0.046784822 0.03231517 -0.029229654 0.025508342 -0.014623015
0.08047647 -0.0069623706 -0.015048883 -0.061485853 -0.013769191 -0.009059857 -0.012816597 -0.02227131
0.070006356 0.07763022 0.03429722 -0.050334807 0.013857504 -0.009119927 -0.012177397 -0.04259015
0.041582882 -0.014801016 -0.052406833 0.018055197 -0.034695417 0.10263622 -0.07246421 0.005616781
0.025649339 -0.02335498 -0.053408045 -0.014211766 0.1027665 0.058218896 -0.027117655 0.015120672
0.014772042 0.09040953 0.015772182 0.0702145 -0.08812018 0.06490822 -0.04281814 -0.05424259
-0.0039733564 0.036722545 -0.022042418 -0.0067769364 0.039361976 -0.018646158 -0.08098578 -0.01808826
-0.024769546 -0.0094627105 -0.02568719 0.038216706 -0.026218593 -0.076036595 0.029392382 -0.008985623
0.011990131 -0.06980266 0.054102242 -0.018872822 0.01180682 -0.042086765 -0.0021873463 0.06298951
-0.023688724 0.035690524 -0.050176136 0.11937068 -0.0642665 -0.010621987 -0.021145904 0.008354029
-0.0014885343 -0.034968775 0.02128064 -0.019936046 0.04241801 -0.067931615 -0.11384525 0.031795822
0.04869204 0.029079517 -0.16405924 -0.06553237 0.093368 0.051335018 0.12247318 0.0494239
0.05699857 0.04751258 -0.09534786 -0.032516733 -0.021639531 0.02420183 0.07663562 -0.002380313
-0.07789 0.065619335 -0.08046983 0.02298588 -0.011534623 0.04786435 -0.022981413 -0.03649293
00000000: 1579 3bbb de6c 3e3d 9467 98bc ecee 9e3c
00000010: 2065 81bd c9ab cc3c a900 b23d 7469 a33c
00000020: 79da 8dbd 22a2 253d befa 3dbe 9e57 a73d
00000030: ca36 f33c 1b0c 5bbd 898a 833d b8c6 c43c
00000040: 5db1 b3bc c7aa ae3d a2a5 58bd 62c3 083e
00000050: 4eb0 243c d8df b6bc d32a 0d3d 7ba4 b4bd
00000060: bf81 753c 61e7 cfbd 4bce eb3c 769e d63c
00000070: 0f1e 3cbd 1526 7cbd e520 fdbc 8e11 753d
00000080: 655d 883d 5db3 703d 3768 8ebd c766 803c
00000090: 42c3 f2bc 9fb8 203d f79b 233d 4205 633d
000000a0: 66e0 2cbd 6d9c 21bd 312b 193d 11df b43d
000000b0: 2801 813c dcbf 423d ec19 4ebb 6281 af3d
000000c0: b932 6fbd b24d 8cbc 0976 b13d af17 a43c
000000d0: 2822 7539 086b 87bc 0d1c 5f3d f216 a5bc
000000e0: 7876 cbba 107a 04be cdad 163d 67b9 98bd
000000f0: fcda 4f3d 1fa1 26bd 1019 783d feed f5bb
00000100: 06ad 203b 72b0 293d 5c31 36bc 69ae 733d
00000110: 759f b0bc 7335 9d3d 54ba 8e3c e489 e83c
00000120: 8730 cbbd d205 8abd 3253 6a3d 0b25 9fbd
00000130: 58e0 1dbd 8b2a 6dbd 5524 88bc 504a b9bd
00000140: 6afe 593d 1bb2 83bc c136 87bb 030d 093d
00000150: 71a4 b8bc 40d6 96bd 4bd5 8cbd 4cb1 013c
00000160: 0dd5 123d a199 493d 3862 c23d ac4b 5d3d
00000170: c1b3 3fbd 8d64 a8bd 58d7 d3bc e2d4 a0bc
00000180: ce48 ac3d f7d0 3c3d 0c4b df3d b361 5d3d
00000190: f6fe a23d 35ee 6dbd b13b ad3d f59c a9bd
000001a0: 1625 22bc bad9 163d b5b4 c6bc fbd4 873d
000001b0: 55fa fb3c 64b1 e23c 81fe 4b3d a2db dc3d
000001c0: 9bc0 85bd 7939 28bd 919f 573e 5a45 823c
000001d0: 869f 1cbd 1dca 163e 29b5 793d 5614 98bd
000001e0: 55c7 233d 3d77 0f3c 6d5f 053d 49d1 e3bd
000001f0: b898 acbd a2fb 8e3d 08d9 8ebc 75ed e2bc
00000200: 6a1f 6cbc 015e 6ebd 88a9 0a3e 5bf3 f5bc
00000210: b412 50bd 0639 91bd c7ae 1bbd 45b9 103d
00000220: f040 01bd 70eb 0e3a e51b 73bd 40c1 473d
00000230: 499e 923b 5a64 d6bc cfa7 583d c4da 323b
00000240: 449c 4abd f3bc 72bc c9fe 15bd 71a1 3fbd
00000250: e95c 043d 0773 efbc dff6 d03c 5f95 6fbc
00000260: d9d0 a43d 9924 e4bb 978f 76bc 97d8 7bbd
00000270: 2c98 61bc cb6f 14bc b4fc 51bc 5372 b6bc
00000280: 7e5f 8f3d 98fc 9e3d 3e7b 0c3d df2b 4ebd
00000290: 960a 633c bf6b 15bc b483 47bc 0273 2ebd
000002a0: d052 2a3d f67f 72bc 8ca8 56bd 7ee8 933c
000002b0: c81c 0ebd f032 d23d 1e68 94bd f90c b83b
000002c0: 901e d23c f152 bfbc 65c2 5abd 78d8 68bc
000002d0: 3e77 d23d f076 6e3d d825 debc b2bc 773c
000002e0: 6f06 723c a228 b93d aa34 813c 9fcc 8f3d
000002f0: 5a78 b4bd 9aee 843d 1362 2fbd 7a2d 5ebd
00000300: ee32 82bb 616a 163d 4d92 b4bc 1011 debb
00000310: 063a 213d d4bf 98bc dfdb a5bd d52d 94bc
00000320: 81e9 cabc 7c09 1bbc f16d d2bc 1f89 1c3d
00000330: 60c8 d6bc 13b9 9bbd 4bc8 f03c 6f38 13bc
00000340: 4172 443c b2f4 8ebd 509a 5d3d 2d9b 9abc
00000350: 6471 413c 2c63 2cbd 9559 0fbb a500 813d
00000360: db0e c2bc 3a30 123d 7e85 4dbd 9d78 f43d
00000370: 289e 83bd d807 2ebc 2d3a adbc 56df 083c
00000380: ec1a c3ba 6b3b 0fbd bd54 ae3c eb50 a3bc
00000390: 82be 2d3d bb1f 8bbd b327 e9bd 563c 023d
000003a0: 4e71 473d 2b38 ee3c 25ff 27be d635 86bd
000003b0: b937 bf3d ab44 523d 38d3 fa3d b770 4a3d
000003c0: 5577 693d 8d9c 423d bd45 c3bd 4430 05bd
000003d0: 6345 b1bc eb42 c63c 23f3 9c3d 06ff 1bbb
000003e0: cb84 9fbd 6e63 863d 5ecd a4bd e24c bc3c
000003f0: b7fb 3cbc 690d 443d 8443 bcbc 9c79 15bd

sequential/lstm/while/lstm_cell_1/MatMul f4 [256, 172]
0.00487461 -0.021762548 -0.076513976 0.06284079 0.0631274 -0.009997953 0.10408236 0.04206099
-0.07870819 -0.016047785 0.00050272583 -0.08645382 -0.0022979772 0.01732356 0.07934125 -0.09430503
-0.051181722 0.012230087 0.09138703 -0.090601854 -0.10915604 0.0013925639 -0.050396595 0.0007781509
0.070545815 -0.055200458 -0.02206195 -0.07210414 -0.108970664 0.060312312 0.09817257 -0.012037896
-0.052000828 -0.025733985 0.0014087434 0.0046610925 0.07822429 0.0382388 -0.04641549 -0.05404692
0.08960833 0.053750742 0.028118124 0.03441584 -0.044272915 -0.09149093 0.053089134 0.09427369
-0.020489117 0.061957948 0.0917971 -0.094130374 0.03619347 0.02942105 0.036747597 -0.103600144
0.008894884 -0.04846655 -0.0012488909 0.016225176 -0.066027254 0.11481082 0.118124366 -0.04168106
0.01510093 -0.04150013 0.041597027 -0.08168186 0.009546432 -0.02860234 0.023565805 -0.025260875
0.09993895 0.10662135 -0.09216508 -0.008178774 -0.03894798 0.10890448 -0.098161936 -0.020090064
0.10219846 -0.06503035 -0.07729481 0.06958709 0.075546145 -0.108610466 -0.0490245 0.108315356
-0.0058273417 0.008359664 0.055112742 -0.01299489 -0.06013803 0.049530253 0.11422282 -0.058470868
-0.044086058 -0.080995165 -0.11418944 0.001328127 0.10096703 0.11511325 -0.056220166 -0.024756668
0.028616745 -0.090446785 -0.025566682 -0.057325467 -0.11036577 -0.007775971 0.04986805 -0.09263581
-0.086486615 -0.082989976 -0.033332326 0.075614475 0.052392446 -0.08548431 0.026282448 -0.079821356
-0.061276745 -0.01943866 -0.035921626 -0.014515905 0.025830684 -0.08814357 -0.031126425 0.038078666
0.07117153 0.0052197897 0.09187776 0.096984826 -0.09475752 0.11884459 -0.09963025 -0.083691716
-0.109645076 -0.047652602 -0.114157744 0.05675481 -0.014318092 -0.06504184 0.05160302 0.09350094
0.025350766 -0.019015 0.09496316 -0.0059463866 0.011631261 0.064191684 0.098552205 0.074400865
-0.086744376 -0.060339633 0.036986515 -0.03916433 0.08137426 -0.082952306 0.0044407407 -0.06386453
0.08506804 0.07249232 -0.06820266 0.094960816 -0.06822399 0.083492436 0.0022954806 -0.08614294
-0.051066414 -0.016170569 -0.04664883 -0.032994717 -0.11106225 0.09645331 0.029194057 0.053503618
0.04108525 0.017931812 -0.07593396 0.07655066 0.05092891 -0.060448673 0.09271954 -0.05166907
0.046295997 0.09003293 -0.10104799 0.046746768 0.06783556 -0.015991313 0.0031642828 0.11340766
-0.08044793 0.09959672 -0.08114589 -0.019020628 -0.010176993 -0.10378026 0.02764651 0.058220133
-0.070001714 -0.107344575 0.0813355 0.05616619 0.007145014 -0.018552117 -0.12443075 0.056295805
0.10132546 -0.011939147 -0.0058040996 0.07431722 0.085042104 -0.04730989 -0.08178371 0.056322925
0.00189281 0.064846426 -0.08107259 -0.027679738 -0.065359324 -0.026154716 -0.12917441 -0.063480474
-0.00019395005 0.009336878 -0.06025541 0.048982967 -0.06510507 0.022434784 0.0063894377 0.08545435
-0.055526644 -0.10077371 0.10108603 0.11922292 0.0672498 0.06658505 0.02878568 -0.07913793
0.07118061 -0.021429263 -0.064164996 -0.067943 0.039565213 0.11055022 0.09933247 0.0948239
0.03975796 0.06715313 -0.03631796 -0.02723208 0.021190995 0.09974034 0.0984002 0.021248132
00000000: 31bb 9f3b 5f47 b2bc 5cb3 9cbd acb2 803d
00000010: f048 813d 74ce 23bc 2229 d53d 2548 2c3d
00000020: c231 a1bd a576 83bc 5cc9 033a b30e b1bd
00000030: a999 16bb 23ea 8d3c aa7d a23d ff22 c1bd
00000040: eda3 51bd b460 483c 2029 bb3d 778d b9bd
00000050: 348d dfbd b186 b63a a96c 4ebd d3fc 4b3a
00000060: 537a 903d e019 62bd 43bb b4bc 56ab 93bd
00000070: 032c dfbd 0b0a 773d b30e c93d 983a 45bc
00000080: d2fe 54bd 14d0 d2bc 96a5 b83a 14bc 983b
00000090: 0e34 a03d 4aa0 1c3d 2b1e 3ebd 4e60 5dbd
000000a0: 9284 b73d bd29 5c3d fb57 e63c a0f7 0c3d
000000b0: 8457 35bd 995f bbbd fe73 593d 9012 c13d
000000c0: cbd8 a7bc 9ec7 7d3d 1e00 bc3d 6dc7 c0bd
000000d0: 9b3f 143d 6a04 f13c a684 163d 502c d4bd
000000e0: d9bb 113c dc84 46bd d3b1 a3ba a9ea 843c
000000f0: 4c39 87bd ef21 eb3d 30eb f13d c2b9 2abd
00000100: e469 773c 0afc 29bd a561 2a3d d248 a7bd
00000110: a368 1c3c 744f eabc 130d c13c e5ef cebc
00000120: cbac cc3d 4b5c da3d 0cc1 bcbd 4400 06bc
00000130: eb87 1fbd 5009 df3d 2009 c9bd eb93 a4bc
00000140: 6d4d d13d a22e 85bd be4c 9ebd ad83 8e3d
00000150: f0b7 9a3d 2a6f debd eacd 48bd 71d4 dd3d
00000160: 49f3 bebb f9f6 083c e6bd 613d 85e8 54bc
00000170: 4c53 76bd 3ce0 4a3d a7ed e93d 267f 6fbd
00000180: 9593 34bd cbe0 a5bd 27dc e9bd 8c14 ae3a
00000190: cdc7 ce3d 7fc0 eb3d 1e47 66bd 7fce cabc
000001a0: aa6d ea3c 2a3c b9bd 3871 d1bc 1cce 6abd
000001b0: 7307 e2bd 93cd febb 7142 4c3d d8b7 bdbd
000001c0: e51f b1bd a6f6 a9bd 7a87 08bd c3db 9a3d
000001d0: 7699 563d 6612 afbd 4a4e d73c 6179 a3bd
000001e0: 53fd 7abd d33d 9fbc 8e22 13bd 1ed4 6dbc
000001f0: df9a d33c 9e84 b4bd d8fc febc 60f8 1b3d
00000200: 61c2 913d c50a ab3b 682a bc3d fb9f c63d
00000210: 3b10 c2bd cb64 f33d f20a ccbd 9066 abbd
00000220: 998d e0bd 602f 43bd 89cb e9bd bb77 683d
00000230: 6e96 6abc a834 85bd b05d 533d 6c7d bf3d
00000240: 69ac cf3c 58c5 9bbc 0c7c c23d e8d9 c2bb
00000250: 0b91 3e3c ee76 833d bdd5 c93d 7b5f 983d
00000260: 09a7 b1bd b126 77bd 2c7f 173d c76a 20bd
00000270: 8ca7 a63d e6e2 a9bd a283 913b 68cb 82bd
00000280: 2738 ae3d da76 943d d6ad 8bbd d17a c23d
00000290: 05b9 8bbd 15fe aa3d c66f 163b b66b b0bd
000002a0: 042b 51bd 2478 84bc d812 3fbd 7825 07bd
000002b0: 9b74 e3bd 5089 c53d 6028 ef3c 9c26 5b3d
000002c0: 0249 283d bce5 923c 4483 9bbd 98c6 9c3d
000002d0: d59a 503d 0799 77bd bee3 bd3d f2a2 53bd
000002e0: dfa0 3d3d 2f63 b83d 40f2 cebd 8a79 3f3d
000002f0: 5fed 8a3d 3700 83bc db5f 4f3b 4642 e83d
00000300: e2c1 a4bd 5df9 cb3d d12f a6bd 26d1 9bbc
00000310: 67bd 26bc bf8a d4bd ef7a e23c 3c78 6e3d
00000320: 0f5d 8fbd 79d7 dbbd 3a93 a63d 850e 663d
00000330: b920 ea3b 9cfa 97bc 8dd5 febd 6e96 663d
00000340: b983 cf3d 699c 43bc 5130 bebb a033 983d
00000350: 8e2a ae3d 04c8 41bd 387e a7bd deb2 663d
00000360: 2a18 f83a 34ce 843d 6309 a6bd 9ec0 e2bc
00000370: 1cdb 85bd 6a42 d6bc 4c46 04be 0d02 82bd
00000380: 125f 4bb9 b4f9 183c 60ce 76bd 5da2 483d
00000390: cf55 85bd 27c9 b73c 7d5e d13b b102 af3d
000003a0: e86f 63bd 7262 cebd 3106 cf3d 252b f43d
000003b0: 43ba 893d be5d 883d f2cf eb3c 1113 a2bd
000003c0: 24c7 913d 6c8c afbc f068 83bd b325 8bbd
000003d0: 220f 223d 2768 e23d d26e cb3d 0833 c23d
000003e0: 3ed9 223d 9587 893d 24c2 14bd d015 dfbc
000003f0: bd98 ad3c aa44 cc3d 0b86 c93d 9010 ae3c
