models/running_model.tflite (tflite, 271036 bytes, 9 tensors)

sequential/lstm/TensorArrayV2_1 f4 [30, 1, 64]
0	0x00000000	0.0
1	0x00000000	0.0
2	0x00000000	0.0
3	0x00000000	0.0
4	0x00000000	0.0
5	0x00000000	0.0
6	0x00000000	0.0
7	0x00000000	0.0
8	0x00000000	0.0
9	0x00000000	0.0
10	0x00000000	0.0
11	0x00000000	0.0
12	0x00000000	0.0
13	0x00000000	0.0
14	0x00000000	0.0
15	0x00000000	0.0
16	0x00000000	0.0
17	0x00000000	0.0
18	0x00000000	0.0
19	0x00000000	0.0
20	0x00000000	0.0
21	0x00000000	0.0
22	0x00000000	0.0
23	0x00000000	0.0
24	0x00000000	0.0
25	0x00000000	0.0
26	0x00000000	0.0
27	0x00000000	0.0
28	0x00000000	0.0
29	0x00000000	0.0
30	0x00000000	0.0
31	0x00000000	0.0
32	0x00000000	0.0
33	0x00000000	0.0
34	0x00000000	0.0
35	0x00000000	0.0
36	0x00000000	0.0
37	0x00000000	0.0
38	0x00000000	0.0
39	0x00000000	0.0
40	0x00000000	0.0
41	0x00000000	0.0
42	0x00000000	0.0
43	0x00000000	0.0
44	0x00000000	0.0
45	0x00000000	0.0
46	0x00000000	0.0
47	0x00000000	0.0
48	0x00000000	0.0
49	0x00000000	0.0
50	0x00000000	0.0
51	0x00000000	0.0
52	0x00000000	0.0
53	0x00000000	0.0
54	0x00000000	0.0
55	0x00000000	0.0
56	0x00000000	0.0
57	0x00000000	0.0
58	0x00000000	0.0
59	0x00000000	0.0
60	0x00000000	0.0
61	0x00000000	0.0
62	0x00000000	0.0
63	0x00000000	0.0
64	0x00000000	0.0
65	0x00000000	0.0
66	0x00000000	0.0
67	0x00000000	0.0
68	0x00000000	0.0
69	0x00000000	0.0
70	0x00000000	0.0
71	0x00000000	0.0
72	0x00000000	0.0
73	0x00000000	0.0
74	0x00000000	0.0
75	0x00000000	0.0
76	0x00000000	0.0
77	0x00000000	0.0
78	0x00000000	0.0
79	0x00000000	0.0
80	0x00000000	0.0
81	0x00000000	0.0
82	0x00000000	0.0
83	0x00000000	0.0
84	0x00000000	0.0
85	0x00000000	0.0
86	0x00000000	0.0
87	0x00000000	0.0
88	0x00000000	0.0
89	0x00000000	0.0
90	0x00000000	0.0
91	0x00000000	0.0
92	0x00000000	0.0
93	0x00000000	0.0
94	0x00000000	0.0
95	0x00000000	0.0
96	0x00000000	0.0
97	0x00000000	0.0
98	0x00000000	0.0
99	0x00000000	0.0
100	0x00000000	0.0
101	0x00000000	0.0
102	0x00000000	0.0
103	0x00000000	0.0
104	0x00000000	0.0
105	0x00000000	0.0
106	0x00000000	0.0
107	0x00000000	0.0
108	0x00000000	0.0
109	0x00000000	0.0
110	0x00000000	0.0
111	0x00000000	0.0
112	0x00000000	0.0
113	0x00000000	0.0
114	0x00000000	0.0
115	0x00000000	0.0
116	0x00000000	0.0
117	0x00000000	0.0
118	0x00000000	0.0
119	0x00000000	0.0
120	0x00000000	0.0
121	0x00000000	0.0
122	0x00000000	0.0
123	0x00000000	0.0
124	0x00000000	0.0
125	0x00000000	0.0
126	0x00000000	0.0
127	0x00000000	0.0
128	0x00000000	0.0
129	0x00000000	0.0
130	0x00000000	0.0
131	0x00000000	0.0
132	0x00000000	0.0
133	0x00000000	0.0
134	0x00000000	0.0
135	0x00000000	0.0
136	0x00000000	0.0
137	0x00000000	0.0
138	0x00000000	0.0
139	0x00000000	0.0
140	0x00000000	0.0
141	0x00000000	0.0
142	0x00000000	0.0
143	0x00000000	0.0
144	0x00000000	0.0
145	0x00000000	0.0
146	0x00000000	0.0
147	0x00000000	0.0
148	0x00000000	0.0
149	0x00000000	0.0
150	0x00000000	0.0
151	0x00000000	0.0
152	0x00000000	0.0
153	0x00000000	0.0
154	0x00000000	0.0
155	0x00000000	0.0
156	0x00000000	0.0
157	0x00000000	0.0
158	0x00000000	0.0
159	0x00000000	0.0
160	0x00000000	0.0
161	0x00000000	0.0
162	0x00000000	0.0
163	0x00000000	0.0
164	0x00000000	0.0
165	0x00000000	0.0
166	0x00000000	0.0
167	0x00000000	0.0
168	0x00000000	0.0
169	0x00000000	0.0
170	0x00000000	0.0
171	0x00000000	0.0
172	0x00000000	0.0
173	0x00000000	0.0
174	0x00000000	0.0
175	0x00000000	0.0
176	0x00000000	0.0
177	0x00000000	0.0
178	0x00000000	0.0
179	0x00000000	0.0
180	0x00000000	0.0
181	0x00000000	0.0
182	0x00000000	0.0
183	0x00000000	0.0
184	0x00000000	0.0
185	0x00000000	0.0
186	0x00000000	0.0
187	0x00000000	0.0
188	0x00000000	0.0
189	0x00000000	0.0
190	0x00000000	0.0
191	0x00000000	0.0
192	0x00000000	0.0
193	0x00000000	0.0
194	0x00000000	0.0
195	0x00000000	0.0
196	0x00000000	0.0
197	0x00000000	0.0
198	0x00000000	0.0
199	0x00000000	0.0
200	0x00000000	0.0
201	0x00000000	0.0
202	0x00000000	0.0
203	0x00000000	0.0
204	0x00000000	0.0
205	0x00000000	0.0
206	0x00000000	0.0
207	0x00000000	0.0
208	0x00000000	0.0
209	0x00000000	0.0
210	0x00000000	0.0
211	0x00000000	0.0
212	0x00000000	0.0
213	0x00000000	0.0
214	0x00000000	0.0
215	0x00000000	0.0
216	0x00000000	0.0
217	0x00000000	0.0
218	0x00000000	0.0
219	0x00000000	0.0
220	0x00000000	0.0
221	0x00000000	0.0
222	0x00000000	0.0
223	0x00000000	0.0
224	0x00000000	0.0
225	0x00000000	0.0
226	0x00000000	0.0
227	0x00000000	0.0
228	0x00000000	0.0
229	0x00000000	0.0
230	0x00000000	0.0
231	0x00000000	0.0
232	0x00000000	0.0
233	0x00000000	0.0
234	0x00000000	0.0
235	0x00000000	0.0
236	0x00000000	0.0
237	0x00000000	0.0
238	0x00000000	0.0
239	0x00000000	0.0
240	0x00000000	0.0
241	0x00000000	0.0
242	0x00000000	0.0
243	0x00000000	0.0
244	0x00000000	0.0
245	0x00000000	0.0
246	0x00000000	0.0
247	0x00000000	0.0
248	0x00000000	0.0
249	0x00000000	0.0
250	0x00000000	0.0
251	0x00000000	0.0
252	0x00000000	0.0
253	0x00000000	0.0
254	0x00000000	0.0
255	0x00000000	0.0

sequential/dense/BiasAdd/ReadVariableOp/resource f4 [32]
0	0xbb7557c6	-0.003743635
1	0xb9da073f	-0.000415856
2	0xbc029cac	-0.007971924
3	0x3b872472	0.0041242177
4	0x3b392d9b	0.0028255943
5	0x3c7e7222	0.015530141
6	0xbb3016d0	-0.0026869066
7	0xbb083883	-0.0020785637
8	0x00000000	0.0
9	0xbd1a1a7f	-0.037622925
10	0x3cc95f17	0.024581475
11	0xbbba2cf4	-0.0056816284
12	0xbaf7342b	-0.0018860152
13	0x3afde2e1	0.0019369983
14	0x3d560542	0.052251108
15	0x3bb18ee7	0.0054186466
16	0xb9759613	-0.00023420928
17	0x3ad915dd	0.0016562302
18	0x3b9ea5b1	0.0048415293
19	0xbb42c8ec	-0.002972181
20	0x3c81d0eb	0.01584669
21	0x00000000	0.0
22	0x3be1d21c	0.006891502
23	0xbafd08d0	-0.0019304994
24	0xbb8a5cb6	-0.004222478
25	0xbb5e0c49	-0.0033881834
26	0x3c3b0677	0.011415116
27	0xbb0bddb0	-0.0021341853
28	0x00000000	0.0
29	0x3c29d559	0.010365807
30	0xbb0b22b2	-0.0021230397
31	0x3c0ac538	0.008469872

sequential/dense_1/BiasAdd/ReadVariableOp/resource f4 [2]
0	0xbaf06049	-0.0018339242
1	0x3af06058	0.001833926

sequential/lstm/lstm_cell_2/BiasAdd/ReadVariableOp/resource f4 [256]
0	0x3b81c11a	0.003959787
1	0xbbb48b66	-0.0055097817
2	0xbbadf222	-0.0053084055
3	0xbbbdb017	-0.005788814
4	0xba186ceb	-0.000581457
5	0xbb35b3ca	-0.002772557
6	0xbbd23226	-0.0064146696
7	0xbc4f9bc2	-0.012671413
8	0x00000000	0.0
9	0x3bb02acd	0.005376196
10	0xbbdf5a66	-0.0068161963
11	0xbbc11d53	-0.0058933883
12	0xbc12b3da	-0.008954013
13	0x3c4fe15e	0.012688009
14	0xbb9eb4d3	-0.0048433333
15	0xbb938274	-0.004501635
16	0xbb313529	-0.0027039743
17	0x00000000	0.0
18	0x00000000	0.0
19	0xbbc07862	-0.0058737257
20	0x33b2716a	8.309401e-08
21	0x3a8aaeab	0.001058062
22	0x3b4c088f	0.003113303
23	0x3a6c10f8	0.0009005214
24	0xbc2428a0	-0.010019451
25	0xbc0a8075	-0.008453478
26	0x00000000	0.0
27	0xbc105e94	-0.008811612
28	0xb723b78f	-9.758295e-06
29	0x3c18a830	0.009317443
30	0xbb508d47	-0.003182249
31	0xbbce6c24	-0.0062995125
32	0xbbe75a85	-0.0070603513
33	0x00000000	0.0
34	0xbb7ed172	-0.0038882163
35	0x00000000	0.0
36	0x3ba49f25	0.0050238543
37	0xba9ac623	-0.0011808317
38	0xbb10e714	-0.002211039
39	0x3b781078	0.0037851613
40	0x3c5beb78	0.013422839
41	0xbbaee87a	-0.005337772
42	0x3c37cf63	0.011218878
43	0x3be33b9b	0.0069345958
44	0xbc58328f	-0.013195648
45	0xbb9d2d8c	-0.0047966894
46	0xbc02c9fc	-0.007982727
47	0xbbf4960e	-0.007464177
48	0xb9d5c2bb	-0.0004077161
49	0x3bb1dd25	0.005427974
50	0xba872e43	-0.001031347
51	0xbbbc329a	-0.005743337
52	0x3b2e3cff	0.002658665
53	0x3b8c8073	0.0042877733
54	0x3c523a93	0.012831348
55	0x3bd4f92a	0.0064994292
56	0xb435c6e9	-1.6929302e-07
57	0x00000000	0.0
58	0xbc2ec33a	-0.010666663
59	0x3c7780cf	0.015106394
60	0xba91028b	-0.001106338
61	0xbbdac4b4	-0.006676281
62	0x00000000	0.0
63	0xbbe29fc2	-0.0069160173
64	0x3f80d7b6	1.006583
65	0x3f7e7c61	0.9940854
66	0x3f7ea9ef	0.9947805
67	0x3f7e450d	0.99324113
68	0x3f7e9bbd	0.9945639
69	0x3f80313f	1.0015029
70	0x3f7e7b67	0.9940705
71	0x3f7d3a5b	0.9891717
72	0x3f800000	1.0
73	0x3f806647	1.0031213
74	0x3f7e5409	0.9934698
75	0x3f7e624c	0.9936874
76	0x3f7e2b43	0.9928476
77	0x3f81804c	1.0117278
78	0x3f7ef076	0.99585664
79	0x3f7dbe2d	0.9911831
80	0x3f7feb31	0.9996825
81	0x3f800000	1.0
82	0x3f800000	1.0
83	0x3f7e7de7	0.9941086
84	0x3f800000	1.0
85	0x3f8036ae	1.0016687
86	0x3f80373e	1.0016859
87	0x3f802184	1.0010228
88	0x3f7d6aca	0.9899107
89	0x3f7d7964	0.9901335
90	0x3f800000	1.0
91	0x3f7d146b	0.9885928
92	0x3f800000	1.0
93	0x3f812b54	1.0091348
94	0x3f7ff3ac	0.9998119
95	0x3f7e0cea	0.99238455
96	0x3f7e769e	0.99399745
97	0x3f800000	1.0
98	0x3f7f103b	0.9963414
99	0x3f800000	1.0
100	0x3f80b6cb	1.0055784
101	0x3f7f5fd3	0.9975559
102	0x3f7f7d98	0.99801016
103	0x3f80c946	1.0061424
104	0x3f81a586	1.0128639
105	0x3f7e7e91	0.99411875
106	0x3f83a738	1.0285406
107	0x3f807f7c	1.0038905
108	0x3f7d8ddb	0.9904458
109	0x3f7f8d2c	0.99824786
110	0x3f7e72d2	0.9939395
111	0x3f7df4fe	0.99201953
112	0x3f8002ff	1.0000914
113	0x3f80d7c5	1.0065848
114	0x3f7ff2e9	0.99980026
115	0x3f7e89f9	0.9942928
116	0x3f809b1f	1.0047339
117	0x3f80608d	1.0029465
118	0x3f819a96	1.0125301
119	0x3f812c4b	1.0091642
120	0x3f800000	1.0
121	0x3f800000	1.0
122	0x3f7e0d4c	0.9923904
123	0x3f819991	1.012499
124	0x3f7fe857	0.999639
125	0x3f7e2373	0.9927284
126	0x3f800000	1.0
127	0x3f7e7929	0.99403626
128	0x3b231591	0.002488468
129	0xbbc970df	-0.0061474885
130	0xbbb60bd4	-0.0055556092
131	0xbb6f6cee	-0.0036533433
132	0xbbeba92e	-0.0071917986
133	0xbad8caa5	-0.0016539885
134	0xbbc7bf43	-0.006095798
135	0xbc4dcc49	-0.012560912
136	0x00000000	0.0
137	0xb92592d5	-0.00015790325
138	0xba668a17	-0.00087943807
139	0xbb86acc4	-0.0041099507
140	0xbc053843	-0.00813109
141	0xbb9f913a	-0.0048696073
142	0xbb4cea7a	-0.0031267689
143	0xbb97b14a	-0.004629289
144	0xbbcaa0fc	-0.0061837416
145	0x00000000	0.0
146	0x00000000	0.0
147	0xbbc0430f	-0.005867369
148	0xb68fdb7d	-4.287284e-06
149	0x3ad8a995	0.0016530032
150	0x3a3de9a4	0.0007244593
151	0x3c179d99	0.009253883
152	0xbb924bb2	-0.00446459
153	0xba88935e	-0.0010419895
154	0x00000000	0.0
155	0xbbdcf401	-0.0067429547
156	0xbb3fefa5	-0.0029287126
157	0xbbc02d09	-0.0058647436
158	0x3b166bfe	0.0022952552
159	0xbba9a6b4	-0.0051773433
160	0x3ac41240	0.0014959052
161	0x00000000	0.0
162	0xbb684a4c	-0.0035444675
163	0x00000000	0.0
164	0x3b48f2bf	0.0030662266
165	0xbad4759b	-0.0016209366
166	0xbaa42abf	-0.0012524946
167	0x3b080e0f	0.0020760333
168	0x3bb6e1ca	0.0055811154
169	0xbbc342dc	-0.005958898
170	0x3c0ff1a3	0.008785638
171	0xb8de124c	-0.00010589193
172	0xbbbb3b88	-0.005713884
173	0xbac81006	-0.0015263564
174	0xbbe5c361	-0.0070118164
175	0xbc10922e	-0.008823914
176	0xbbf0eb86	-0.0073522953
177	0x3ba33bdd	0.0049815015
178	0xbc4ac5e8	-0.012376286
179	0xbbdc9dee	-0.006732694
180	0x3b38effe	0.0028219218
181	0x3a2a7294	0.0006502059
182	0xbb756915	-0.0037446667
183	0x3ab3f708	0.0013730237
184	0xb5aa85ee	-1.2704966e-06
185	0x00000000	0.0
186	0xbc76f581	-0.015073181
187	0x3b89bb29	0.0042032194
188	0xba6bb27e	-0.0008991136
189	0xbc1084d6	-0.008820733
190	0x00000000	0.0
191	0xbb01f7dd	-0.0019831576
192	0x3b61a1ea	0.0034428784
193	0xbbb16b37	-0.0054143923
194	0xbbaab096	-0.005209039
195	0xb9952e88	-0.00028454163
196	0x3b3e7f3f	0.0029067544
197	0x3977e2b1	0.00023640205
198	0xbbd02257	-0.00635175
199	0xbc5561fb	-0.013023849
200	0x00000000	0.0
201	0x3affccf0	0.0019516032
202	0xbbe6418a	-0.007026856
203	0xbbbfe089	-0.005855624
204	0xbc124bad	-0.008929175
205	0x3c88288b	0.016620895
206	0xbb77d984	-0.0037818858
207	0xbc048ac0	-0.008089721
208	0xba8ee682	-0.0010902437
209	0x00000000	0.0
210	0x00000000	0.0
211	0xbbc1242f	-0.005894206
212	0x32bdd643	2.209993e-08
213	0xba06ae6b	-0.00051376846
214	0x3b2a1de2	0.0025957753
215	0x3ab2023d	0.0013580989
216	0xbc233b1e	-0.009962825
217	0xbbd45bc9	-0.006480668
218	0x00000000	0.0
219	0xbc138087	-0.009002811
220	0xb8a8dde2	-8.052193e-05
221	0x3c20fc58	0.009825788
222	0x3a943f44	0.0011310359
223	0xbbf5147a	-0.0074792476
224	0xbb9cba0f	-0.004782922
225	0x00000000	0.0
226	0xbabcb765	-0.0014397918
227	0x00000000	0.0
228	0x3b2b28fe	0.0026116963
229	0x39965079	0.00028670186
230	0xbaaee2e9	-0.0013342771
231	0x3b4797fd	0.0030455582
232	0x3c5b8497	0.013398311
233	0xbbac08a6	-0.0052500544
234	0x3c9f6c1c	0.01946073
235	0x3bf544b5	0.007484997
236	0xbc349bcf	-0.011023476
237	0xbbedf84f	-0.0072622667
238	0xbc033ea5	-0.008010541
239	0xbbfcf592	-0.007719704
240	0x3ad315ad	0.0016104482
241	0x3bfb64ce	0.007671929
242	0xbaac4906	-0.0013144321
243	0xbbb42b92	-0.005498358
244	0x3a848174	0.0010109381
245	0x37a4ccf2	1.9645759e-05
246	0x3c0e6ef1	0.008693443
247	0x3b88c330	0.004173659
248	0xb429e470	-1.5822457e-07
249	0x00000000	0.0
250	0xbc4bcba0	-0.012438685
251	0x3c63d816	0.013906499
252	0xba964335	-0.0011464121
253	0xbbeee322	-0.00729026
254	0x00000000	0.0
255	0xbb87c966	-0.0041438816

sequential/dense/MatMul f4 [32, 64]
0	0xbbabe7cb	-0.0052461377
1	0xbd9a59e3	-0.07536676
2	0x3cdd2ad8	0.026997969
3	0x3e38a53e	0.18031785
4	0x3e648b53	0.22318773
5	0x3d9b5436	0.07584421
6	0x3d3aaccc	0.04557495
7	0xbcd30b83	-0.025762325
8	0xbe33b9fc	-0.17551416
9	0xbdff7c72	-0.12474908
10	0xbc0263ee	-0.007958395
11	0xbe67e080	-0.22644234
12	0x3e560d1d	0.2090344
13	0xbdedab7d	-0.116049744
14	0xbe4d80b0	-0.20068622
15	0xbc75ad18	-0.014994882
16	0xbe4115ac	-0.18855923
17	0xbe0ade54	-0.13561374
18	0xbdefa5a8	-0.11701518
19	0x3e5e63c8	0.21717751
20	0x3d0af518	0.033925146
21	0x3e5bceef	0.21465658
22	0xbdf319b6	-0.11870138
23	0x3e89dc16	0.26925725
24	0xbe1a1e51	-0.15050627
25	0x3e0c8077	0.1372088
26	0xbe4e3d30	-0.20140529
27	0xbdf1cf05	-0.11807064
28	0x3c401240	0.011723101
29	0xbe0f723f	-0.14008425
30	0xbe75b327	-0.23994122
31	0xbe679f13	-0.22619276
32	0x3c892859	0.016742872
33	0x3bc8ed00	0.006131768
34	0xbd653457	-0.05595812
35	0x3e77e264	0.24207455
36	0x3ca87b3f	0.02056658
37	0xbd8c0faa	-0.06838925
38	0xbc3a7671	-0.011380778
39	0x3e6be95e	0.23038241
40	0xbe829ef4	-0.25511897
41	0x3d90f7c0	0.070785046
42	0x3e513f11	0.20434214
43	0xbe47089d	-0.1943688
44	0xbe47b556	-0.19502768
45	0x3e434c7f	0.1907215
46	0xbe788a90	-0.24271607
47	0xbd9db57b	-0.0770063
48	0xbe726144	-0.23669916
49	0xbe5ea13a	-0.2174119
50	0x3d5d6574	0.05405183
51	0x3e30b84c	0.17257804
52	0x3d7cca5c	0.061716422
53	0x3e14acce	0.14519045
54	0x3a0ccdb8	0.00053712307
55	0x3dbcc9ce	0.09218179
56	0x3e5f26e6	0.21792182
57	0xbd9f7be0	-0.07787299
58	0x3cf9cb7d	0.030492539
59	0xbd89fef3	-0.06738081
60	0x3bd4b3bf	0.006491154
61	0xbdf8050d	-0.12110338
62	0x3e3d9418	0.18513525
63	0x3e714a35	0.23563464
64	0xbe0cbdff	-0.13744353
65	0xbe788fec	-0.24273652
66	0x3e55d9a0	0.20883799
67	0x3d57d7ca	0.052696027
68	0xbe418ee7	-0.18902169
69	0x3d4246a9	0.047430668
70	0xbd620930	-0.055184543
71	0x3e16a338	0.147107
72	0xbdea83e8	-0.1145094
73	0x3dd39792	0.10331644
74	0x3ddcb87d	0.10777376
75	0xbe2f1cf0	-0.17100883
76	0xbe3478cc	-0.17624205
77	0x3e6e7df8	0.23290241
78	0xbc38c7b3	-0.011278081
79	0xbe320295	-0.17383797
80	0x3d456bc0	0.04819846
81	0x3e50db40	0.20396137
82	0xbcfdc2c0	-0.030976653
83	0x3dcf1950	0.1011225
84	0x3e7ec084	0.24878126
85	0x3df94ba3	0.1217263
86	0x3dbfcc9e	0.093651995
87	0xbe7a93aa	-0.24470392
88	0xbddd29c6	-0.10798983
89	0xbe63b48d	-0.22236843
90	0xbe1a9e18	-0.1509937
91	0xbe2c3719	-0.16817893
92	0x3dc69659	0.09696645
93	0x3e2b034c	0.16700476
94	0xbe157f3c	-0.14599317
95	0x3df5cca3	0.12001922
96	0xbe007199	-0.12543334
97	0xbde28ef0	-0.110624194
98	0x3e67c204	0.22632605
99	0x3d812988	0.063067496
100	0xbb59cf55	-0.0033235152
101	0x3e785ec5	0.24254902
102	0xbe683922	-0.22678044
103	0xbe77e1ba	-0.24207202
104	0x3dcb4f15	0.09927193
105	0xbe3ef36c	-0.18647546
106	0xbdf94e42	-0.121731296
107	0xbe0ec21b	-0.13941233
108	0xbe4cec80	-0.20012093
109	0xbcb46209	-0.022019403
110	0xbe5fe6f6	-0.21865448
111	0x3e7139b0	0.23557162
112	0x3e2c7755	0.16842397
113	0x3c9e9805	0.019359598
114	0x3e06c398	0.1316055
115	0xbda9b598	-0.082865894
116	0xbe11c5ee	-0.1423566
117	0x3dc75f81	0.09735013
118	0xbe00a2b2	-0.12562063
119	0xbe80889b	-0.25104222
120	0x3d556830	0.052101314
121	0xbdf9dcc8	-0.12200314
122	0x3e86b960	0.26313305
123	0x3db56f7f	0.08859157
124	0x3e075f64	0.13219982
125	0x3c809e95	0.015700618
126	0x3e7b3f20	0.24535799
127	0xbe3aec0c	-0.18254107
128	0x3d65a7a7	0.05606809
129	0xbe0281a7	-0.12744771
130	0xbd509967	-0.050927546
131	0x3c58b6b7	0.013227156
132	0xbdaf8ce2	-0.08571793
133	0xbe08c166	-0.13355026
134	0xbe4be1b7	-0.19910322
135	0x3c9b587a	0.018963087
136	0xba9b5e00	-0.0011853576
137	0xbbc32a58	-0.0059559755
138	0xbe641098	-0.22271955
139	0xbdd8f256	-0.10593097
140	0xbe3893db	-0.18025152
141	0x3d5b3ecd	0.05352669
142	0x3d8bd498	0.068276584
143	0x3df0f2c7	0.11765056
144	0xbe75aa08	-0.23990643
145	0x3e441618	0.19149053
146	0x3e4ef460	0.20210409
147	0x3e4d992e	0.20077965
148	0x3e54df14	0.20788223
149	0xbe403e48	-0.18773758
150	0x3dc917a5	0.09818963
151	0x3d734cf5	0.059399564
152	0xbdd5f6e0	-0.10447478
153	0x3d82cac3	0.0638633
154	0xbddbea30	-0.10738027
155	0x3e2cb32d	0.16865225
156	0x3e3fc0dc	0.18725914
157	0x3d4a0ce5	0.049328703
158	0xbe43169a	-0.1905159
159	0xbba6fb1c	-0.0050958525
160	0xbcde48ff	-0.027134417
161	0xbe5e0ec8	-0.21685326
162	0xbe05d3c6	-0.13069066
163	0x3d154f00	0.036452293
164	0xbe7fbd59	-0.24974574
165	0xbdaf9758	-0.085737884
166	0xbe24aca3	-0.1608148
167	0xbe1811b2	-0.148505
168	0xbd551a0d	-0.052026797
169	0x3e494b04	0.19657522
170	0xbe686187	-0.22693454
171	0xbc8efe70	-0.01745531
172	0xbe1bc360	-0.15211248
173	0xbce18893	-0.027530944
174	0x3e094162	0.13403848
175	0x3e40d9f9	0.1883315
176	0xbe0a7cfd	-0.13524242
177	0x3e5bdd89	0.21471228
178	0xbcac8740	-0.021060586
179	0x3dfbf12e	0.12301861
180	0xbe6e35a7	-0.23262654
181	0x3d03a3ba	0.032138564
182	0x3e2dcf9b	0.16973726
183	0xbca8fb26	-0.02062757
184	0x3d31c860	0.043403983
185	0x3e5c487c	0.21512026
186	0xbc57c428	-0.013169326
187	0x3e4c3fe1	0.19946243
188	0x3c93d08a	0.018043775
189	0x3df79df9	0.12090678
190	0xbe16e2e8	-0.14734995
191	0xbe24d0e7	-0.16095315
192	0xbe6c8d66	-0.23100814
193	0x3db54936	0.088518545
194	0x3daab6b4	0.08335629
195	0x3c2c8543	0.010529819
196	0x3e3b6d20	0.18303347
197	0x3e5b5696	0.21419749
198	0x3d00866e	0.031378202
199	0xbe19e057	-0.15026985
200	0x3df6b580	0.12046337
201	0xbd13dedf	-0.03610122
202	0x3e4ce06a	0.20007482
203	0x3da0ed61	0.078577764
204	0xbd7b0b16	-0.06128987
205	0x3de9aed7	0.11410301
206	0xbe03a8ab	-0.1285731
207	0xbe354ed7	-0.17705856
208	0x3df90271	0.12158669
209	0xbdb06540	-0.08613062
210	0x3e1b7de4	0.15184742
211	0x3da4c271	0.08044899
212	0x3dc52500	0.09626198
213	0xbd075434	-0.033039287
214	0xbd397042	-0.045273073
215	0xbe100a6a	-0.14066473
216	0xbd975e86	-0.07391076
217	0x3e7525c2	0.23940185
218	0xbdae2dd8	-0.08504838
219	0x3e4ecd0c	0.20195407
220	0xbe452ec9	-0.19256128
221	0xbcbeda99	-0.023297595
222	0xbe770ee9	-0.24126782
223	0xbe7a7bc4	-0.24461275
224	0x3dc7dd83	0.09759047
225	0xbe76a5e8	-0.24086726
226	0x3e5badd4	0.21453029
227	0x3e55c108	0.20874417
228	0x3d883545	0.06650785
229	0x3e195ff0	0.14978004
230	0x3e81c117	0.25342628
231	0xbe6aa05b	-0.22912733
232	0x3da693ae	0.081336364
233	0x3d296ac2	0.041361578
234	0x3e3b6048	0.18298447
235	0x3dbc5df1	0.091976054
236	0x3d05f4f4	0.03270431
237	0x3e227e80	0.15868568
238	0x3b3ec9cf	0.0029111987
239	0xbe40782a	-0.18795839
240	0xbd6ea730	-0.05826491
241	0x3e6a4711	0.22878672
242	0x3dd4ff42	0.10400249
243	0xbe4bb4ff	-0.19893263
244	0x3e3020cc	0.17200011
245	0x3e1e0464	0.15431362
246	0xbe4b6f7d	-0.19866748
247	0xbdcd6dce	-0.10030709
248	0x3ce71c73	0.028211808
249	0x3dbae638	0.09125942
250	0x3d96264b	0.073315226
251	0x3e846b37	0.25863048
252	0xbd517e7c	-0.051146016
253	0x3e292e13	0.16521482
254	0xbe4bb91c	-0.19894832
255	0xbe593387	-0.21211062

sequential/dense_1/MatMul f4 [2, 32]
0	0x3e5a3ef0	0.21313071
1	0xbd262c11	-0.04056937
2	0x3ecadd6c	0.39622056
3	0xbe5168f3	-0.20450191
4	0x3e0cb361	0.13740303
5	0xbe8cd4de	-0.27506155
6	0x3e9ef625	0.31047168
7	0x3eb8ce0a	0.36094695
8	0x3ec4120f	0.38295028
9	0x3d51dc99	0.05123577
10	0xbeb3fc5b	-0.3515347
11	0xbe3c7d76	-0.18407235
12	0x3eb19cdf	0.34689996
13	0xbea298b9	-0.31757143
14	0x3e8f0143	0.2793065
15	0xbe885b63	-0.26632223
16	0xbe19ffb4	-0.15038949
17	0xbe12ee4f	-0.1434872
18	0xbeb808ae	-0.35944122
19	0xbdc0103b	-0.09378096
20	0xbece51e0	-0.4029684
21	0x3e7b644a	0.24549976
22	0xbe834ca4	-0.2564441
23	0x3e802f0e	0.250359
24	0xbe8c0ac7	-0.27351972
25	0xbeb7ad50	-0.35874414
26	0xbe297b3b	-0.16550915
27	0xbdb65b4f	-0.089041345
28	0xbe71b299	-0.23603286
29	0x3e94bcfa	0.29050428
30	0xbe1c217b	-0.15247147
31	0x3ebdfa2a	0.37104923
32	0xbedb33a2	-0.4281283
33	0x3dd8ca77	0.10585492
34	0x3ea21732	0.31658322
35	0x3e60dfcd	0.21960373
36	0x3ea8bac1	0.32954982
37	0xbe4a5ead	-0.19762678
38	0x3e6517bf	0.2237234
39	0x3ebd76d8	0.37004733
40	0x3d3be1f0	0.045869768
41	0x3e789ea9	0.24279274
42	0xbe842458	-0.25808978
43	0x3e8edbb8	0.27902007
44	0xbe923916	-0.28559178
45	0x3ed14dbb	0.40879616
46	0xbe874317	-0.26418373
47	0x3ead05f4	0.33793604
48	0x3dbb9c7c	0.091607064
49	0x3d105e1e	0.035246007
50	0xbed83b1f	-0.42232606
51	0xbdf2738c	-0.11838445
52	0xbe0fddde	-0.1404948
53	0x3d2ff150	0.042954743
54	0x3e993ca6	0.29929084
55	0xbd972eea	-0.07381995
56	0xbdfdf235	-0.12399713
57	0xbece2a71	-0.40266755
58	0x3d136db0	0.035993278
59	0xbe2958f0	-0.16537833
60	0xbe768639	-0.2407464
61	0x3d9fe419	0.07807178
62	0xbe8c0f09	-0.2735522
63	0xbec02e7f	-0.37535474

sequential/lstm/lstm_cell_2/BiasAdd/ReadVariableOp/resource1 f4 [256]
0	0x3b81c11a	0.003959787
1	0xbbb48b66	-0.0055097817
2	0xbbadf222	-0.0053084055
3	0xbbbdb017	-0.005788814
4	0xba186ceb	-0.000581457
5	0xbb35b3ca	-0.002772557
6	0xbbd23226	-0.0064146696
7	0xbc4f9bc2	-0.012671413
8	0x00000000	0.0
9	0x3bb02acd	0.005376196
10	0xbbdf5a66	-0.0068161963
11	0xbbc11d53	-0.0058933883
12	0xbc12b3da	-0.008954013
13	0x3c4fe15e	0.012688009
14	0xbb9eb4d3	-0.0048433333
15	0xbb938274	-0.004501635
16	0xbb313529	-0.0027039743
17	0x00000000	0.0
18	0x00000000	0.0
19	0xbbc07862	-0.0058737257
20	0x33b2716a	8.309401e-08
21	0x3a8aaeab	0.001058062
22	0x3b4c088f	0.003113303
23	0x3a6c10f8	0.0009005214
24	0xbc2428a0	-0.010019451
25	0xbc0a8075	-0.008453478
26	0x00000000	0.0
27	0xbc105e94	-0.008811612
28	0xb723b78f	-9.758295e-06
29	0x3c18a830	0.009317443
30	0xbb508d47	-0.003182249
31	0xbbce6c24	-0.0062995125
32	0xbbe75a85	-0.0070603513
33	0x00000000	0.0
34	0xbb7ed172	-0.0038882163
35	0x00000000	0.0
36	0x3ba49f25	0.0050238543
37	0xba9ac623	-0.0011808317
38	0xbb10e714	-0.002211039
39	0x3b781078	0.0037851613
40	0x3c5beb78	0.013422839
41	0xbbaee87a	-0.005337772
42	0x3c37cf63	0.011218878
43	0x3be33b9b	0.0069345958
44	0xbc58328f	-0.013195648
45	0xbb9d2d8c	-0.0047966894
46	0xbc02c9fc	-0.007982727
47	0xbbf4960e	-0.007464177
48	0xb9d5c2bb	-0.0004077161
49	0x3bb1dd25	0.005427974
50	0xba872e43	-0.001031347
51	0xbbbc329a	-0.005743337
52	0x3b2e3cff	0.002658665
53	0x3b8c8073	0.0042877733
54	0x3c523a93	0.012831348
55	0x3bd4f92a	0.0064994292
56	0xb435c6e9	-1.6929302e-07
57	0x00000000	0.0
58	0xbc2ec33a	-0.010666663
59	0x3c7780cf	0.015106394
60	0xba91028b	-0.001106338
61	0xbbdac4b4	-0.006676281
62	0x00000000	0.0
63	0xbbe29fc2	-0.0069160173
64	0x3f80d7b6	1.006583
65	0x3f7e7c61	0.9940854
66	0x3f7ea9ef	0.9947805
67	0x3f7e450d	0.99324113
68	0x3f7e9bbd	0.9945639
69	0x3f80313f	1.0015029
70	0x3f7e7b67	0.9940705
71	0x3f7d3a5b	0.9891717
72	0x3f800000	1.0
73	0x3f806647	1.0031213
74	0x3f7e5409	0.9934698
75	0x3f7e624c	0.9936874
76	0x3f7e2b43	0.9928476
77	0x3f81804c	1.0117278
78	0x3f7ef076	0.99585664
79	0x3f7dbe2d	0.9911831
80	0x3f7feb31	0.9996825
81	0x3f800000	1.0
82	0x3f800000	1.0
83	0x3f7e7de7	0.9941086
84	0x3f800000	1.0
85	0x3f8036ae	1.0016687
86	0x3f80373e	1.0016859
87	0x3f802184	1.0010228
88	0x3f7d6aca	0.9899107
89	0x3f7d7964	0.9901335
90	0x3f800000	1.0
91	0x3f7d146b	0.9885928
92	0x3f800000	1.0
93	0x3f812b54	1.0091348
94	0x3f7ff3ac	0.9998119
95	0x3f7e0cea	0.99238455
96	0x3f7e769e	0.99399745
97	0x3f800000	1.0
98	0x3f7f103b	0.9963414
99	0x3f800000	1.0
100	0x3f80b6cb	1.0055784
101	0x3f7f5fd3	0.9975559
102	0x3f7f7d98	0.99801016
103	0x3f80c946	1.0061424
104	0x3f81a586	1.0128639
105	0x3f7e7e91	0.99411875
106	0x3f83a738	1.0285406
107	0x3f807f7c	1.0038905
108	0x3f7d8ddb	0.9904458
109	0x3f7f8d2c	0.99824786
110	0x3f7e72d2	0.9939395
111	0x3f7df4fe	0.99201953
112	0x3f8002ff	1.0000914
113	0x3f80d7c5	1.0065848
114	0x3f7ff2e9	0.99980026
115	0x3f7e89f9	0.9942928
116	0x3f809b1f	1.0047339
117	0x3f80608d	1.0029465
118	0x3f819a96	1.0125301
119	0x3f812c4b	1.0091642
120	0x3f800000	1.0
121	0x3f800000	1.0
122	0x3f7e0d4c	0.9923904
123	0x3f819991	1.012499
124	0x3f7fe857	0.999639
125	0x3f7e2373	0.9927284
126	0x3f800000	1.0
127	0x3f7e7929	0.99403626
128	0x3b231591	0.002488468
129	0xbbc970df	-0.0061474885
130	0xbbb60bd4	-0.0055556092
131	0xbb6f6cee	-0.0036533433
132	0xbbeba92e	-0.0071917986
133	0xbad8caa5	-0.0016539885
134	0xbbc7bf43	-0.006095798
135	0xbc4dcc49	-0.012560912
136	0x00000000	0.0
137	0xb92592d5	-0.00015790325
138	0xba668a17	-0.00087943807
139	0xbb86acc4	-0.0041099507
140	0xbc053843	-0.00813109
141	0xbb9f913a	-0.0048696073
142	0xbb4cea7a	-0.0031267689
143	0xbb97b14a	-0.004629289
144	0xbbcaa0fc	-0.0061837416
145	0x00000000	0.0
146	0x00000000	0.0
147	0xbbc0430f	-0.005867369
148	0xb68fdb7d	-4.287284e-06
149	0x3ad8a995	0.0016530032
150	0x3a3de9a4	0.0007244593
151	0x3c179d99	0.009253883
152	0xbb924bb2	-0.00446459
153	0xba88935e	-0.0010419895
154	0x00000000	0.0
155	0xbbdcf401	-0.0067429547
156	0xbb3fefa5	-0.0029287126
157	0xbbc02d09	-0.0058647436
158	0x3b166bfe	0.0022952552
159	0xbba9a6b4	-0.0051773433
160	0x3ac41240	0.0014959052
161	0x00000000	0.0
162	0xbb684a4c	-0.0035444675
163	0x00000000	0.0
164	0x3b48f2bf	0.0030662266
165	0xbad4759b	-0.0016209366
166	0xbaa42abf	-0.0012524946
167	0x3b080e0f	0.0020760333
168	0x3bb6e1ca	0.0055811154
169	0xbbc342dc	-0.005958898
170	0x3c0ff1a3	0.008785638
171	0xb8de124c	-0.00010589193
172	0xbbbb3b88	-0.005713884
173	0xbac81006	-0.0015263564
174	0xbbe5c361	-0.0070118164
175	0xbc10922e	-0.008823914
176	0xbbf0eb86	-0.0073522953
177	0x3ba33bdd	0.0049815015
178	0xbc4ac5e8	-0.012376286
179	0xbbdc9dee	-0.006732694
180	0x3b38effe	0.0028219218
181	0x3a2a7294	0.0006502059
182	0xbb756915	-0.0037446667
183	0x3ab3f708	0.0013730237
184	0xb5aa85ee	-1.2704966e-06
185	0x00000000	0.0
186	0xbc76f581	-0.015073181
187	0x3b89bb29	0.0042032194
188	0xba6bb27e	-0.0008991136
189	0xbc1084d6	-0.008820733
190	0x00000000	0.0
191	0xbb01f7dd	-0.0019831576
192	0x3b61a1ea	0.0034428784
193	0xbbb16b37	-0.0054143923
194	0xbbaab096	-0.005209039
195	0xb9952e88	-0.00028454163
196	0x3b3e7f3f	0.0029067544
197	0x3977e2b1	0.00023640205
198	0xbbd02257	-0.00635175
199	0xbc5561fb	-0.013023849
200	0x00000000	0.0
201	0x3affccf0	0.0019516032
202	0xbbe6418a	-0.007026856
203	0xbbbfe089	-0.005855624
204	0xbc124bad	-0.008929175
205	0x3c88288b	0.016620895
206	0xbb77d984	-0.0037818858
207	0xbc048ac0	-0.008089721
208	0xba8ee682	-0.0010902437
209	0x00000000	0.0
210	0x00000000	0.0
211	0xbbc1242f	-0.005894206
212	0x32bdd643	2.209993e-08
213	0xba06ae6b	-0.00051376846
214	0x3b2a1de2	0.0025957753
215	0x3ab2023d	0.0013580989
216	0xbc233b1e	-0.009962825
217	0xbbd45bc9	-0.006480668
218	0x00000000	0.0
219	0xbc138087	-0.009002811
220	0xb8a8dde2	-8.052193e-05
221	0x3c20fc58	0.009825788
222	0x3a943f44	0.0011310359
223	0xbbf5147a	-0.0074792476
224	0xbb9cba0f	-0.004782922
225	0x00000000	0.0
226	0xbabcb765	-0.0014397918
227	0x00000000	0.0
228	0x3b2b28fe	0.0026116963
229	0x39965079	0.00028670186
230	0xbaaee2e9	-0.0013342771
231	0x3b4797fd	0.0030455582
232	0x3c5b8497	0.013398311
233	0xbbac08a6	-0.0052500544
234	0x3c9f6c1c	0.01946073
235	0x3bf544b5	0.007484997
236	0xbc349bcf	-0.011023476
237	0xbbedf84f	-0.0072622667
238	0xbc033ea5	-0.008010541
239	0xbbfcf592	-0.007719704
240	0x3ad315ad	0.0016104482
241	0x3bfb64ce	0.007671929
242	0xbaac4906	-0.0013144321
243	0xbbb42b92	-0.005498358
244	0x3a848174	0.0010109381
245	0x37a4ccf2	1.9645759e-05
246	0x3c0e6ef1	0.008693443
247	0x3b88c330	0.004173659
248	0xb429e470	-1.5822457e-07
249	0x00000000	0.0
250	0xbc4bcba0	-0.012438685
251	0x3c63d816	0.013906499
252	0xba964335	-0.0011464121
253	0xbbeee322	-0.00729026
254	0x00000000	0.0
255	0xbb87c966	-0.0041438816

sequential/lstm/while/lstm_cell_2/MatMul_1 f4 [256, 64]
0	0xbdb9a8b8	-0.09065384
1	0x3ccfe68e	0.025378492
2	0x3b9cbf00	0.004783511
3	0xbdf8ab69	-0.12142069
4	0xbd18f951	-0.03734714
5	0x3d1e6d92	0.038678713
6	0xbda7dbf5	-0.0819625
7	0xbd34462a	-0.044012226
8	0x3b9b16c0	0.0047329366
9	0xbd1ffb43	-0.03905798
10	0xbd0a12ff	-0.033709522
11	0xbcd9e8ae	-0.026600208
12	0x3e00c84d	0.12576409
13	0x3da6b9d4	0.08140913
14	0x3df51622	0.11967112
15	0x3ddb5498	0.10709494
16	0xbdb7825e	-0.089604124
17	0x3e0919d9	0.13388766
18	0x3d1b9084	0.037979618
19	0x3d9b370c	0.07578859
20	0xbde97983	-0.1140013
21	0xbc7bdb82	-0.015372159
22	0x3daf0806	0.08546452
23	0x3cc30b9b	0.023809245
24	0x3ba5ef38	0.0050639175
25	0xbda4ffea	-0.08056624
26	0x3c37fa39	0.011229091
27	0x3de2ecc8	0.11080319
28	0x3d98e11f	0.074648134
29	0x3db3c8cb	0.087785326
30	0x3d90fd02	0.070795074
31	0x3c377bf7	0.011198989
32	0xbdb8f01d	-0.09030173
33	0x3c6da66a	0.014505008
34	0x3dc23322	0.09482409
35	0x3e14ea56	0.14542517
36	0x3d87b8c1	0.06627036
37	0x3cd967c3	0.026538735
38	0xbd015c34	-0.031582072
39	0xbcbd9c8d	-0.023145938
40	0x3d6832d3	0.056689095
41	0x3d89dc0b	0.06731423
42	0x3bb4ae76	0.0055139614
43	0x3d6271c4	0.055284277
44	0xbd4a55ba	-0.04939816
45	0x3d9c8010	0.076416135
46	0x3cc0ac89	0.023519771
47	0xbd9de276	-0.077092096
48	0x3bf4c2a7	0.0074694934
49	0xbd3f83bb	-0.046756487
50	0xbdea610d	-0.11444292
51	0x3db98ad0	0.090596795
52	0x3d2fec12	0.042949744
53	0xbda4eb0a	-0.08052643
54	0xbd8e3bd9	-0.06945009
55	0x3d9a29a1	0.07527471
56	0x3c3063c6	0.010765975
57	0xbbbf66d8	-0.0058411174
58	0xbd9bd174	-0.076083094
59	0xbd3c56a3	-0.04598106
60	0x3d858c7d	0.06520937
61	0xbd02e9d7	-0.03196129
62	0xbdd0473f	-0.10169839
63	0x3dd9fbde	0.10643743
64	0x3c47c69b	0.012193347
65	0x3c2321dd	0.009956804
66	0xbcad44d6	-0.021150988
67	0xbd5347b7	-0.051582064
68	0x3ba55bec	0.0050463583
69	0xbc88000b	-0.016601583
70	0x3c616ec4	0.013759319
71	0xbd4c5e4e	-0.049894623
72	0xbbcc67b6	-0.0062379492
73	0xbcc8adad	-0.024496878
74	0x3d320188	0.04345849
75	0x3d322f32	0.04350204
76	0xbb8935f7	-0.0041873413
77	0x3cd96749	0.026538508
78	0xbdbd2644	-0.09235814
79	0xbe12215f	-0.14270543
80	0x3d41a0f0	0.047272623
81	0x3d82755d	0.063700415
82	0xbc8ea889	-0.017414348
83	0x3d98f07d	0.074677445
84	0xbd70ce83	-0.058790695
85	0xbda1efa4	-0.07907036
86	0x3c93f002	0.01805878
87	0x3c6b46d6	0.01436015
88	0x3da7d455	0.08194796
89	0xbd047d3d	-0.032346
90	0xbe039d58	-0.1285299
91	0x3c8b682b	0.017017445
92	0x3d78908c	0.060684726
93	0xbdb0d8e0	-0.086351156
94	0xbc8e1c02	-0.01734734
95	0xbdfc2040	-0.12310839
96	0xbda83c5f	-0.0821464
97	0x3d1ae5f9	0.037816975
98	0x3a5c60a0	0.0008406732
99	0xbc6517bf	-0.013982712
100	0x3db56d5c	0.08858749
101	0xbda7306a	-0.08163531
102	0xbd63f833	-0.055656623
103	0x3d83f896	0.064438984
104	0xbcf5f337	-0.0300232
105	0xbca19684	-0.019725092
106	0xbd1cca05	-0.0382786
107	0xbdb13531	-0.086527236
108	0x3b9ce45a	0.004787964
109	0xbc9847d2	-0.018588934
110	0x3d81f952	0.06346382
111	0x3c127f05	0.008941417
112	0xbda21648	-0.07914406
113	0x3cb07306	0.021539222
114	0x3e0d70b8	0.1381253
115	0xbd8cd923	-0.06877353
116	0x3d1570ce	0.036484532
117	0x3d897b88	0.06713015
118	0x3cd26cfc	0.025686733
119	0x3cae9607	0.021311773
120	0x3d93606b	0.07196125
121	0x3c923f1b	0.017852357
122	0xbdf721d1	-0.12066997
123	0xbc4f3741	-0.012647451
124	0x3b999cab	0.0046878657
125	0x3cef69c7	0.029225243
126	0x3d9d0b2f	0.07668149
127	0xbd7b69dd	-0.061380256
128	0x3d20aa0e	0.039224677
129	0xbd13c7e8	-0.036079317
130	0x3c8c7343	0.017144805
131	0x3ccc012c	0.024902903
132	0xbd5d75b4	-0.05406733
133	0x3ddd7f0d	0.10815249
134	0xbc0fe758	-0.008783184
135	0xbd62eec5	-0.05540349
136	0x3c5c1cdf	0.013434618
137	0x3d585d80	0.052823544
138	0xbda21d7d	-0.07915781
139	0xbdfc45c3	-0.123179935
140	0xbce1cbdc	-0.027563028
141	0xbceb8ba0	-0.028753102
142	0x3dd2d4b6	0.10294478
143	0xbdb94e79	-0.090481706
144	0xbc7cab9f	-0.015421777
145	0xbd849978	-0.06474584
146	0xbc92eadf	-0.01793426
147	0x3d4ee493	0.050510954
148	0x3d8a11b2	0.06741656
149	0xbddf2af4	-0.108968645
150	0xbdaa9e25	-0.08330945
151	0xbad180aa	-0.001598378
152	0xbc969e7c	-0.018386118
153	0xbc8b9b77	-0.017041905
154	0xbd6f460b	-0.058416408
155	0x3bc1c9a8	0.005913932
156	0x3caff60c	0.021479629
157	0x3c937b92	0.018003259
158	0x3d59bfcd	0.05316143
159	0x3c4d6078	0.012535207
160	0xbd8f6d31	-0.070032485
161	0xbcc7a2cd	-0.024369622
162	0xbc8a777f	-0.016902683
163	0x3c1c0ca9	0.009524503
164	0x3cd67b52	0.02618185
165	0xbd02f432	-0.031971164
166	0x3d875e7b	0.066098176
167	0xbd790337	-0.06079408
168	0x3db65f30	0.08904874
169	0xbdfc12a1	-0.12308241
170	0x3e30470e	0.17214605
171	0xbd4f16b7	-0.050558772
172	0xbbdd522c	-0.0067541804
173	0x3df81b16	0.12114541
174	0xbb5405d6	-0.0032352111
175	0x3b9079a4	0.004409032
176	0x3d2990cb	0.04139785
177	0x3c05b419	0.008160614
178	0x3e023995	0.12717278
179	0x3d042969	0.032266054
180	0x3d403ec8	0.046934873
181	0xbd59347d	-0.053028572
182	0x3d16330e	0.036669783
183	0x3d176592	0.0369621
184	0x3ce3415d	0.027741129
185	0x3d0d2d74	0.034467176
186	0xbd10b9aa	-0.035333313
187	0xbd8e12f4	-0.06937209
188	0x3dc2242b	0.09479555
189	0x3d053c04	0.03252794
190	0xbc3f2e09	-0.0116686905
191	0x3d2f796d	0.04284041
192	0xbc665708	-0.014058836
193	0x3dc348e6	0.09535389
194	0xbc130fa4	-0.008975897
195	0x3d514559	0.051091526
196	0xbcebb1ea	-0.02877136
197	0xbc920b13	-0.017827546
198	0x3bd372a5	0.0064528757
199	0xbdc37c65	-0.09545211
200	0x3c52ad29	0.012858667
201	0xbd3b444c	-0.04571943
202	0xbdb865f9	-0.09003825
203	0xbc670624	-0.014100585
204	0x3d2d01bd	0.042237986
205	0xbd464838	-0.048408717
206	0xbd0f5c37	-0.035000052
207	0xbe2cdb9d	-0.16880651
208	0xbd87f6f6	-0.06638901
209	0xbcc90008	-0.024536148
210	0xbe18eb17	-0.1493343
211	0x3cd44bb7	0.02591501
212	0xbbacae2c	-0.0052697863
213	0x3d8695f4	0.0657157
214	0x3d248ec0	0.0401752
215	0x3d1942de	0.037417285
216	0xbd576a2e	-0.052591495
217	0x3de4560c	0.11149225
218	0xbd3cce19	-0.046094988
219	0xbdaf24c1	-0.08551932
220	0x3d052078	0.032501668
221	0x3db679b5	0.089099325
222	0xbd635050	-0.055496514
223	0xbc933114	-0.017967738
224	0xbcc28731	-0.023746105
225	0xbd9f8a71	-0.077900775
226	0xbdd615c0	-0.10453367
227	0xbd9f484d	-0.07777462
228	0x3c811aaf	0.015759794
229	0xbc865b89	-0.01640107
230	0x3d6571d4	0.056016758
231	0x3dbb29e5	0.0913885
232	0xbc4e7898	-0.012601994
233	0x3dbd86d8	0.09254235
234	0x3dce8753	0.10084405
235	0xbd1196eb	-0.035544317
236	0xbdc7ba1d	-0.09752295
237	0xbc6f7b18	-0.01461675
238	0xbdd6b0f3	-0.10482969
239	0xbd8afff2	-0.06787099
240	0x3d44d8da	0.04805837
241	0x3ccb5421	0.02482039
242	0xbde15672	-0.11002816
243	0xbcc45533	-0.023966407
244	0xbcbc206f	-0.022964684
245	0x3cc07f89	0.023498314
246	0xbe2ac4cc	-0.16676635
247	0x3e0412cb	0.12897794
248	0x3d208f42	0.03919912
249	0xbc2e26e2	-0.010629388
250	0x3d2c9ea4	0.04214348
251	0x3db40358	0.087897
252	0x3c852750	0.016254097
253	0xbd9e1bf2	-0.07720174
254	0xbd806864	-0.06269911
255	0x3dc3248d	0.09528456

sequential/lstm/while/lstm_cell_2/MatMul f4 [256, 172]
0	0xba1392dd	-0.00056294893
1	0xbdde547c	-0.10855958
2	0xbda8c7ad	-0.0824121
3	0x3c244ff2	0.010028826
4	0x3cc165ea	0.023608167
5	0x3dcc946d	0.099892475
6	0x3d9bff69	0.07617075
7	0x3d001179	0.031266663
8	0x3d992019	0.07476825
9	0xbc5409f1	-0.012941823
10	0xbdbf8691	-0.093518384
11	0x3dd110dd	0.102082945
12	0xbd988513	-0.07447257
13	0xbc1dcf17	-0.009631894
14	0x3c13a506	0.009011513
15	0x3d1db849	0.038505826
16	0xbcca1ccd	-0.024671936
17	0x3d470e33	0.048597526
18	0xbd446e34	-0.04795666
19	0x3ce59b5c	0.028028183
20	0x3c866744	0.016406663
21	0x3d4134e8	0.047169596
22	0xbdc5640d	-0.09638224
23	0x3de6e02c	0.11273226
24	0x3de94ffa	0.113922074
25	0x3d35ea16	0.044412695
26	0xbd6f8d29	-0.05848423
27	0xbdca8825	-0.09889249
28	0x3d40231b	0.04690848
29	0x3c99213e	0.018692609
30	0xbd01cb6a	-0.03168813
31	0x3dd4e171	0.10394562
32	0x3d3fc7c3	0.046821367
33	0xbd894cf0	-0.06704128
34	0xbdc60b72	-0.09670152
35	0x3db550e4	0.08853319
36	0xbc1dac56	-0.009623608
37	0x3db82041	0.08990527
38	0x3d624941	0.05524564
39	0xbd26b310	-0.04069811
40	0x3c9bdb14	0.019025363
41	0x3d947a6d	0.07249913
42	0x3d59fc00	0.05321884
43	0xbdb400a1	-0.087891825
44	0x3cfc7a4d	0.030820036
45	0xbc7e4ca9	-0.015521207
46	0x3cf038a0	0.029323876
47	0x3d0666fc	0.032813057
48	0x3c84bd77	0.016203625
49	0x3d19464a	0.03742055
50	0xbdac57ba	-0.0841517
51	0xbdbc48a1	-0.0919354
52	0xbdd252b6	-0.10269682
53	0x3dac4d26	0.084131524
54	0x3d936ce3	0.07198503
55	0xbd31d85a	-0.04341922
56	0x3dfafda8	0.12255412
57	0xbc669a20	-0.014074832
58	0x3cb363c6	0.021898162
59	0xbdcbab9a	-0.0994484
60	0x3c83f7ea	0.016109426
61	0xbd039eea	-0.032133974
62	0xbdf783e7	-0.12085705
63	0x3d703dad	0.05865257
64	0x3d64bd8d	0.055844832
65	0x3d65c42b	0.056095283
66	0xbd95ede3	-0.07320764
67	0xbcbf9258	-0.023385212
68	0xbcd95d3d	-0.026533717
69	0x3ddf0a88	0.108906806
70	0xbd25c785	-0.04047348
71	0xbd3c77eb	-0.0460128
72	0x3da6dfd5	0.08148161
73	0xbd664cdf	-0.056225654
74	0x3dc00bfa	0.09377284
75	0xbdc59533	-0.09647598
76	0xbdafc239	-0.08581967
77	0x3d0d029d	0.03442632
78	0xbd979ee1	-0.074033506
79	0xbd885f24	-0.06658772
80	0xbcff06ac	-0.031131111
81	0xbdda5778	-0.106612146
82	0x3d552f07	0.052046802
83	0x3d9e1ad9	0.077199645
84	0xbc2bb86f	-0.010480984
85	0x3da5308b	0.080658995
86	0xbdaeae01	-0.08529282
87	0x3b81f629	0.003966112
88	0xbd86856a	-0.065684155
89	0xbd5ddf2e	-0.05416792
90	0xbe073179	-0.13202466
91	0xbd736707	-0.059424426
92	0xbd8af9b0	-0.06785905
93	0x3d77059a	0.060308076
94	0xbd1789cd	-0.03699665
95	0xbd97baec	-0.074086994
96	0x3dc23c8a	0.09484203
97	0x3da4b79d	0.08042834
98	0x3d9e0128	0.07715064
99	0xbdb1fb18	-0.086904705
100	0x3d22356d	0.039601732
101	0xbc9bbe9c	-0.019011788
102	0x3c98c55b	0.018648794
103	0xbcbb7718	-0.022883937
104	0x3cbea9b2	0.023274276
105	0x3d8c0ec3	0.06838753
106	0xbc284111	-0.010269419
107	0xbb8ae8ad	-0.004239163
108	0xbd2f3b10	-0.042780936
109	0x3d9bc503	0.076059364
110	0xbdb65196	-0.0890228
111	0x3d53ea6b	0.05173723
112	0x3b47d698	0.0030492898
113	0xbdaece68	-0.085354626
114	0xbd50b57f	-0.05095434
115	0x3d3996e7	0.045309927
116	0xbce675af	-0.028132288
117	0xbd0098f7	-0.03139588
118	0xbc694c0d	-0.014239323
119	0x3d161c01	0.0366478
120	0x3daa5d03	0.08318522
121	0xbdee02c3	-0.116216205
122	0x3cdb240c	0.026750587
123	0x3dbae3e5	0.09125499
124	0x3c62189d	0.013799814
125	0x3d36fe7a	0.04467628
126	0x3d9f45b2	0.07776965
127	0x3bef2503	0.0072981133
128	0xbd807664	-0.06272581
129	0xbde6f5aa	-0.112773255
130	0xbc8b0881	-0.016971828
131	0xbdb17641	-0.08665133
132	0x3ddb0772	0.106947795
133	0x3d24c62c	0.040228054
134	0xbde3fe28	-0.11132461
135	0xbd927248	-0.07150704
136	0x3d8deaba	0.06929536
137	0xbdd00e5b	-0.10158988
138	0xbda2c510	-0.07947743
139	0xbdcea2d3	-0.1008965
140	0x3d40f80a	0.04711155
141	0xbdd2badf	-0.10289549
142	0x3d827ec0	0.06371832
143	0xbcbfdf09	-0.023421781
144	0xbd943cc2	-0.07238151
145	0x3da47d91	0.080317624
146	0x3e01525e	0.12629077
147	0x3d6690ca	0.056290425
148	0xbdcc0685	-0.09962181
149	0xbc21394f	-0.009840324
150	0x3d1ef490	0.03880745
151	0xbb17308c	-0.0023069708
152	0x3ca01385	0.019540558
153	0xbc6e7525	-0.014554297
154	0x3c601fd7	0.013679466
155	0x3deb2794	0.11482158
156	0x3d968d20	0.07351136
157	0xbc4d1fcf	-0.012519791
158	0xbdb9775a	-0.09055968
159	0xbc71a6bd	-0.014749226
160	0x3cff25c4	0.031145938
161	0xbcef466e	-0.029208388
162	0xbce4a170	-0.02790901
163	0xbdd65dae	-0.10467087
164	0xbc2f4836	-0.010698369
165	0x3d54df33	0.05197067
166	0xbd40386d	-0.04692881
167	0x3d480d13	0.048840594
168	0x3dc8239c	0.09772417
169	0xb98f423f	-0.00027324443
170	0xbd410565	-0.047124285
171	0xbd5bba4c	-0.053644463
172	0xbd437055	-0.04771455
173	0x3da73c49	0.08165795
174	0xbd804f61	-0.0626514
175	0xbd6a069b	-0.057135206
176	0xbb27e918	-0.0025621112
177	0xbd1305ab	-0.035894077
178	0x3c8f0d24	0.01746232
179	0xbb981530	-0.0046411976
180	0x3dd7735b	0.10520049
181	0xbbb0273f	-0.0053757722
182	0xbd064394	-0.03277929
183	0x3db82016	0.08990495
184	0xbd7d1a07	-0.0617924
185	0x3d91178a	0.07084568
186	0xbd88bd35	-0.066767134
187	0x3caf0852	0.021366272
188	0x3c48e4c2	0.012261571
189	0x3c89185a	0.016735245
190	0x3d3e6a89	0.04648832
191	0x3dda4382	0.10657407
192	0x3dbae377	0.09125417
193	0x3d6519fd	0.055932987
194	0x3ded8371	0.11597336
195	0xbd9bea76	-0.07613079
196	0xbd8e42f8	-0.06946367
197	0x3d2de44f	0.04245406
198	0xbddb80b0	-0.107179046
199	0xbdf445f9	-0.11927409
200	0x3dd70feb	0.10501083
201	0xbd9f585a	-0.077805236
202	0x3d151ed7	0.036406364
203	0xbdb8471e	-0.089979395
204	0xbd87d563	-0.06632497
205	0xbd4a3a9f	-0.04937231
206	0xbd0f5bdd	-0.034999717
207	0xbd9fa4c5	-0.07795099
208	0xbdf573ea	-0.119849995
209	0x3dc861a8	0.097842515
210	0xbdc557c8	-0.096358836
211	0x3d84f35b	0.06491729
212	0x3dc1b025	0.09457425
213	0xbda39170	-0.079867244
214	0x3dce2626	0.1006587
215	0xbdda788c	-0.10667524
216	0xbdb6fedb	-0.089353286
217	0xbc2d3d27	-0.010573662
218	0x3dbf0dd7	0.093288116
219	0x3de17b7d	0.11009882
220	0x3dd43168	0.10360986
221	0xbddd5c54	-0.10808626
222	0xbde7ee1c	-0.11324713
223	0xbde1ed01	-0.11031533
224	0x3cea0764	0.028567977
225	0x3c8c84bd	0.017153138
226	0x3bda09aa	0.006653984
227	0xbddffb64	-0.10936621
228	0xbd3d82e3	-0.0462674
229	0x3ca3a7f1	0.019977542
230	0x3d15535f	0.036456462
231	0x3da4763c	0.08030364
232	0xbbbbf292	-0.0057357037
233	0x3de3f952	0.111315385
234	0xbcf0450e	-0.029329803
235	0xbddfa218	-0.10919589
236	0xbd6237cb	-0.05522899
237	0x3d862b2b	0.065512024
238	0x3df38f29	0.1189254
239	0x3d264802	0.040596016
240	0x3d1d597b	0.038415413
241	0x3dba5322	0.090978876
242	0xbbe4ce13	-0.006982574
243	0xbd2dc635	-0.042425353
244	0xbd6211ba	-0.055192687
245	0xbdf8176b	-0.121138416
246	0x3deb00dc	0.11474773
247	0x3d86b91a	0.06578274
248	0x3de666ba	0.11250062
249	0x3d0b4fe1	0.034011725
250	0xbd89927d	-0.067173935
251	0xbd911882	-0.070847526
252	0xbd06c297	-0.03290042
253	0x3db3d491	0.08780778
254	0xbce19442	-0.027536515
255	0xbd25b627	-0.040456917
