models/walking_modelss.tflite (tflite, 271036 bytes, 9 tensors)

sequential/lstm/TensorArrayV2_1 f4 [30, 1, 64]
0.0 0.0 0.0 0.0 0.0 0.0 0.0 0.0
0.0 0.0 0.0 0.0 0.0 0.0 0.0 0.0
0.0 0.0 0.0 0.0 0.0 0.0 0.0 0.0
0.0 0.0 0.0 0.0 0.0 0.0 0.0 0.0
0.0 0.0 0.0 0.0 0.0 0.0 0.0 0.0
0.0 0.0 0.0 0.0 0.0 0.0 0.0 0.0
0.0 0.0 0.0 0.0 0.0 0.0 0.0 0.0
0.0 0.0 0.0 0.0 0.0 0.0 0.0 0.0
0.0 0.0 0.0 0.0 0.0 0.0 0.0 0.0
0.0 0.0 0.0 0.0 0.0 0.0 0.0 0.0
0.0 0.0 0.0 0.0 0.0 0.0 0.0 0.0
0.0 0.0 0.0 0.0 0.0 0.0 0.0 0.0
0.0 0.0 0.0 0.0 0.0 0.0 0.0 0.0
0.0 0.0 0.0 0.0 0.0 0.0 0.0 0.0
0.0 0.0 0.0 0.0 0.0 0.0 0.0 0.0
0.0 0.0 0.0 0.0 0.0 0.0 0.0 0.0
0.0 0.0 0.0 0.0 0.0 0.0 0.0 0.0
0.0 0.0 0.0 0.0 0.0 0.0 0.0 0.0
0.0 0.0 0.0 0.0 0.0 0.0 0.0 0.0
0.0 0.0 0.0 0.0 0.0 0.0 0.0 0.0
0.0 0.0 0.0 0.0 0.0 0.0 0.0 0.0
0.0 0.0 0.0 0.0 0.0 0.0 0.0 0.0
0.0 0.0 0.0 0.0 0.0 0.0 0.0 0.0
0.0 0.0 0.0 0.0 0.0 0.0 0.0 0.0
0.0 0.0 0.0 0.0 0.0 0.0 0.0 0.0
0.0 0.0 0.0 0.0 0.0 0.0 0.0 0.0
0.0 0.0 0.0 0.0 0.0 0.0 0.0 0.0
0.0 0.0 0.0 0.0 0.0 0.0 0.0 0.0
0.0 0.0 0.0 0.0 0.0 0.0 0.0 0.0
0.0 0.0 0.0 0.0 0.0 0.0 0.0 0.0
0.0 0.0 0.0 0.0 0.0 0.0 0.0 0.0
0.0 0.0 0.0 0.0 0.0 0.0 0.0 0.0
00000000: 0000 0000 0000 0000 0000 0000 0000 0000
00000010: 0000 0000 0000 0000 0000 0000 0000 0000
00000020: 0000 0000 0000 0000 0000 0000 0000 0000
00000030: 0000 0000 0000 0000 0000 0000 0000 0000
00000040: 0000 0000 0000 0000 0000 0000 0000 0000
00000050: 0000 0000 0000 0000 0000 0000 0000 0000
00000060: 0000 0000 0000 0000 0000 0000 0000 0000
00000070: 0000 0000 0000 0000 0000 0000 0000 0000
00000080: 0000 0000 0000 0000 0000 0000 0000 0000
00000090: 0000 0000 0000 0000 0000 0000 0000 0000
000000a0: 0000 0000 0000 0000 0000 0000 0000 0000
000000b0: 0000 0000 0000 0000 0000 0000 0000 0000
000000c0: 0000 0000 0000 0000 0000 0000 0000 0000
000000d0: 0000 0000 0000 0000 0000 0000 0000 0000
000000e0: 0000 0000 0000 0000 0000 0000 0000 0000
000000f0: 0000 0000 0000 0000 0000 0000 0000 0000
00000100: 0000 0000 0000 0000 0000 0000 0000 0000
00000110: 0000 0000 0000 0000 0000 0000 0000 0000
00000120: 0000 0000 0000 0000 0000 0000 0000 0000
00000130: 0000 0000 0000 0000 0000 0000 0000 0000
00000140: 0000 0000 0000 0000 0000 0000 0000 0000
00000150: 0000 0000 0000 0000 0000 0000 0000 0000
00000160: 0000 0000 0000 0000 0000 0000 0000 0000
00000170: 0000 0000 0000 0000 0000 0000 0000 0000
00000180: 0000 0000 0000 0000 0000 0000 0000 0000
00000190: 0000 0000 0000 0000 0000 0000 0000 0000
000001a0: 0000 0000 0000 0000 0000 0000 0000 0000
000001b0: 0000 0000 0000 0000 0000 0000 0000 0000
000001c0: 0000 0000 0000 0000 0000 0000 0000 0000
000001d0: 0000 0000 0000 0000 0000 0000 0000 0000
000001e0: 0000 0000 0000 0000 0000 0000 0000 0000
000001f0: 0000 0000 0000 0000 0000 0000 0000 0000
00000200: 0000 0000 0000 0000 0000 0000 0000 0000
00000210: 0000 0000 0000 0000 0000 0000 0000 0000
00000220: 0000 0000 0000 0000 0000 0000 0000 0000
00000230: 0000 0000 0000 0000 0000 0000 0000 0000
00000240: 0000 0000 0000 0000 0000 0000 0000 0000
00000250: 0000 0000 0000 0000 0000 0000 0000 0000
00000260: 0000 0000 0000 0000 0000 0000 0000 0000
00000270: 0000 0000 0000 0000 0000 0000 0000 0000
00000280: 0000 0000 0000 0000 0000 0000 0000 0000
00000290: 0000 0000 0000 0000 0000 0000 0000 0000
000002a0: 0000 0000 0000 0000 0000 0000 0000 0000
000002b0: 0000 0000 0000 0000 0000 0000 0000 0000
000002c0: 0000 0000 0000 0000 0000 0000 0000 0000
000002d0: 0000 0000 0000 0000 0000 0000 0000 0000
000002e0: 0000 0000 0000 0000 0000 0000 0000 0000
000002f0: 0000 0000 0000 0000 0000 0000 0000 0000
00000300: 0000 0000 0000 0000 0000 0000 0000 0000
00000310: 0000 0000 0000 0000 0000 0000 0000 0000
00000320: 0000 0000 0000 0000 0000 0000 0000 0000
00000330: 0000 0000 0000 0000 0000 0000 0000 0000
00000340: 0000 0000 0000 0000 0000 0000 0000 0000
00000350: 0000 0000 0000 0000 0000 0000 0000 0000
00000360: 0000 0000 0000 0000 0000 0000 0000 0000
00000370: 0000 0000 0000 0000 0000 0000 0000 0000
00000380: 0000 0000 0000 0000 0000 0000 0000 0000
00000390: 0000 0000 0000 0000 0000 0000 0000 0000
000003a0: 0000 0000 0000 0000 0000 0000 0000 0000
000003b0: 0000 0000 0000 0000 0000 0000 0000 0000
000003c0: 0000 0000 0000 0000 0000 0000 0000 0000
000003d0: 0000 0000 0000 0000 0000 0000 0000 0000
000003e0: 0000 0000 0000 0000 0000 0000 0000 0000
000003f0: 0000 0000 0000 0000 0000 0000 0000 0000

sequential/dense/BiasAdd/ReadVariableOp/resource f4 [32]
-0.0094804615 0.0022403055 -0.0051293382 -0.0023112046 -0.0031590215 0.0032290579 -0.009207442 0.0040019844
0.0019751287 -0.00055365276 0.0 -0.005965734 -0.008550778 0.0021113544 0.003322982 -0.013552369
0.0028450715 0.0016080355 -0.0014809812 -0.0023338727 0.015127641 0.016700525 0.002407116 -0.0023424956
-0.0057854285 -0.010268599 0.0 0.0019674855 0.0 0.0022570956 -0.0005065124 0.0050025643
00000000: f053 1bbc 17d2 123b 0214 a8bb 9477 17bb
00000010: 9607 4fbb 9a9e 533b d0da 16bc 1423 833b
00000020: 2971 013b 0223 11ba 0000 0000 347c c3bb
00000030: 9018 0cbc a65e 0a3b 63c6 593b c10a 5ebc
00000040: 6174 3a3b b8c4 d23a 7c1d c2ba e3f3 18bb
00000050: edd9 773c 8acf 883c b4c0 1d3b 8e84 19bb
00000060: b193 bdbb a03d 28bc 0000 0000 eef0 003b
00000070: 0000 0000 c8eb 133b 79c7 04ba 8dec a33b

sequential/dense_1/BiasAdd/ReadVariableOp/resource f4 [2]
0.0022933453 -0.0022933444
00000000: f34b 163b ef4b 16bb

sequential/lstm/lstm_cell_1/BiasAdd/ReadVariableOp/resource f4 [256]
0.011710753 0.0035915966 -0.009844705 -0.0052542523 0.00668306 -0.0025590826 0.0029133733 -0.00087015086
0.0 -0.006608045 -0.003255485 0.004289148 0.0 -0.004072227 0.0026191962 -0.0045250216
0.00339766 0.0 -0.0042202985 0.00072699826 0.001885399 0.0018993914 0.0 0.008421403
-0.005797572 -0.0007370823 -0.0043496834 0.0051035155 -0.0012656103 -0.0002254484 0.002271235 0.00095979037
-0.003930097 0.0050774603 -0.004026761 0.0034123752 0.0 -0.002173619 0.0 -0.006781632
-0.00521248 -0.0030883448 -0.0014058492 0.0 -0.012889868 0.0032385404 -0.0044430085 0.007029618
0.0048723896 -0.010078338 -0.0020720628 -0.00116039 0.0077178273 -0.0026748555 0.002718979 -0.0014890921
0.0052678236 0.0 0.00082142564 -0.0056514405 -0.0058744526 -0.0071366224 0.007679696 -0.010511356
1.0125612 1.0046277 0.99085104 0.9943713 1.0061594 0.9978441 1.0036539 0.99886054
1.0 0.9916699 0.99777925 1.0049655 1.0 0.99631923 1.0018831 0.99562293
1.0021917 1.0 0.99652326 1.0002073 1.0029072 1.0019447 1.0 1.0080947
0.9942021 1.001739 0.99567354 1.00688 1.0001613 0.99999744 1.0029354 1.0011925
0.9967915 1.0069057 0.99468213 1.002397 1.0 0.998902 1.0 0.9933436
0.9954426 0.99608314 0.99965554 1.0 0.9867581 1.0029168 1.0000411 1.0048524
1.0063758 0.99177957 0.9982905 0.998256 1.009969 0.99743587 1.0078653 0.9976969
1.0062263 1.0 1.0002304 0.9950054 0.99409086 0.9921954 1.0077688 0.9898363
0.004830834 0.0041173683 -0.007355047 -0.0043516047 0.006190337 -0.0053349673 0.005754363 -0.00042693564
0.0 -0.010568309 -0.004551604 0.0026941379 0.0 -0.0050768843 0.0020052 -0.0057832585
-0.001477245 0.0 0.0022570023 -9.406947e-05 0.004004712 0.0020942746 0.0 -0.0010401577
-0.0058171665 0.0012563039 -0.0064032692 -0.0025048836 -0.0066058715 -0.0031775115 0.004882243 -0.0030580657
-0.008337046 0.00188749 -0.0073124473 0.004216858 0.0 -0.0070001725 0.0 -0.0073654107
-0.005517545 -0.0063166437 -0.0041813524 0.0 -0.009983383 0.0034211392 -0.004543108 0.0005823501
-0.004023887 -0.006639492 0.0010702539 0.0014431824 0.008533703 -0.0015248813 -0.00195173 -0.005689015
0.0023803539 0.0 0.0015921644 -0.003173305 -0.0062425165 -0.0020110307 0.0024920157 -0.010937367
0.011218349 0.002638002 -0.010165626 -0.0056803375 0.0069016013 -0.002669003 0.0031957165 -0.0005078209
0.0 -0.006620566 -0.0036139844 0.004669654 0.0 -0.004923922 0.0022941541 -0.0047066845
0.0018737887 0.0 -0.0035449173 0.00043164328 0.0018933819 0.00022834144 0.0 0.009003306
-0.0057883775 0.0007998363 -0.004409994 0.006644166 -0.00086225756 -0.00020367294 0.0015940083 0.0016514307
-0.0034541455 0.004485622 -0.004734747 0.0036137013 0.0 -0.0015297085 0.0 -0.006579327
-0.0052624536 -0.0026034312 -0.0013289668 0.0 -0.013294595 0.002647521 -0.004431764 0.0058840085
0.0036989178 -0.009573965 -0.00251123 -0.0013313907 0.008612109 -0.0021599268 0.0025741355 -0.001036884
0.0062494813 0.0 0.00084110146 -0.005035115 -0.0058353962 -0.007693817 0.008271533 -0.01067577
00000000: 75de 3f3c fe60 6b3b b04b 21bc dd2b acbb
00000010: 92fd da3b 48b6 27bb 4bee 3e3b d61a 64ba
00000020: 0000 0000 4d88 d8bb fa59 55bb fb8b 8c3b
00000030: 0000 0000 5170 85bb d2a6 2b3b a246 94bb
00000040: 47ab 5e3b 0000 0000 6e4a 8abb 0794 3e3a
00000050: 7e1f f73a 00f5 f83a 0000 0000 edf9 093c
00000060: 8ff9 bdbb c138 41ba ca87 8ebb 643b a73b
00000070: d6e2 a5ba 5866 6cb9 00d9 143b 719a 7b3a
00000080: 0bc8 80bb d360 a63b ebf2 83bb 28a2 5f3b
00000090: 0000 0000 4773 0ebb 0000 0000 7438 debb
000000a0: 74cd aabb d465 4abb 7944 b8ba 0000 0000
000000b0: 0630 53bc b13d 543b a896 91bb b658 e63b
000000c0: 91a8 9f3b 9d1f 25bc 72cb 07bb 3a18 98ba
000000d0: d4e5 fc3b a14c 2fbb e630 323b a42d c3ba
000000e0: b59d ac3b 0000 0000 f154 573a b82f b9bb
000000f0: 7b7e c0bb 54da e9bb f6a5 fb3b d337 2cbc
00000100: 9b9b 813f a497 803f 6aa8 7d3f 1e8f 7e3f
00000110: d5c9 803f b672 7f3f bb77 803f 53b5 7f3f
00000120: 0000 803f 14de 7d3f 766e 7f3f b6a2 803f
00000130: 0000 803f c70e 7f3f b53d 803f 25e1 7e3f
00000140: d147 803f 0000 803f 261c 7f3f cb06 803f
00000150: 435f 803f b93f 803f 0000 803f 3f09 813f
00000160: 0784 7e3f fc38 803f 76e4 7e3f 72e1 803f
00000170: 4905 803f d5ff 7f3f 3060 803f 1327 803f
00000180: ba2d 7f3f 49e2 803f 7da3 7e3f 8b4e 803f
00000190: 0000 803f 0bb8 7f3f 0000 803f c44b 7e3f
000001a0: 54d5 7e3f 4eff 7e3f 6de9 7f3f 0000 803f
000001b0: 2e9c 7c3f 945f 803f 5901 803f 019f 803f
000001c0: ecd0 803f 44e5 7d3f f78f 7f3f b58d 7f3f
000001d0: aa46 813f f557 7f3f bb01 813f 1069 7f3f
000001e0: 06cc 803f 0000 803f 8d07 803f adb8 7e3f
000001f0: bd7c 7e3f 8500 7e3f 91fe 803f e965 7d3f
00000200: f94b 9e3b fdea 863b 9b02 f1bb e897 8ebb
00000210: 4fd8 ca3b f3d0 aebb 188f bc3b 55d6 dfb9
00000220: 0000 0000 b326 2dbc 9f25 95bb 2290 303b
00000230: 0000 0000 fe5b a6bb ac69 033b 7d81 bdbb
00000240: 1ea0 c1ba 0000 0000 37ea 133b 2a47 c5b8
00000250: f639 833b 1940 093b 0000 0000 e755 88ba
00000260: ee9d bebb 90aa a43a 84d2 d1bb f928 24bb
00000270: 1176 d8bb cc3d 50bb 39fb 9f3b d469 48bb
00000280: 1b98 08bc a865 f73a 419d efbb 922d 8a3b
00000290: 0000 0000 b461 e5bb 0000 0000 8b59 f1bb
000002a0: 86cc b4bb d9fb cebb ba03 89bb 0000 0000
000002b0: 5891 23bc 3135 603b 5ade 94bb dba8 183a
000002c0: d0da 83bb 1990 d9bb c347 8c3a 2a29 bd3a
000002d0: f2d0 0b3c 87de c7ba 31d1 ffba eb6a babb
000002e0: b6ff 1b3b 0000 0000 2cb0 d03a 39f7 4fbb
000002f0: 068e ccbb 7fcb 03bb 1651 233b a432 33bc
00000300: 2bcd 373c 54e2 2c3b ba8d 26bc 2022 babb
00000310: d426 e23b 71ea 2ebb 3a6f 513b 491f 05ba
00000320: 0000 0000 55f1 d8bb 99d8 6cbb e603 993b
00000330: 0000 0000 da58 a1bb 8559 163b 883a 9abb
00000340: ea99 f53a 0000 0000 d851 68bb 2e4e e239
00000350: 5b2b f83a f06e 6f39 0000 0000 9a82 133c
00000360: 6eac bdbb 1bac 513a b681 90bb 4eb7 d93b
00000370: 2009 62ba 0a91 55b9 0bee d03a d274 d83a
00000380: f25e 62bb 20fc 923b f025 9bbb d9d3 6c3b
00000390: 0000 0000 8080 c8ba 0000 0000 6597 d7bb
000003a0: a970 acbb 549e 2abb ba30 aeba 0000 0000
000003b0: 93d1 59bc 0882 2d3b 5538 91bb a4ce c03b
000003c0: 8b69 723b 1fdc 1cbc 7393 24bb 0f82 aeba
000003d0: ce19 0d3c 8f8d 0dbb d4b2 283b 0ee8 87ba
000003e0: 73c8 cc3b 0000 0000 5d7d 5c3a 9bfd a4bb
000003f0: da36 bfbb 6a1c fcbb 5385 073c 6de9 2ebc

sequential/dense/MatMul f4 [32, 64]
0.23746227 -0.016147302 0.22266893 0.14844343 0.031452104 -0.14117992 -0.21017413 0.09911523
-0.16184735 0.22078183 0.22753453 -0.053729832 0.04097569 -0.13314055 -0.053305596 0.014165878
0.0842861 0.16110599 0.14714642 -0.13644886 -0.16028196 0.23053785 0.068516076 -0.20345545
-0.24930966 -0.028637392 -0.18248421 -0.09166638 -0.18493819 0.15291074 0.20067938 0.13441363
0.08697867 -0.012279628 -0.08749705 -0.0148442695 0.08965343 0.1920389 0.02388841 -0.20176923
0.07804262 0.033052564 -0.19201224 -0.20605761 -0.22234575 -0.08655104 -0.19851005 -0.18345882
-0.12224317 0.042937655 -0.140027 0.24090207 -0.09771124 0.072966695 0.18180206 -0.13443989
-0.10844655 0.12897044 0.11377668 -0.16944261 0.089042306 -0.2360676 -0.02709425 0.042028803
-0.1339788 0.13712043 0.1011208 -0.107858725 -0.13196965 0.028908137 -0.0341349 0.100793384
0.012303948 0.20252116 -0.24417569 -0.08272958 0.22831905 -0.09723961 -0.004143804 -0.1426694
-0.18410958 -0.015749574 -0.18121 0.12858059 0.17362103 -0.22151057 -0.12747538 0.15954483
0.18645707 0.019021083 0.24778253 0.22545506 0.17849766 -0.10142005 0.07931081 -0.2275924
0.1710308 0.2270691 0.015592563 0.0027145187 0.058840036 -0.11745305 -0.007976055 -0.047393814
0.011761176 -0.073945634 -0.061135836 -0.056413352 -0.23568992 0.12641174 0.002383312 -0.040056486
-0.18315043 -0.15603687 -0.035550877 -0.08497126 0.048807625 0.1606891 0.046100188 -0.05850158
0.19207056 -0.022254765 0.09111357 0.01793653 -0.030244289 0.10004727 0.12388034 -0.0213264
0.07256834 0.09989777 0.123107366 -0.23272085 0.037649654 -0.23570049 -0.086506575 0.027767086
0.01399833 -0.19248603 0.05853157 0.18616548 0.023744762 0.06296857 0.00877635 -0.15253118
0.035596114 -0.20423776 -0.13282885 0.13189864 0.028156817 0.07695963 -0.05907911 -0.19204786
-0.13664462 0.05533926 -0.061014365 0.010920558 -0.1673132 -0.24252477 0.14060946 -0.02481933
0.115332164 -0.03572442 0.20493844 -0.24791792 0.16951519 -0.23002253 -0.11327517 0.21871082
0.1975926 0.034794696 0.14724723 0.086161196 -0.20833395 -0.029490134 -0.25185406 -0.15121184
-0.059435327 0.21609363 -0.07455453 0.1334609 -0.16410625 -0.23493393 0.039267622 0.0010540956
0.22010253 -0.00020194054 0.042049803 -0.10974715 0.15255803 0.14822613 -0.2494031 -0.047072243
0.20754036 -0.069007844 0.024538115 0.19743866 -0.122394584 0.07478837 0.09268088 0.103841566
-0.04901594 -0.14844246 -0.08926833 -0.14065057 0.014394939 0.15265583 -0.018031389 -0.11402975
0.045996077 -0.18742359 -0.07809347 0.056132663 0.20277515 -0.08530976 -0.054845452 0.05141954
0.045122467 -0.24255331 -0.09981944 0.096481755 0.24556445 -0.08399997 -0.04093003 0.18221042
0.019862846 0.13183106 0.20778334 0.04410724 0.15938532 0.08173035 -0.104962945 -0.049729276
-0.13652977 -0.10729308 -0.18794309 -0.19235855 -0.03643258 0.07252747 0.020003501 -0.03778243
-0.2122439 0.19655757 0.10750817 0.119694985 0.22669266 0.12862723 0.06271932 0.06884178
0.06120506 -0.23548907 0.23169942 0.17451409 -0.17421302 -0.13460512 -0.20575786 0.18750408
00000000: 4f29 733e 5947 84bc 5303 643e 8e01 183e
00000010: ecd3 003d 7891 10be e337 57be edfc ca3d
00000020: 50bb 25be a214 623e d0fe 683e d013 5cbd
00000030: 20d6 273d ff55 08be f856 5abd 0018 683c
00000040: 319e ac3d f8f8 243e 8dad 163e 40b9 0bbe
00000050: f420 24be 1d12 6c3e 2852 8c3d a056 50be
00000060: 084b 7fbe f798 eabc 24dd 3abe 95bb bbbd
00000070: 7060 3dbe a294 1c3e e57e 4d3e baa3 093e
00000080: df21 b23d 7e30 49bc a731 b3bd 6135 73bc
00000090: 389c b73d d8a5 443e a0b1 c33c 989c 4ebe
000000a0: cfd4 9f3d 2062 073d db9e 44be c400 53be
000000b0: 9bae 63be ac41 b1bd 3846 4bbe a1dc 3bbe
000000c0: a15a fabd 65df 2f3d 3d63 0fbe 08af 763e
000000d0: d51c c8bd 906f 953d 522a 3a3e 9caa 09be
000000e0: 3a19 debd d410 043e bf03 e93d 5d82 2dbe
000000f0: d05b b63d b4bb 71be c3f4 ddbc 6526 2c3d
00000100: bd31 09be 4c69 0c3e 6c18 cf3d 09e5 dcbd
00000110: 0d23 07be c2d0 ec3c 09d1 0bbd c36c ce3d
00000120: 8096 493c b561 4f3e 3109 7abe 206e a9bd
00000130: 78cc 693e 9025 c7bd bfc8 87bb ed17 12be
00000140: 3987 3cbe 4005 81bc 1d8f 39be a1aa 033e
00000150: b6c9 313e abd3 62be e888 02be b85f 233e
00000160: 9aee 3e3e 1ad2 9b3c b4ba 7d3e b1dd 663e
00000170: 17c8 363e 51b5 cfbd b56d a23d fb0d 69be
00000180: b322 2f3e cd84 683e f377 7f3c 11e6 313b
00000190: 4002 713d 3a8b f0bd 00ae 02bc 0420 42bd
000001a0: f3b1 403c cf70 97bd 9269 7abd b011 67bd
000001b0: b358 71be 1472 013e 5731 1c3b 4512 24bd
000001c0: c98b 3bbe 21c8 1fbe cc9d 11bd 6905 aebd
000001d0: 81ea 473d af8b 243e 8dd3 3c3d 5a9f 6fbd
000001e0: 25ae 443e a04f b6bc c099 ba3d a1ef 923c
000001f0: dfc2 f7bc 95e5 cc3d fab4 fd3d b4b4 aebc
00000200: b69e 943d 3497 cc3d b71f fc3d 604e 6ebe
00000210: 8636 1a3d 785b 71be 5c2a b1bd cd77 e33c
00000220: 4059 653c 0f1b 45be cdbe 6f3d 2aa2 3e3e
00000230: 6084 c23c aaf5 803d aeca 0f3c 2231 1cbe
00000240: 3bcd 113d b423 51be 4904 08be 7010 073e
00000250: 20a9 e63c 039d 9d3d f0fc 71bd 32a8 44be
00000260: 91ec 0bbe 6bab 623d 33ea 79bd 24ec 323c
00000270: 2754 2bbe 6a58 78be edfb 0f3e e851 cbbc
00000280: 4533 ec3d c553 12bd 62db 513e 32de 7dbe
00000290: 6495 2d3e 078b 6bbe d0fc e7bd bbf5 5f3e
000002a0: b755 4a3e e284 0e3d fac7 163e 4875 b03d
000002b0: 7f55 55be 4b95 f1bc 04f3 80be 47d7 1abe
000002c0: 7572 73bd a647 5d3e 0cb0 98bd f9a9 083e
000002d0: 780b 28be 8592 70be 16d7 203d 9429 8a3a
000002e0: 8f62 613e 00c0 53b9 6a3c 2c3d 1dc3 e0bd
000002f0: 2c38 1c3e 97c8 173e 8763 7fbe d3ce 40bd
00000300: 7685 543e fc53 8dbd 2804 c93c 5c2d 4a3e
00000310: 03aa fabd a52a 993d 79cf bd3d e3aa d43d
00000320: f0c4 48bd 4d01 18be 50d2 b6bd b406 10be
00000330: c0d8 6b3c cf51 1c3e 90b6 93bc 6e88 e9bd
00000340: 6266 3c3d f8eb 3fbe 78ef 9fbd 5deb 653d
00000350: 4aa4 4f3e e2b6 aebd a0a5 60bd 4c9d 523d
00000360: 56d2 383d e55f 78be 226e ccbd 3a98 c53d
00000370: 3f75 7b3e 2d08 acbd 3fa6 27bd 5e95 3a3e
00000380: 68b7 a23c b9fe 063e 28c5 543e cba9 343d
00000390: e835 233e 3e62 a73d d0f6 d6bd edb0 4bbd
000003a0: 76ce 0bbe 79bc dbbd 2774 40be a4f9 44be
000003b0: 543a 15bd 4889 943d 62de a33c c0c1 1abd
000003c0: 7756 59be 6346 493e 3e2d dc3d a522 f53d
000003d0: 1f22 683e dbb6 033e fd72 803d ebfc 8c3d
000003e0: 28b2 7a3d 0c24 71be 9d42 6d3e d2b3 323e
000003f0: e664 32be edd5 09be 30b2 52be 1201 403e

sequential/dense_1/MatMul f4 [2, 32]
-0.23616026 0.30471122 -0.16332377 -0.33634833 0.20593491 -0.36353946 0.018046439 0.23268758
-0.051502764 0.062441178 0.18770745 -0.30778253 -0.33788317 0.4130214 0.10081099 -0.054590866
-0.045616746 -0.030013734 -0.3862039 -0.20553093 -0.1843225 0.05424872 0.29817078 0.0939918
-0.04093954 -0.3118188 0.135299 -0.1419611 0.063245416 0.2263166 0.26700443 -0.3194757
-0.21299931 0.05884955 -0.031321887 0.34058464 0.20338336 0.19496775 -0.27754012 -0.3708418
-0.0893002 0.4161097 0.081858665 -0.31061274 -0.013881898 0.32885176 0.29817805 0.29199427
-0.22704047 -0.07623879 0.11766142 0.0381988 -0.41413185 0.010382824 -0.4131695 0.3558199
0.35330382 0.26085562 -0.0673646 -0.1887111 -0.1681855 -0.121432096 0.10066754 -0.42400342
00000000: ffd3 71be 1c03 9c3e 593e 27be d935 acbe
00000010: 9ae0 523e d821 babe 20d6 933c a745 6e3e
00000020: 90f4 52bd 52c2 7f3d 6236 403e ac95 9dbe
00000030: 06ff acbe 8a77 d33e fe75 ce3d ac9a 5fbd
00000040: a0d8 3abd 5ddf f5bc 85bc c5be b376 52be
00000050: 0abf 3cbe e833 5e3d d7a9 983e c67e c03d
00000060: 38b0 27bd b7a6 9fbe d28b 0a3e 405e 11be
00000070: d086 813d 8abf 673e ceb4 883e 5292 a3be
00000080: 7e1c 5abe 3a0c 713d 614b 00bd 1c61 ae3e
00000090: ba43 503e a0a5 473e bd19 8ebe fade bdbe
000000a0: 06e3 b6bd 550c d53e 84a5 a73d a208 9fbe
000000b0: e670 63bc 425f a83e cbaa 983e 4680 953e
000000c0: 4c7d 68be 1523 9cbd 78f8 f03d 5876 1c3d
000000d0: 1709 d4be b81c 2a3c f48a d3be 072e b63e
000000e0: 3de4 b43e de8e 853e 74f6 89bd 7c3d 41be
000000f0: d238 2cbe 64b1 f8bd c92a ce3d fa16 d9be

sequential/lstm/lstm_cell_1/BiasAdd/ReadVariableOp/resource1 f4 [256]
0.011710753 0.0035915966 -0.009844705 -0.0052542523 0.00668306 -0.0025590826 0.0029133733 -0.00087015086
0.0 -0.006608045 -0.003255485 0.004289148 0.0 -0.004072227 0.0026191962 -0.0045250216
0.00339766 0.0 -0.0042202985 0.00072699826 0.001885399 0.0018993914 0.0 0.008421403
-0.005797572 -0.0007370823 -0.0043496834 0.0051035155 -0.0012656103 -0.0002254484 0.002271235 0.00095979037
-0.003930097 0.0050774603 -0.004026761 0.0034123752 0.0 -0.002173619 0.0 -0.006781632
-0.00521248 -0.0030883448 -0.0014058492 0.0 -0.012889868 0.0032385404 -0.0044430085 0.007029618
0.0048723896 -0.010078338 -0.0020720628 -0.00116039 0.0077178273 -0.0026748555 0.002718979 -0.0014890921
0.0052678236 0.0 0.00082142564 -0.0056514405 -0.0058744526 -0.0071366224 0.007679696 -0.010511356
1.0125612 1.0046277 0.99085104 0.9943713 1.0061594 0.9978441 1.0036539 0.99886054
1.0 0.9916699 0.99777925 1.0049655 1.0 0.99631923 1.0018831 0.99562293
1.0021917 1.0 0.99652326 1.0002073 1.0029072 1.0019447 1.0 1.0080947
0.9942021 1.001739 0.99567354 1.00688 1.0001613 0.99999744 1.0029354 1.0011925
0.9967915 1.0069057 0.99468213 1.002397 1.0 0.998902 1.0 0.9933436
0.9954426 0.99608314 0.99965554 1.0 0.9867581 1.0029168 1.0000411 1.0048524
1.0063758 0.99177957 0.9982905 0.998256 1.009969 0.99743587 1.0078653 0.9976969
1.0062263 1.0 1.0002304 0.9950054 0.99409086 0.9921954 1.0077688 0.9898363
0.004830834 0.0041173683 -0.007355047 -0.0043516047 0.006190337 -0.0053349673 0.005754363 -0.00042693564
0.0 -0.010568309 -0.004551604 0.0026941379 0.0 -0.0050768843 0.0020052 -0.0057832585
-0.001477245 0.0 0.0022570023 -9.406947e-05 0.004004712 0.0020942746 0.0 -0.0010401577
-0.0058171665 0.0012563039 -0.0064032692 -0.0025048836 -0.0066058715 -0.0031775115 0.004882243 -0.0030580657
-0.008337046 0.00188749 -0.0073124473 0.004216858 0.0 -0.0070001725 0.0 -0.0073654107
-0.005517545 -0.0063166437 -0.0041813524 0.0 -0.009983383 0.0034211392 -0.004543108 0.0005823501
-0.004023887 -0.006639492 0.0010702539 0.0014431824 0.008533703 -0.0015248813 -0.00195173 -0.005689015
0.0023803539 0.0 0.0015921644 -0.003173305 -0.0062425165 -0.0020110307 0.0024920157 -0.010937367
0.011218349 0.002638002 -0.010165626 -0.0056803375 0.0069016013 -0.002669003 0.0031957165 -0.0005078209
0.0 -0.006620566 -0.0036139844 0.004669654 0.0 -0.004923922 0.0022941541 -0.0047066845
0.0018737887 0.0 -0.0035449173 0.00043164328 0.0018933819 0.00022834144 0.0 0.009003306
-0.0057883775 0.0007998363 -0.004409994 0.006644166 -0.00086225756 -0.00020367294 0.0015940083 0.0016514307
-0.0034541455 0.004485622 -0.004734747 0.0036137013 0.0 -0.0015297085 0.0 -0.006579327
-0.0052624536 -0.0026034312 -0.0013289668 0.0 -0.013294595 0.002647521 -0.004431764 0.0058840085
0.0036989178 -0.009573965 -0.00251123 -0.0013313907 0.008612109 -0.0021599268 0.0025741355 -0.001036884
0.0062494813 0.0 0.00084110146 -0.005035115 -0.0058353962 -0.007693817 0.008271533 -0.01067577
00000000: 75de 3f3c fe60 6b3b b04b 21bc dd2b acbb
00000010: 92fd da3b 48b6 27bb 4bee 3e3b d61a 64ba
00000020: 0000 0000 4d88 d8bb fa59 55bb fb8b 8c3b
00000030: 0000 0000 5170 85bb d2a6 2b3b a246 94bb
00000040: 47ab 5e3b 0000 0000 6e4a 8abb 0794 3e3a
00000050: 7e1f f73a 00f5 f83a 0000 0000 edf9 093c
00000060: 8ff9 bdbb c138 41ba ca87 8ebb 643b a73b
00000070: d6e2 a5ba 5866 6cb9 00d9 143b 719a 7b3a
00000080: 0bc8 80bb d360 a63b ebf2 83bb 28a2 5f3b
00000090: 0000 0000 4773 0ebb 0000 0000 7438 debb
000000a0: 74cd aabb d465 4abb 7944 b8ba 0000 0000
000000b0: 0630 53bc b13d 543b a896 91bb b658 e63b
000000c0: 91a8 9f3b 9d1f 25bc 72cb 07bb 3a18 98ba
000000d0: d4e5 fc3b a14c 2fbb e630 323b a42d c3ba
000000e0: b59d ac3b 0000 0000 f154 573a b82f b9bb
000000f0: 7b7e c0bb 54da e9bb f6a5 fb3b d337 2cbc
00000100: 9b9b 813f a497 803f 6aa8 7d3f 1e8f 7e3f
00000110: d5c9 803f b672 7f3f bb77 803f 53b5 7f3f
00000120: 0000 803f 14de 7d3f 766e 7f3f b6a2 803f
00000130: 0000 803f c70e 7f3f b53d 803f 25e1 7e3f
00000140: d147 803f 0000 803f 261c 7f3f cb06 803f
00000150: 435f 803f b93f 803f 0000 803f 3f09 813f
00000160: 0784 7e3f fc38 803f 76e4 7e3f 72e1 803f
00000170: 4905 803f d5ff 7f3f 3060 803f 1327 803f
00000180: ba2d 7f3f 49e2 803f 7da3 7e3f 8b4e 803f
00000190: 0000 803f 0bb8 7f3f 0000 803f c44b 7e3f
000001a0: 54d5 7e3f 4eff 7e3f 6de9 7f3f 0000 803f
000001b0: 2e9c 7c3f 945f 803f 5901 803f 019f 803f
000001c0: ecd0 803f 44e5 7d3f f78f 7f3f b58d 7f3f
000001d0: aa46 813f f557 7f3f bb01 813f 1069 7f3f
000001e0: 06cc 803f 0000 803f 8d07 803f adb8 7e3f
000001f0: bd7c 7e3f 8500 7e3f 91fe 803f e965 7d3f
00000200: f94b 9e3b fdea 863b 9b02 f1bb e897 8ebb
00000210: 4fd8 ca3b f3d0 aebb 188f bc3b 55d6 dfb9
00000220: 0000 0000 b326 2dbc 9f25 95bb 2290 303b
00000230: 0000 0000 fe5b a6bb ac69 033b 7d81 bdbb
00000240: 1ea0 c1ba 0000 0000 37ea 133b 2a47 c5b8
00000250: f639 833b 1940 093b 0000 0000 e755 88ba
00000260: ee9d bebb 90aa a43a 84d2 d1bb f928 24bb
00000270: 1176 d8bb cc3d 50bb 39fb 9f3b d469 48bb
00000280: 1b98 08bc a865 f73a 419d efbb 922d 8a3b
00000290: 0000 0000 b461 e5bb 0000 0000 8b59 f1bb
000002a0: 86cc b4bb d9fb cebb ba03 89bb 0000 0000
000002b0: 5891 23bc 3135 603b 5ade 94bb dba8 183a
000002c0: d0da 83bb 1990 d9bb c347 8c3a 2a29 bd3a
000002d0: f2d0 0b3c 87de c7ba 31d1 ffba eb6a babb
000002e0: b6ff 1b3b 0000 0000 2cb0 d03a 39f7 4fbb
000002f0: 068e ccbb 7fcb 03bb 1651 233b a432 33bc
00000300: 2bcd 373c 54e2 2c3b ba8d 26bc 2022 babb
00000310: d426 e23b 71ea 2ebb 3a6f 513b 491f 05ba
00000320: 0000 0000 55f1 d8bb 99d8 6cbb e603 993b
00000330: 0000 0000 da58 a1bb 8559 163b 883a 9abb
00000340: ea99 f53a 0000 0000 d851 68bb 2e4e e239
00000350: 5b2b f83a f06e 6f39 0000 0000 9a82 133c
00000360: 6eac bdbb 1bac 513a b681 90bb 4eb7 d93b
00000370: 2009 62ba 0a91 55b9 0bee d03a d274 d83a
00000380: f25e 62bb 20fc 923b f025 9bbb d9d3 6c3b
00000390: 0000 0000 8080 c8ba 0000 0000 6597 d7bb
000003a0: a970 acbb 549e 2abb ba30 aeba 0000 0000
000003b0: 93d1 59bc 0882 2d3b 5538 91bb a4ce c03b
000003c0: 8b69 723b 1fdc 1cbc 7393 24bb 0f82 aeba
000003d0: ce19 0d3c 8f8d 0dbb d4b2 283b 0ee8 87ba
000003e0: 73c8 cc3b 0000 0000 5d7d 5c3a 9bfd a4bb
000003f0: da36 bfbb 6a1c fcbb 5385 073c 6de9 2ebc

sequential/lstm/while/lstm_cell_1/MatMul_1 f4 [256, 64]
0.05355039 0.08731703 0.10181971 0.07785176 0.06645462 0.03402542 0.07709196 0.015289407
-0.09350885 -0.004481793 -0.07374908 -0.026933398 0.0045885444 0.038964365 0.05661642 0.0274272
-0.0828772 -0.13560201 0.023208214 0.05200405 0.0144775165 0.057194058 -0.0953889 0.111506805
0.05095255 0.020862928 0.024504712 0.06934198 0.005275468 0.024691219 -0.010817661 -0.06520318
0.007493832 0.057242345 0.039400842 -0.036700636 -0.056767374 -0.028359525 -0.06925013 0.07730902
-0.028580379 -0.039936867 0.13343512 -0.118150614 0.009573473 0.074331276 -0.084050626 0.020972552
0.11319888 0.034418367 0.03264381 0.05057636 -0.07814812 0.009358625 -0.008939667 0.012340228
0.13659792 0.11389751 -0.028420137 0.029689247 -0.07310222 0.01450669 0.045044485 -0.086219035
0.11264835 0.15475267 -0.11007733 0.019997405 0.0672829 0.04151199 0.051554207 -0.05323858
0.07114126 0.03511757 -0.09307832 0.046028137 -0.1342296 0.02830616 -0.053375587 0.025689416
0.07212774 -0.009844807 0.12105768 0.03400384 0.10139673 0.0009718913 -0.013681696 0.0102456575
-0.018204225 -0.024633018 0.019935496 0.05806026 0.06282025 -0.0920153 -0.057917453 0.095759705
-0.03374245 -0.01983298 -0.024439191 0.025580801 0.0005645086 0.013323692 0.080270834 -0.058999937
0.05021235 0.01007461 0.0636785 0.030415442 0.030266814 -0.11866473 0.09938297 0.0108720055
-0.11133988 0.046063457 -0.046079736 0.036483288 -0.014825884 -0.011570337 0.06497723 0.03404763
-0.01416039 -0.0062242933 0.0004662017 0.022575665 0.059691217 -0.010704913 -0.042629637 0.055195518
0.0038025794 -0.058167852 0.06334061 0.07425775 0.112040795 0.026926918 -0.12899436 -0.03479295
0.020349387 -0.023435961 -0.052401524 0.024154518 -0.02010605 -0.09540292 0.029679324 0.050396916
-0.042682953 0.03408053 -0.043801114 -0.017141901 -0.09167323 -0.056564715 -0.036448464 0.049386125
-0.07998546 -0.06502869 0.033124086 -0.07373385 -0.015173697 -0.06569514 -0.053392135 -0.04070201
0.058326114 0.050750304 -0.022580419 -0.07253767 -0.14965034 0.17584096 0.07384004 0.012267122
-0.16842696 0.038132273 0.03373163 -0.030882148 0.051982153 -0.068811215 0.10597821 0.005606945
-0.047074236 -0.01175377 0.06562717 0.027823003 -0.006223071 -0.07284543 -0.056753185 0.049059574
0.034694158 -0.13362977 0.040060602 0.06141624 -0.0373526 0.015925726 -0.12335517 0.04621547
-0.049532995 0.07604752 0.10811818 0.000659166 0.071521506 -0.11036299 -0.08210553 0.011873584
-0.11249898 0.060268782 0.007941451 -0.03737942 -0.021042388 0.027697382 -0.03604799 0.10073336
0.106273204 -0.102083065 -0.021342542 0.025479252 0.04346999 0.1007242 -0.012182769 0.011869726
-0.041691557 -0.105699494 -0.019408086 0.13865022 -0.075737655 0.041301798 0.07769243 -0.014238899
0.108168624 0.05054305 -0.059367035 -0.108405754 0.009817553 0.14902966 -0.057374775 0.017087158
0.034320623 -0.06666534 -0.1725252 0.043048956 -0.032757938 0.0496033 -0.087455995 -0.110604465
0.008345239 -0.036716998 -0.013078744 0.021847896 0.03585503 -0.14362906 -0.02919101 -0.063074015
-0.0021044572 -0.016772369 0.07730698 -0.01805334 -0.013658952 -0.05122318 0.026795426 0.054206032
00000000: a757 5b3d 45d3 b23d da86 d03d be70 9f3d
00000010: 5c19 883d 3d5e 0b3d 64e2 9d3d 6c80 7a3c
00000020: 9181 bfbd 01dc 92bb c209 97bd 6ea3 dcbc
00000030: 805b 963b 1999 1f3d 9fe6 673d 02af e03c
00000040: 85bb a9bd 41db 0abe 271f be3c 3302 553d
00000050: 1b33 6d3c 5144 6a3d 415b c3bd ae5d e43d
00000060: 9fb3 503d bbe8 aa3c 1bbe c83c 2b03 8e3d
00000070: d5dd ac3b 3d45 ca3c 8f3c 31bc 3f89 85bd
00000080: d28e f53b f376 6a3d c762 213d 6853 16bd
00000090: e884 68bd 3c52 e8bc 03d3 8dbd 3154 9e3d
000000a0: 6621 eabc d794 23bd 37a3 083e f3f8 f1bd
000000b0: 0eda 1c3c ff3a 983d bc22 acbd a1ce ab3c
000000c0: d0d4 e73d 46fa 0c3d 84b5 053d 2829 4f3d
000000d0: 1f0c a0bd eb54 193c ae77 12bc ab2e 4a3c
000000e0: 53e0 0b3e 1943 e93d 59d1 e8bc dd36 f33c
000000f0: 9eb6 95bd 78ad 6d3c 9180 383d 9b93 b0bd
00000100: 2eb4 e63d 7c77 1e3e 3970 e1bd 99d1 a33c
00000110: 9ecb 893d 7a08 2a3d 812a 533d b210 5abd
00000120: 82b2 913d 71d7 0f3d d99f bebd 0088 3c3d
00000130: 7c73 09be 52e2 e73c 5ca0 5abd 9c72 d23c
00000140: b5b7 933d 1d4c 21bc 17ed f73d 9c47 0b3d
00000150: 17a9 cf3d 85c6 7e3a 3129 60bc 67dd 273c
00000160: 0721 95bc 2fcb c9bc c44f a33c 98d0 6d3d
00000170: e7a7 803d 8572 bcbd da3a 6dbd aa1d c43d
00000180: 8635 0abd c678 a2bc b334 c8bc d48e d13c
00000190: 88fb 133a 9d4b 5a3c 0965 a43d eba9 71bd
000001a0: 77ab 4d3d fa0f 253c e069 823d ce29 f93c
000001b0: 1cf2 f73c 7e06 f3bd 4c89 cb3d 7f20 323c
000001c0: 2a06 e4bd 09ad 3c3d 1bbe 3cbd 806f 153d
000001d0: 44e8 72bc 8391 3dbc c812 853d 8775 0b3d
000001e0: fb00 68bc 28f5 cbbb 886c f439 9af0 b83c
000001f0: c77e 743d a963 2fbc 6a9c 2ebd b214 623d
00000200: b234 793b 6a41 6ebd b9b8 813d 7214 983d
00000210: a575 e53d d795 dc3c 1917 04be 0d83 0ebd
00000220: c2b3 a63c c6fc bfbc fba2 56bd b2df c53c
00000230: 71b5 a4bc 9b62 c3bd 0e22 f33c ff6c 4e3d
00000240: 52d4 2ebd 0798 0b3d cc68 33bd 2c6d 8cbc
00000250: 2dbf bbbd 67b0 67bd fc4a 15bd 1b49 4a3d
00000260: 6bcf a3bd c32d 85bd 1fad 073d c601 97bd
00000270: 199b 78bc 2c8b 86bd b6b1 5abd 27b7 26bd
00000280: 5de7 6e3d 8ddf 4f3d 92fa b8bc a18e 94bd
00000290: f03d 19be a70f 343e 7239 973d 0afc 483c
000002a0: 1e78 2cbe 9630 1c3d 2d2a 0a3d 8ffc fcbc
000002b0: 3deb 543d e5ec 8cbd 1b0b d93d 77ba b73b
000002c0: ead0 40bd e292 40bc 8a67 863d 11ed e33c
000002d0: e7ea cbbb fc2f 95bd 0776 68bd b1f2 483d
000002e0: 761b 0e3d 3ed6 08be 9616 243d 988f 7b3d
000002f0: 0aff 18bd ab76 823c a3a1 fcbd 6f4c 3d3d
00000300: 1ce3 4abd cdbe 9b3d 106d dd3d e2cb 2c3a
00000310: de79 923d fe05 e2bd f226 a8bd 6c89 423c
00000320: dd65 e6bd 66dc 763d dc1c 023c 2a1b 19bd
00000330: 1661 acbc 9fe5 e23c 0fa7 13bd 4b4d ce3d
00000340: c4a5 d93d ed10 d1bd 8ed6 aebc ddb9 d03c
00000350: 970d 323d 7d48 ce3d 3d9a 47bc 3d79 423c
00000360: c4c4 2abd fa78 d8bd b5fd 9ebc 53fa 0d3e
00000370: 581c 9bbd 132c 293d 351d 9f3d 454a 69bc
00000380: 8387 dd3d 3b06 4f3d d92a 73bd d603 debd
00000390: cdd9 203c 3b9b 183e d001 6bbd 5efa 8b3c
000003a0: c893 0c3d d687 88bd 72aa 30be 1a54 303d
000003b0: 302d 06bd d42c 4b3d 211c b3bd 9884 e2bd
000003c0: 78ba 083c 9064 16bd 3a48 56bc 5cfa b23c
000003d0: b9dc 123d 7f13 13be fc21 efbc f32c 81bd
000003e0: efea 09bb 3566 89bc 1f53 9e3d 99e4 93bc
000003f0: ccc9 5fbc 66cf 51bd 1582 db3c 2507 5e3d

sequential/lstm/while/lstm_cell_1/MatMul f4 [256, 172]
-0.06654269 0.1294425 -0.025028046 -0.08377161 0.07159579 0.06652301 0.082086645 -0.04483483
-0.06710816 -0.020831978 0.10877639 0.12292421 -0.02932224 -0.08543625 0.058770537 0.0010703563
0.02509182 -0.10632971 0.09242359 0.011867314 0.11575471 0.09981782 -0.08229228 -0.08787964
0.10555255 0.053842098 0.061764397 0.08342429 0.08136578 0.10685002 0.027303936 0.02414417
0.11717694 0.06435957 0.05510571 -0.049325228 0.010460239 0.09138073 0.061133012 0.08645619
0.0394538 0.056385703 0.057751257 -0.07325168 0.053141337 0.07099959 0.02254137 0.030676847
0.079771236 -0.005202436 -0.10721087 -0.08867286 0.048939206 0.030558037 0.010610473 -0.098917425
0.07171962 0.06548923 -0.029463334 -0.09325112 0.053680986 -0.08382009 0.064315744 0.0059246896
-0.0596681 0.051788032 -0.020864205 -0.0014840169 0.09502888 0.054185577 0.020006755 -0.027978024
0.0015704532 0.028144492 0.054990754 0.07934056 -0.018073505 -0.037537828 -0.11790554 0.09229676
-0.026748206 -0.025435759 0.05462144 0.039053008 -0.009270369 -0.030853605 -0.07799084 0.10191319
0.12944561 -8.537117e-05 0.017628921 -0.072943754 -0.0071277237 0.09925167 -0.043739613 0.003148426
0.11141991 -0.040737137 -0.12126884 -0.061437692 0.057975173 0.04119669 0.05378512 0.09226858
0.069389 -0.090501904 -0.03695189 -0.042811476 -0.09700942 -0.10479269 -0.0771295 -0.07892707
0.056044336 0.10697669 0.017151972 0.10874354 0.09586744 -0.08241017 -0.060686428 -0.030493302
-0.09622928 -0.025251254 -0.037264977 0.08994109 -0.012178816 -0.08873214 0.013170916 0.00037698116
0.09019973 -0.078243874 -0.02391372 0.06737336 0.004536385 0.12663028 0.05211075 0.109166056
-0.04530438 0.018324692 0.11003008 -0.058087777 0.00554247 -0.080132104 0.01737405 -0.07943556
0.1334964 0.022815207 0.061324462 -0.029734662 0.07505179 -0.09197311 -0.09582077 0.016280511
0.01705727 -0.048971448 -0.02387811 -0.08089597 0.11427162 0.050030753 -0.08634874 0.12388327
-0.048103992 -0.060824033 -0.01612475 -0.00306846 -0.0027740533 0.002874806 0.09446413 0.06621222
-0.026275398 0.04100807 0.009121488 -0.051377878 -0.004748102 -0.093348145 -0.017376032 -0.026832288
0.019858778 0.005633205 0.05686585 -0.0055357013 0.023841236 -0.0013708941 0.023760842 -0.027544845
-0.0869284 0.043456875 -0.014533961 -0.07518488 0.0006559858 -0.03923971 -0.09594806 0.112318285
-0.048844915 -0.057517488 0.014254115 0.021880513 0.114709 -0.049612466 -0.059299648 0.045702152
0.009552745 -0.08689497 0.051387064 -0.048295077 0.09238115 0.046902396 -0.07362673 -0.070631064
0.112487264 -0.11128954 0.093821965 -0.04862156 0.0066473354 -0.04867226 0.052056152 0.09325516
0.019324433 0.089029305 0.038791366 0.110309646 -0.05116757 0.085595265 -0.029772092 0.059767667
0.12159652 0.079683244 -0.022675894 0.113590755 0.0977498 0.03811484 0.0006365334 -0.05109251
-0.10371692 0.051543064 -0.05653807 0.009403613 -0.000193259 -0.03962367 0.067295015 -0.010566674
0.027947156 -0.07844035 -0.09176426 -0.07102891 0.11222868 0.09399422 -0.042036142 -0.10918325
0.02872085 -0.09165427 0.010402307 0.055853374 -0.030200997 0.10562903 0.036568623 -0.049104307
00000000: 8947 88bd 938c 043e 9e07 cdbc 7390 abbd
00000010: d0a0 923d 373d 883d 0b1d a83d baa4 37bd
00000020: 0170 89bd d3a7 aabc 28c6 de3d b0bf fb3d
00000030: 3235 f0bc 33f9 aebd 60b9 703d 334b 8c3a
00000040: 5c8d cd3c 64c3 d9bd 9448 bd3d 1f6f 423c
00000050: ce10 ed3d 496d cc3d db88 a8bd 3efa b3bd
00000060: ef2b d83d 8889 5c3d aafc 7c3d 5bda aa3d
00000070: 1aa3 a63d 2fd4 da3d 81ac df3c ffc9 c53c
00000080: 77fa ef3d f3ce 833d 86b6 613d 4009 4abd
00000090: 6c61 2b3c d225 bb3d 9c66 7a3d f10f b13d
000000a0: 4f9a 213d b2f4 663d 958c 6c3d fa04 96bd
000000b0: bbaa 593d 3c68 913d aea8 b83c 034e fb3c
000000c0: 1a5f a33d 3279 aabb 5f91 dbbd 1e9a b5bd
000000d0: 7a74 483d d954 fa3c 8dd7 2d3c 3895 cabd
000000e0: bce1 923d 381f 863d 175d f1bc 71fa bebd
000000f0: 98e0 5b3d dea9 abbd f9b7 833d e623 c23b
00000100: 8a66 74bd b01f 543d 69eb aabc 5883 c2ba
00000110: 809e c23d b2f1 5d3d 35e5 a33c 2b32 e5bc
00000120: aad7 cd3a 478f e63c fc3d 613d 4e7d a23d
00000130: e30e 94bc 44c1 19bd 7678 f1bd 1506 bd3d
00000140: 0e1f dbbc a75e d0bc bbba 5f3d 0cf6 1f3d
00000150: bfe2 17bc b3c0 fcbc a9b9 9fbd ddb7 d03d
00000160: 648d 043e 4c09 b3b8 876a 903c 8963 95bd
00000170: ae8f e9bb 7644 cb3d 4f28 33bd d355 4e3b
00000180: 1f30 e43d fcdb 26bd cc5b f8bd 17a6 7bbd
00000190: 6077 6d3d dcbd 283d c94d 5c3d 4ff7 bc3d
000001a0: d21b 8e3d 1059 b9bd dd5a 17bd 165b 2fbd
000001b0: e0ac c6bd 8d9d d6bd 12f6 9dbd 84a4 a1bd
000001c0: bf8e 653d 9816 db3d 4b82 8c3c efb4 de3d
000001d0: 2656 c43d aac6 a8bd 5592 78bd 17cd f9bc
000001e0: db13 c5bd b8db cebc 29a3 18bd 0933 b83d
000001f0: a889 47bc 32b9 b5bd d3ca 573c 8ea5 c539
00000200: a3ba b83d 533e a0bd b5e6 c3bc 0bfb 893d
00000210: f5a5 943b 5eab 013e 1572 553d 7492 df3d
00000220: 1691 39bd aa1d 963c 7357 e13d 73ed 6dbd
00000230: 9c9d b53b 4d1c a4bd 0654 8e3c 1caf a2bd
00000240: 48b3 083e f5e6 ba3c 5c2f 7b3d 1b96 f3bc
00000250: c1b4 993d 665c bcbd ae3d c4bd b55e 853c
00000260: b0bb 8b3c 4996 48bd 079c c3bc c9ac a5bd
00000270: 3d07 ea3d 0ced 4c3d 9cd7 b0bd 83b6 fd3d
00000280: b108 45bd 9f22 79bd 0d18 84bc 3718 49bb
00000290: e4cc 35bb 3e67 3c3b 6976 c13d 469a 873d
000002a0: 813f d7bc 14f8 273d 4b72 153c 9c71 52bd
000002b0: f795 9bbb 502d bfbd 2e58 8ebc 63cf dbbc
000002c0: e0ae a23c c096 b83b 2aec 683d d464 b5bb
000002d0: b24e c33c 93af b3ba 19a6 c23c baa5 e1bc
000002e0: 8407 b2bd d6ff 313d da1f 6ebc 88fa 99bd
000002f0: 76f6 2b3a d1b9 20bd 6b80 c4bd 2107 e63d
00000300: 9b11 48bd 7597 6bbd 178a 693c c33e b33c
00000310: 8dec ea3d 7136 4bbd 30e4 72bd 2e32 3b3d
00000320: 1e83 1c3c fdf5 b1bd 3e7b 523d 0fd1 45bd
00000330: 5432 bd3d ba1c 403d 9cc9 96bd 05a7 90bd
00000340: b95f e63d c5eb e3bd bb25 c03d 6727 47bd
00000350: e4d1 d93b 905c 47bd d538 553d 90fc be3d
00000360: 464e 9e3c ff54 b63d b2e3 1e3d 06ea e13d
00000370: 1695 51bd 924c af3d 9ae4 f3bc f1ce 743d
00000380: 9907 f93d f830 a33d ccc2 b9bc 45a2 e83d
00000390: 0c31 c83d 4e1e 1c3d 09dd 263a 6146 51bd
000003a0: 8969 d4bd d21e 533d 7794 67bd 9d11 1a3c
000003b0: 91a5 4ab9 6e4c 22bd f8d1 893d d81f 2dbc
000003c0: 6ff1 e43c 56a5 a0bd e6ee bbbd 9b77 91bd
000003d0: 26d8 e53d 0b80 c03d 172e 2cbd 789b dfbd
000003e0: fd47 eb3c 3cb5 bbbd 706e 2a3c 82c6 643d
000003f0: 1568 f7bc 0854 d83d fbc8 153d 9921 49bd
