models/walking_model.tflite (tflite, 271036 bytes, 9 tensors)

sequential/lstm/TensorArrayV2_1 f4 [30, 1, 64]
0	0x00000000	0.0
1	0x00000000	0.0
2	0x00000000	0.0
3	0x00000000	0.0
4	0x00000000	0.0
5	0x00000000	0.0
6	0x00000000	0.0
7	0x00000000	0.0
8	0x00000000	0.0
9	0x00000000	0.0
10	0x00000000	0.0
11	0x00000000	0.0
12	0x00000000	0.0
13	0x00000000	0.0
14	0x00000000	0.0
15	0x00000000	0.0
16	0x00000000	0.0
17	0x00000000	0.0
18	0x00000000	0.0
19	0x00000000	0.0
20	0x00000000	0.0
21	0x00000000	0.0
22	0x00000000	0.0
23	0x00000000	0.0
24	0x00000000	0.0
25	0x00000000	0.0
26	0x00000000	0.0
27	0x00000000	0.0
28	0x00000000	0.0
29	0x00000000	0.0
30	0x00000000	0.0
31	0x00000000	0.0
32	0x00000000	0.0
33	0x00000000	0.0
34	0x00000000	0.0
35	0x00000000	0.0
36	0x00000000	0.0
37	0x00000000	0.0
38	0x00000000	0.0
39	0x00000000	0.0
40	0x00000000	0.0
41	0x00000000	0.0
42	0x00000000	0.0
43	0x00000000	0.0
44	0x00000000	0.0
45	0x00000000	0.0
46	0x00000000	0.0
47	0x00000000	0.0
48	0x00000000	0.0
49	0x00000000	0.0
50	0x00000000	0.0
51	0x00000000	0.0
52	0x00000000	0.0
53	0x00000000	0.0
54	0x00000000	0.0
55	0x00000000	0.0
56	0x00000000	0.0
57	0x00000000	0.0
58	0x00000000	0.0
59	0x00000000	0.0
60	0x00000000	0.0
61	0x00000000	0.0
62	0x00000000	0.0
63	0x00000000	0.0
64	0x00000000	0.0
65	0x00000000	0.0
66	0x00000000	0.0
67	0x00000000	0.0
68	0x00000000	0.0
69	0x00000000	0.0
70	0x00000000	0.0
71	0x00000000	0.0
72	0x00000000	0.0
73	0x00000000	0.0
74	0x00000000	0.0
75	0x00000000	0.0
76	0x00000000	0.0
77	0x00000000	0.0
78	0x00000000	0.0
79	0x00000000	0.0
80	0x00000000	0.0
81	0x00000000	0.0
82	0x00000000	0.0
83	0x00000000	0.0
84	0x00000000	0.0
85	0x00000000	0.0
86	0x00000000	0.0
87	0x00000000	0.0
88	0x00000000	0.0
89	0x00000000	0.0
90	0x00000000	0.0
91	0x00000000	0.0
92	0x00000000	0.0
93	0x00000000	0.0
94	0x00000000	0.0
95	0x00000000	0.0
96	0x00000000	0.0
97	0x00000000	0.0
98	0x00000000	0.0
99	0x00000000	0.0
100	0x00000000	0.0
101	0x00000000	0.0
102	0x00000000	0.0
103	0x00000000	0.0
104	0x00000000	0.0
105	0x00000000	0.0
106	0x00000000	0.0
107	0x00000000	0.0
108	0x00000000	0.0
109	0x00000000	0.0
110	0x00000000	0.0
111	0x00000000	0.0
112	0x00000000	0.0
113	0x00000000	0.0
114	0x00000000	0.0
115	0x00000000	0.0
116	0x00000000	0.0
117	0x00000000	0.0
118	0x00000000	0.0
119	0x00000000	0.0
120	0x00000000	0.0
121	0x00000000	0.0
122	0x00000000	0.0
123	0x00000000	0.0
124	0x00000000	0.0
125	0x00000000	0.0
126	0x00000000	0.0
127	0x00000000	0.0
128	0x00000000	0.0
129	0x00000000	0.0
130	0x00000000	0.0
131	0x00000000	0.0
132	0x00000000	0.0
133	0x00000000	0.0
134	0x00000000	0.0
135	0x00000000	0.0
136	0x00000000	0.0
137	0x00000000	0.0
138	0x00000000	0.0
139	0x00000000	0.0
140	0x00000000	0.0
141	0x00000000	0.0
142	0x00000000	0.0
143	0x00000000	0.0
144	0x00000000	0.0
145	0x00000000	0.0
146	0x00000000	0.0
147	0x00000000	0.0
148	0x00000000	0.0
149	0x00000000	0.0
150	0x00000000	0.0
151	0x00000000	0.0
152	0x00000000	0.0
153	0x00000000	0.0
154	0x00000000	0.0
155	0x00000000	0.0
156	0x00000000	0.0
157	0x00000000	0.0
158	0x00000000	0.0
159	0x00000000	0.0
160	0x00000000	0.0
161	0x00000000	0.0
162	0x00000000	0.0
163	0x00000000	0.0
164	0x00000000	0.0
165	0x00000000	0.0
166	0x00000000	0.0
167	0x00000000	0.0
168	0x00000000	0.0
169	0x00000000	0.0
170	0x00000000	0.0
171	0x00000000	0.0
172	0x00000000	0.0
173	0x00000000	0.0
174	0x00000000	0.0
175	0x00000000	0.0
176	0x00000000	0.0
177	0x00000000	0.0
178	0x00000000	0.0
179	0x00000000	0.0
180	0x00000000	0.0
181	0x00000000	0.0
182	0x00000000	0.0
183	0x00000000	0.0
184	0x00000000	0.0
185	0x00000000	0.0
186	0x00000000	0.0
187	0x00000000	0.0
188	0x00000000	0.0
189	0x00000000	0.0
190	0x00000000	0.0
191	0x00000000	0.0
192	0x00000000	0.0
193	0x00000000	0.0
194	0x00000000	0.0
195	0x00000000	0.0
196	0x00000000	0.0
197	0x00000000	0.0
198	0x00000000	0.0
199	0x00000000	0.0
200	0x00000000	0.0
201	0x00000000	0.0
202	0x00000000	0.0
203	0x00000000	0.0
204	0x00000000	0.0
205	0x00000000	0.0
206	0x00000000	0.0
207	0x00000000	0.0
208	0x00000000	0.0
209	0x00000000	0.0
210	0x00000000	0.0
211	0x00000000	0.0
212	0x00000000	0.0
213	0x00000000	0.0
214	0x00000000	0.0
215	0x00000000	0.0
216	0x00000000	0.0
217	0x00000000	0.0
218	0x00000000	0.0
219	0x00000000	0.0
220	0x00000000	0.0
221	0x00000000	0.0
222	0x00000000	0.0
223	0x00000000	0.0
224	0x00000000	0.0
225	0x00000000	0.0
226	0x00000000	0.0
227	0x00000000	0.0
228	0x00000000	0.0
229	0x00000000	0.0
230	0x00000000	0.0
231	0x00000000	0.0
232	0x00000000	0.0
233	0x00000000	0.0
234	0x00000000	0.0
235	0x00000000	0.0
236	0x00000000	0.0
237	0x00000000	0.0
238	0x00000000	0.0
239	0x00000000	0.0
240	0x00000000	0.0
241	0x00000000	0.0
242	0x00000000	0.0
243	0x00000000	0.0
244	0x00000000	0.0
245	0x00000000	0.0
246	0x00000000	0.0
247	0x00000000	0.0
248	0x00000000	0.0
249	0x00000000	0.0
250	0x00000000	0.0
251	0x00000000	0.0
252	0x00000000	0.0
253	0x00000000	0.0
254	0x00000000	0.0
255	0x00000000	0.0

sequential/dense/BiasAdd/ReadVariableOp/resource f4 [32]
0	0x3cd37b3e	0.025815602
1	0x3bae92ed	0.0053275735
2	0xbc82193f	-0.015881179
3	0xbaee778f	-0.001819359
4	0xbc2acb18	-0.010424398
5	0xbba03549	-0.0048891646
6	0x3a33aeb1	0.0006854339
7	0xb28c8e26	-1.6362787e-08
8	0xbc06bdad	-0.008223933
9	0xbb10c9c1	-0.002209291
10	0x3c48f453	0.012265283
11	0x3c3bb89b	0.011457588
12	0x3b8e2c59	0.0043387827
13	0x3abb5d6d	0.0014294811
14	0x3c26af33	0.010173607
15	0x3b80d395	0.0039314725
16	0xbc2eaa51	-0.010660724
17	0x3c5af7bf	0.013364731
18	0x3bf0870b	0.007340317
19	0xbbea444e	-0.007149256
20	0xbc0b7dca	-0.008513877
21	0x3c1342f0	0.008988127
22	0xbb05e2d5	-0.0020429392
23	0x3bed4410	0.0072407797
24	0xbba9c4d9	-0.005180937
25	0xbbc4becb	-0.0060041896
26	0xbbc4c528	-0.006004948
27	0xbc027e28	-0.007964648
28	0xbbfe57e1	-0.007761941
29	0x3bab68ef	0.005231015
30	0x00000000	0.0
31	0x3be49132	0.0069753164

sequential/dense_1/BiasAdd/ReadVariableOp/resource f4 [2]
0	0x3b923997	0.0044624317
1	0xbb92399b	-0.0044624335

sequential/lstm/lstm_cell_1/BiasAdd/ReadVariableOp/resource f4 [256]
0	0xbba40f64	-0.0050067175
1	0xbbe99e9a	-0.0071295025
2	0xbc1d268a	-0.009591708
3	0xb9114147	-0.00013852595
4	0xbbe15855	-0.006876985
5	0x3bc0b0d1	0.005880453
6	0x3b6ebd57	0.0036428773
7	0xbbe3d469	-0.0069528115
8	0xa94e4fca	-4.5810395e-14
9	0xbbdf4cef	-0.006814591
10	0x3b1dcfe3	0.002408021
11	0xbc3d1771	-0.011541233
12	0xbbff5d90	-0.007793136
13	0x3bb13a36	0.0054085506
14	0xbc0603ac	-0.008179586
15	0xbc08149a	-0.008305693
16	0xb2a39faa	-1.9048304e-08
17	0xbad18db4	-0.0015987665
18	0xbadf06e3	-0.0017015602
19	0xbbbae155	-0.005703131
20	0xbc1aa630	-0.009439036
21	0xbb9b7938	-0.004744675
22	0xbbaf1c38	-0.00534394
23	0xbc02accd	-0.007975769
24	0x3be5ca41	0.007012636
25	0xbc0aaa92	-0.008463519
26	0xbbcf23c5	-0.0063214027
27	0x3bb13cc0	0.0054088533
28	0x3aa6a2cb	0.0012713311
29	0x3bc65b61	0.0060533737
30	0x3b327400	0.0027229786
31	0xbbce371e	-0.0062931916
32	0x3b989005	0.0046558403
33	0xbc191ac0	-0.009344757
34	0xbb0fbffc	-0.00219345
35	0x3c2a5d9d	0.010398296
36	0x3b94ac0f	0.0045371125
37	0xbb4b23cd	-0.003099668
38	0x3bb68a66	0.0055706976
39	0xb981b632	-0.00024740543
40	0x3b3cbd6c	0.0028799428
41	0x3b6895db	0.0035489711
42	0x3bf3c527	0.007439274
43	0x00000000	0.0
44	0x3c44722f	0.011990114
45	0xbc14fec7	-0.009093947
46	0xbb4cf4b0	-0.0031273775
47	0x3b70077e	0.003662556
48	0x3c1d9721	0.0096185515
49	0x00000000	0.0
50	0xaa4e3dc5	-1.8317906e-13
51	0xbb44cb90	-0.003002856
52	0xbbfb3945	-0.007666739
53	0x3bb3570d	0.0054730237
54	0xbb88a973	-0.0041705905
55	0xbb53880d	-0.0032277138
56	0xb9ca696d	-0.0003860699
57	0xbc09de06	-0.008414751
58	0x3b5a47c7	0.0033306943
59	0xbbc34cf6	-0.005960102
60	0x3beb05af	0.0071723084
61	0x3bf38b73	0.007432395
62	0xbbc980a8	-0.00614937
63	0x3b975a3d	0.0046189115
64	0x3f7eaefb	0.9948575
65	0x3f7e4bba	0.993343
66	0x3f7d91e4	0.99050736
67	0x3f7fff37	0.999988
68	0x3f7dc13f	0.99122995
69	0x3f80d2c4	1.006432
70	0x3f804842	1.0022051
71	0x3f807935	1.003699
72	0x3f800000	1.0
73	0x3f7ef862	0.9959775
74	0x3f8036cb	1.0016721
75	0x3f7d9179	0.990501
76	0x3f7e18b9	0.99256474
77	0x3f80acf9	1.0052787
78	0x3f7de3d4	0.99175763
79	0x3f7de104	0.9917147
80	0x3f800000	1.0
81	0x3f7f6d78	0.9977641
82	0x3f7cf6aa	0.9881388
83	0x3f7e8426	0.9942039
84	0x3f7e4ea2	0.99338734
85	0x3f7ecb22	0.99528706
86	0x3f7ee36f	0.99565786
87	0x3f7dee5b	0.99191827
88	0x3f80ed09	1.0072337
89	0x3f7dcc3f	0.9913978
90	0x3f7e64ce	0.99372566
91	0x3f808f48	1.0043726
92	0x3f80624f	1.0030001
93	0x3f80c26c	1.0059333
94	0x3f8064cf	1.0030764
95	0x3f7eb336	0.99492204
96	0x3f80b227	1.0054368
97	0x3f7db531	0.991046
98	0x3f7f40d3	0.9970829
99	0x3f815271	1.0103284
100	0x3f80a107	1.0049142
101	0x3f7ed942	0.9955026
102	0x3f7ea840	0.9947548
103	0x3f7fe9e8	0.9996629
104	0x3f7fc133	0.99904174
105	0x3f8046e4	1.0021634
106	0x3f80f275	1.0073992
107	0x3f800000	1.0
108	0x3f81bbb2	1.0135405
109	0x3f7e0081	0.9921952
110	0x3f7ff93a	0.99989665
111	0x3f8028dc	1.0012469
112	0x3f814337	1.0098637
113	0x3f800000	1.0
114	0x3f800000	1.0
115	0x3f7e66cf	0.99375623
116	0x3f7dfc01	0.9921265
117	0x3f810ff4	1.0082994
118	0x3f7ebbf9	0.99505574
119	0x3f7f2872	0.9967109
120	0x3f80288e	1.0012376
121	0x3f7de322	0.991747
122	0x3f80a327	1.004979
123	0x3f7e0f9b	0.9924256
124	0x3f8116bd	1.0085064
125	0x3f811f32	1.0087645
126	0x3f7e6a0f	0.9938058
127	0x3f80ddcb	1.0067686
128	0xbbaed2e1	-0.0053351973
129	0xbb3cac68	-0.0028789286
130	0xbc1ade43	-0.009452405
131	0xbb2b80c7	-0.0026169287
132	0xbb2b8ef5	-0.0026177738
133	0xbabd9d30	-0.0014466401
134	0x3a9fa457	0.0012179714
135	0xbc7dc93b	-0.015489872
136	0xacb05776	-5.011931e-12
137	0xba9a971a	-0.0011794299
138	0xbbc9c70e	-0.0061577624
139	0xbbb85737	-0.005625631
140	0xbbfdada3	-0.0077416464
141	0x3a6ab713	0.0008953672
142	0xbbbace1b	-0.005700839
143	0xbbdfb3fb	-0.0068268753
144	0xb51f87be	-5.9429647e-07
145	0x3b1cd20c	0.0023928909
146	0xbbf86ec0	-0.007581562
147	0xbb1eb6ef	-0.0024217924
148	0xbc5d12d8	-0.013493262
149	0xbb960f4b	-0.00457946
150	0xbbfd5e9e	-0.0077322265
151	0xbc1dbbcd	-0.009627295
152	0x3bb3548b	0.005472725
153	0xbbf2f576	-0.007414515
154	0xbbf35371	-0.0074257185
155	0x3b93c3e0	0.004509434
156	0x3a8d0c47	0.0010761105
157	0x3a3a84fa	0.0007115152
158	0xba56ada0	-0.0008189324
159	0xbb402c0e	-0.0029323134
160	0x3b7d7cc9	0.0038679114
161	0xbc403e52	-0.011733608
162	0xb9af0f9a	-0.00033390225
163	0x3b9b9646	0.0047481386
164	0xb52745a0	-6.2313666e-07
165	0xbb90c09a	-0.004417491
166	0x3b5a19e9	0.0033279604
167	0x3bf9bbf4	0.0076212827
168	0x3c0d13b1	0.008610652
169	0x3b7c3885	0.0038485837
170	0xbb454bc9	-0.0030104986
171	0x00000000	0.0
172	0x3c02385f	0.00794801
173	0xbac28d09	-0.0014843057
174	0xba2766a6	-0.000638584
175	0x3b317535	0.0027077917
176	0x3bf883f3	0.007584089
177	0x00000000	0.0
178	0xad3a29ee	-1.0582186e-11
179	0xbb0a86f9	-0.002113758
180	0xbc43ada9	-0.011943259
181	0x3bbb4dd0	0.005716063
182	0x3b703320	0.0036651567
183	0xbad02bf4	-0.001588224
184	0xba814bde	-0.0009864529
185	0xbc08c549	-0.008347818
186	0x3a713a6b	0.00092021254
187	0xbc0abdbe	-0.00846809
188	0xb9acd92d	-0.00032968205
189	0x3c1049d5	0.008806665
190	0xbbdd3042	-0.0067501375
191	0xbb956d27	-0.004560131
192	0xbba36eb1	-0.0049875607
193	0xbbb02f55	-0.005376736
194	0xbc1e7ef4	-0.009673823
195	0xb87a9234	-5.9740807e-05
196	0xbbef81da	-0.0073091807
197	0x3ba7a6a7	0.005116302
198	0x3ae41846	0.0017402254
199	0xbc1587d8	-0.009126626
200	0xa9a6976e	-7.39815e-14
201	0xbb85d4f4	-0.004084224
202	0x3ac9dbd3	0.0015400596
203	0xbc18c6e9	-0.009324768
204	0xbbff4284	-0.0077899117
205	0x3b96a090	0.0045967773
206	0xbc031b1e	-0.008002071
207	0xbc17de26	-0.009269273
208	0xb2fb34f0	-2.9244319e-08
209	0x3a6f63a6	0.0009131975
210	0xbb82e11b	-0.00399412
211	0xbba9d94f	-0.005183376
212	0xbc1c7429	-0.009549179
213	0xbb9bfc2b	-0.0047602854
214	0xbb58f9f2	-0.0033107963
215	0xbc059e26	-0.008155381
216	0x3bcea3ce	0.006306148
217	0xbc0b47e2	-0.008501025
218	0xbbd1aef9	-0.006399032
219	0x3ba476c6	0.0050190417
220	0x3ac76f7f	0.0015215724
221	0x3b36014e	0.0027771774
222	0x3b92e7ec	0.0044832136
223	0xbbdcce75	-0.006738479
224	0x3baf11ae	0.0053426838
225	0xbc0f65d9	-0.00875231
226	0xbac7fa5f	-0.0015257112
227	0x3c29787e	0.010343669
228	0x3b755c27	0.003743896
229	0xbb827bfd	-0.0039820657
230	0x3c03b704	0.00803924
231	0xbac24364	-0.0014821109
232	0xbb11246b	-0.002214695
233	0x3b035c92	0.002004419
234	0x3bccf012	0.0062542045
235	0x00000000	0.0
236	0x3c4c907c	0.01248562
237	0xbc0369c5	-0.008020823
238	0xbb5ef465	-0.0034020182
239	0x3a15cf92	0.00057148293
240	0x3c22c68f	0.009935035
241	0x00000000	0.0
242	0xab290c0f	-6.0057596e-13
243	0xbb320e3c	-0.002716913
244	0xbbf6d0a3	-0.0075321957
245	0x3bebba69	0.0071938527
246	0xbbab1b31	-0.0052217473
247	0xbb572007	-0.0032825486
248	0x392e9f8e	0.00016653372
249	0xbc09694f	-0.008386924
250	0x3b921397	0.0044579017
251	0xbbc8b636	-0.006125237
252	0x3c0e5e6f	0.008689507
253	0x3bfb7e19	0.007674944
254	0xbbca15c8	-0.0061671473
255	0xbb6d13a2	-0.0036175032

sequential/dense/MatMul f4 [32, 64]
0	0xbd6bb170	-0.057542264
1	0x3e032930	0.1280868
2	0x3d3b7050	0.045761406
3	0xbd05a340	-0.03262639
4	0x3d65a213	0.05606277
5	0x3e4dc5fc	0.20095056
6	0xbe805035	-0.25061193
7	0xbe6010e5	-0.21881445
8	0x3e03e7f4	0.12881452
9	0x3e28652d	0.16444845
10	0xbdba6f08	-0.09103209
11	0x3e22c034	0.15893632
12	0x3df85314	0.12125221
13	0x3e0e2d45	0.13884456
14	0xbe5d29c8	-0.2159797
15	0x3e472bfd	0.19450374
16	0xbe7e477c	-0.24831957
17	0x3de6e06d	0.112732746
18	0x3d299c43	0.04140879
19	0x3c92a5d7	0.017901344
20	0xbe6dbda8	-0.2321688
21	0xbda2af18	-0.07943553
22	0x3d8e5b08	0.069509566
23	0xbcdd9358	-0.027047798
24	0x3e6dacd4	0.2321046
25	0x3da16f98	0.07882613
26	0xbe189213	-0.14899473
27	0x3df94244	0.12170842
28	0xbc410161	-0.011780114
29	0xbe774a67	-0.24149476
30	0x3e139a20	0.14414263
31	0xbe173e3b	-0.14769833
32	0x3dc68e7f	0.09695148
33	0x3e6f58ce	0.2337372
34	0x3df149a3	0.11781623
35	0xbdf9dbb5	-0.12200109
36	0x3de2e5f3	0.110790156
37	0x3cd715a4	0.026255436
38	0xbd2ea617	-0.042638864
39	0x3d87d924	0.06633213
40	0xbde4b677	-0.11167615
41	0xbe3cf953	-0.18454485
42	0xbd36db94	-0.044643
43	0xbe105e80	-0.14098549
44	0x3e3cae80	0.18425941
45	0xbe23408a	-0.15942588
46	0x3d9036b4	0.07041684
47	0xbe013c29	-0.12620606
48	0x3e61ce5f	0.2205138
49	0x3e1ba6f0	0.152004
50	0x3e34997c	0.17636675
51	0xbe343337	-0.17597662
52	0xbe34f104	-0.17670065
53	0x3e3388ac	0.17532605
54	0x3bb77700	0.0055989027
55	0xbd20c38c	-0.039248988
56	0xbce5c2dc	-0.028047018
57	0x3ca19066	0.019722175
58	0x3ccc937d	0.024972672
59	0x3e10b1a8	0.1413027
60	0xbe5bb1f7	-0.21454607
61	0x3e812f5a	0.2523144
62	0x3e345677	0.17611109
63	0x3e23ec1c	0.16008037
64	0xbe42d5d8	-0.19026887
65	0xbe4b33f0	-0.19844031
66	0x3e3fe35c	0.18739074
67	0x3dd85541	0.10563136
68	0x3e2c3d69	0.16820301
69	0x3b0f17a7	0.0021834166
70	0xbe3e03a2	-0.18556073
71	0xbe185989	-0.14877905
72	0x3cacb980	0.021084547
73	0x3e50d70d	0.20394535
74	0x3e07be42	0.13256171
75	0xbce49549	-0.027903216
76	0xbdd0b221	-0.101902254
77	0xbe75ca2b	-0.24002902
78	0x3d406e70	0.04698032
79	0x3df5bda1	0.119990595
80	0x3e32671c	0.17422146
81	0xbe17a70b	-0.14809816
82	0xbbefb400	-0.007315159
83	0xbdda9798	-0.106734455
84	0x3d52b3a9	0.05144087
85	0xbb209b00	-0.002450645
86	0xbda4e7d6	-0.08052032
87	0xbdf42c3b	-0.11922499
88	0xbe07165e	-0.13192126
89	0xbe27f05c	-0.16400284
90	0xbda998a0	-0.08281064
91	0xbe50c656	-0.20388159
92	0x3cae6afb	0.021291247
93	0xbda2420f	-0.07922756
94	0x3e13cd10	0.14433694
95	0xbe267118	-0.1625408
96	0x3d3cb620	0.046072125
97	0x3e69f9a4	0.22849137
98	0xbe7733f7	-0.24140917
99	0x3e238fda	0.15972844
100	0x3e067af3	0.13132839
101	0xbe237e3c	-0.15966123
102	0x3dc76207	0.09735494
103	0x3cd50ef4	0.026008107
104	0x3e778880	0.24173164
105	0xbd8f53fe	-0.06998442
106	0xbda30230	-0.079594016
107	0xbde1dd00	-0.110284805
108	0x3db428b4	0.08796826
109	0x3e0f95eb	0.14022033
110	0xbe374ab8	-0.17899597
111	0x3d1c58ce	0.03817063
112	0xbe5acec6	-0.2136794
113	0xbe38b0e0	-0.18036222
114	0x3e36b244	0.1784144
115	0xbe40c587	-0.1882535
116	0xbe0a7bf0	-0.13523841
117	0x3e1f5568	0.15559924
118	0x3c530f40	0.012882054
119	0xbd27af86	-0.040938877
120	0xbe4c535f	-0.19953679
121	0xbe673a0c	-0.22580737
122	0xbd9c2796	-0.07624738
123	0xbe76054c	-0.24025458
124	0xbdad22ac	-0.08453879
125	0xbe146276	-0.14490685
126	0xbd0a8f77	-0.033828225
127	0xbd87ba38	-0.06627315
128	0x3e032a94	0.12809211
129	0x3e4a4266	0.19751891
130	0xbded85f4	-0.11597815
131	0xbe2a8bf4	-0.1665495
132	0x3e0b9324	0.13630348
133	0x3b439b1a	0.0029847086
134	0x3ddd3d24	0.10802677
135	0x3c2d0576	0.010560384
136	0x3d88b710	0.066755414
137	0xbe80b69c	-0.2513932
138	0xbe007db0	-0.12547946
139	0xbd9c417e	-0.07629679
140	0x3e66517a	0.22492018
141	0x3da5ed7e	0.08101939
142	0x3e13126c	0.14362496
143	0x3e4c6124	0.19958931
144	0x3c89a4e8	0.016802266
145	0x3d89a355	0.06720606
146	0xbcd95671	-0.026530476
147	0xba994ff6	-0.0011696804
148	0xbd92f4c0	-0.071755886
149	0x3e357884	0.17721754
150	0xbd153b48	-0.036433488
151	0xbe34d94f	-0.17661022
152	0x3d90cd08	0.070703566
153	0xbdaa9ca0	-0.08330655
154	0x3e6dad40	0.23210621
155	0xbd9ac4b2	-0.07557048
156	0x3e011052	0.12603882
157	0x3d99978b	0.07499608
158	0xbe171c1e	-0.1475682
159	0x3ce7f7fd	0.028316492
160	0x3dae5464	0.0851219
161	0x3e01debd	0.12682624
162	0xbddf72cd	-0.109105684
163	0xbd86ba18	-0.06578463
164	0xbdb9295c	-0.09041092
165	0x3ce3c790	0.02780512
166	0xbe67b269	-0.22626652
167	0xbc3c6b7b	-0.011500235
168	0xbe32665f	-0.17421864
169	0x3e5e8bb3	0.21732979
170	0x3dc81ffe	0.09771727
171	0x3d404be0	0.04694736
172	0x3de0445b	0.10950538
173	0x3e1bfae3	0.15232424
174	0xbd636c80	-0.055523396
175	0xbe2e4c16	-0.17021212
176	0x3cb3a665	0.021929929
177	0xbd235ce0	-0.039883494
178	0x3e1f4534	0.15553743
179	0xbe73bccb	-0.23802488
180	0x3e5c77a4	0.21530014
181	0xbe31e4dc	-0.17372459
182	0x3deffbea	0.11717971
183	0xbe785425	-0.24250849
184	0xbe12fc36	-0.14354023
185	0x3d66aede	0.05631911
186	0x3c75b980	0.01499784
187	0xbdb6849a	-0.089120105
188	0xbce13c88	-0.027494684
189	0x3e01cb2f	0.12675165
190	0xbe277d58	-0.16356409
191	0xbe186123	-0.14880805
192	0xbd6f7774	-0.05846353
193	0x3dd3d47d	0.10343263
194	0x3d39f3ea	0.04539863
195	0x3e0917f8	0.1338805
196	0x3e0a9e8f	0.13537048
197	0x3e4c90a7	0.19977055
198	0xbe6ac735	-0.22927554
199	0xbe579467	-0.21052705
200	0xbd5d9270	-0.05409473
201	0xbe3f859f	-0.18703316
202	0x3d866063	0.06561353
203	0xbe46e9ca	-0.19425121
204	0x3c134ac5	0.008989994
205	0x3e3ff043	0.18743996
206	0xbd849808	-0.0647431
207	0xbdb4dbdd	-0.08830998
208	0xbe310590	-0.17287278
209	0x3e668e68	0.22515261
210	0x3daa7de5	0.08324794
211	0x3df8bc03	0.121452354
212	0xbd621720	-0.055197835
213	0xbdaaa7d3	-0.08332791
214	0xbe07577a	-0.13216963
215	0x3e5263bc	0.20545858
216	0x3e4a44f8	0.19752872
217	0xbe296418	-0.16542089
218	0xbe033261	-0.12812187
219	0x3e46626c	0.19373482
220	0x3d3f46d8	0.04669842
221	0x3d5c7611	0.053823534
222	0xbc6aea1c	-0.014338043
223	0xbdf56122	-0.11981417
224	0xbcdbda8c	-0.02683761
225	0xbe4103fb	-0.18849175
226	0x3e011aea	0.12607923
227	0x3e59cd05	0.21269615
228	0x3e505ef1	0.20348717
229	0x3976e658	0.00023546198
230	0xbe7025c5	-0.23451908
231	0x3da9c3e5	0.08289317
232	0xbe05cb5c	-0.13065857
233	0x3e513b6c	0.20432824
234	0x3d8da841	0.069168575
235	0xbe2de6dc	-0.16982597
236	0xbdd7d738	-0.105390966
237	0xbdebd1d0	-0.11514628
238	0x3e0a8894	0.13528663
239	0xbe766f74	-0.24065953
240	0x3e77bac6	0.24192342
241	0xbe2526cc	-0.16128081
242	0x3e010b54	0.12601978
243	0x3ddd77da	0.108138755
244	0x3e3f8f81	0.18707086
245	0x3e6da448	0.232072
246	0xbe17f749	-0.14840426
247	0x3e41081e	0.18850753
248	0xbe630f91	-0.22173907
249	0x3e628f85	0.22125061
250	0xbd8b1b82	-0.06792356
251	0x3db4b82f	0.08824193
252	0xbd95f471	-0.07322014
253	0xbdd78c24	-0.105247766
254	0xbb5872b0	-0.0033027343
255	0xbe27a286	-0.16370592

sequential/dense_1/MatMul f4 [2, 32]
0	0xbec5531d	-0.38539973
1	0x3cea70eb	0.028618297
2	0x3e165d55	0.14684041
3	0xbec158ca	-0.37763053
4	0xbdbaa233	-0.09112968
5	0xbe37cb23	-0.17948584
6	0xbed76ff0	-0.4207759
7	0x3e98f5af	0.29874942
8	0x3e8cff21	0.27538398
9	0xbe394edd	-0.1809649
10	0xbe6fe9ce	-0.23429033
11	0xbdb8635b	-0.090033256
12	0x3ed25b1e	0.41085142
13	0xbd166ac8	-0.03672293
14	0x3df7f7ef	0.121078365
15	0xbeaa6965	-0.33283535
16	0x3e9cf6bd	0.30656996
17	0xbe92c1ae	-0.2866339
18	0x3e3cc512	0.18434551
19	0xbe321edd	-0.17394586
20	0x3db70cf6	0.08938019
21	0x3ec83511	0.39102986
22	0x3e120337	0.14259039
23	0x3dce99cd	0.10087929
24	0x3ea5cd85	0.3238336
25	0xbe1e8a5c	-0.15482467
26	0x3ebc0f8e	0.36730617
27	0xbd9515bb	-0.072795354
28	0x3cf72322	0.03016812
29	0x3e98ee78	0.29869437
30	0x3e599bd2	0.21250847
31	0x3e2764ce	0.16347048
32	0xbe93d6b0	-0.2887473
33	0xbece5d4b	-0.40305552
34	0x3e55545b	0.2083296
35	0x3e4c6cdd	0.19963403
36	0xbebeb87e	-0.3725013
37	0x3ce2c309	0.02768089
38	0x3ea67c80	0.3251686
39	0x3e6ae5f2	0.2293928
40	0x3d51c316	0.05121144
41	0xbc60b9f2	-0.013716208
42	0xbeaa5824	-0.3327037
43	0xbebf4f97	-0.3736541
44	0xbd2fcd10	-0.042920172
45	0x3decf1a7	0.11569529
46	0xbdebe553	-0.115183495
47	0xbed44300	-0.41457367
48	0xbe87777f	-0.26458356
49	0xbeaf2b48	-0.34212708
50	0xbec36a1a	-0.38166887
51	0xbe8c6ae4	-0.274253
52	0xbd6afd30	-0.057370365
53	0x3d8abb8e	0.067740545
54	0x3dca1fcc	0.09869346
55	0x3e9773ba	0.2958048
56	0x3ecca595	0.3997008
57	0x3e49bc2c	0.19700688
58	0xbe26e989	-0.16300024
59	0x3eb389a1	0.3506594
60	0x3e59614b	0.2122852
61	0xbe9e7c5f	-0.30954263
62	0xbeb39dfe	-0.35081476
63	0xbc4e702e	-0.012599988

sequential/lstm/lstm_cell_1/BiasAdd/ReadVariableOp/resource1 f4 [256]
0	0xbba40f64	-0.0050067175
1	0xbbe99e9a	-0.0071295025
2	0xbc1d268a	-0.009591708
3	0xb9114147	-0.00013852595
4	0xbbe15855	-0.006876985
5	0x3bc0b0d1	0.005880453
6	0x3b6ebd57	0.0036428773
7	0xbbe3d469	-0.0069528115
8	0xa94e4fca	-4.5810395e-14
9	0xbbdf4cef	-0.006814591
10	0x3b1dcfe3	0.002408021
11	0xbc3d1771	-0.011541233
12	0xbbff5d90	-0.007793136
13	0x3bb13a36	0.0054085506
14	0xbc0603ac	-0.008179586
15	0xbc08149a	-0.008305693
16	0xb2a39faa	-1.9048304e-08
17	0xbad18db4	-0.0015987665
18	0xbadf06e3	-0.0017015602
19	0xbbbae155	-0.005703131
20	0xbc1aa630	-0.009439036
21	0xbb9b7938	-0.004744675
22	0xbbaf1c38	-0.00534394
23	0xbc02accd	-0.007975769
24	0x3be5ca41	0.007012636
25	0xbc0aaa92	-0.008463519
26	0xbbcf23c5	-0.0063214027
27	0x3bb13cc0	0.0054088533
28	0x3aa6a2cb	0.0012713311
29	0x3bc65b61	0.0060533737
30	0x3b327400	0.0027229786
31	0xbbce371e	-0.0062931916
32	0x3b989005	0.0046558403
33	0xbc191ac0	-0.009344757
34	0xbb0fbffc	-0.00219345
35	0x3c2a5d9d	0.010398296
36	0x3b94ac0f	0.0045371125
37	0xbb4b23cd	-0.003099668
38	0x3bb68a66	0.0055706976
39	0xb981b632	-0.00024740543
40	0x3b3cbd6c	0.0028799428
41	0x3b6895db	0.0035489711
42	0x3bf3c527	0.007439274
43	0x00000000	0.0
44	0x3c44722f	0.011990114
45	0xbc14fec7	-0.009093947
46	0xbb4cf4b0	-0.0031273775
47	0x3b70077e	0.003662556
48	0x3c1d9721	0.0096185515
49	0x00000000	0.0
50	0xaa4e3dc5	-1.8317906e-13
51	0xbb44cb90	-0.003002856
52	0xbbfb3945	-0.007666739
53	0x3bb3570d	0.0054730237
54	0xbb88a973	-0.0041705905
55	0xbb53880d	-0.0032277138
56	0xb9ca696d	-0.0003860699
57	0xbc09de06	-0.008414751
58	0x3b5a47c7	0.0033306943
59	0xbbc34cf6	-0.005960102
60	0x3beb05af	0.0071723084
61	0x3bf38b73	0.007432395
62	0xbbc980a8	-0.00614937
63	0x3b975a3d	0.0046189115
64	0x3f7eaefb	0.9948575
65	0x3f7e4bba	0.993343
66	0x3f7d91e4	0.99050736
67	0x3f7fff37	0.999988
68	0x3f7dc13f	0.99122995
69	0x3f80d2c4	1.006432
70	0x3f804842	1.0022051
71	0x3f807935	1.003699
72	0x3f800000	1.0
73	0x3f7ef862	0.9959775
74	0x3f8036cb	1.0016721
75	0x3f7d9179	0.990501
76	0x3f7e18b9	0.99256474
77	0x3f80acf9	1.0052787
78	0x3f7de3d4	0.99175763
79	0x3f7de104	0.9917147
80	0x3f800000	1.0
81	0x3f7f6d78	0.9977641
82	0x3f7cf6aa	0.9881388
83	0x3f7e8426	0.9942039
84	0x3f7e4ea2	0.99338734
85	0x3f7ecb22	0.99528706
86	0x3f7ee36f	0.99565786
87	0x3f7dee5b	0.99191827
88	0x3f80ed09	1.0072337
89	0x3f7dcc3f	0.9913978
90	0x3f7e64ce	0.99372566
91	0x3f808f48	1.0043726
92	0x3f80624f	1.0030001
93	0x3f80c26c	1.0059333
94	0x3f8064cf	1.0030764
95	0x3f7eb336	0.99492204
96	0x3f80b227	1.0054368
97	0x3f7db531	0.991046
98	0x3f7f40d3	0.9970829
99	0x3f815271	1.0103284
100	0x3f80a107	1.0049142
101	0x3f7ed942	0.9955026
102	0x3f7ea840	0.9947548
103	0x3f7fe9e8	0.9996629
104	0x3f7fc133	0.99904174
105	0x3f8046e4	1.0021634
106	0x3f80f275	1.0073992
107	0x3f800000	1.0
108	0x3f81bbb2	1.0135405
109	0x3f7e0081	0.9921952
110	0x3f7ff93a	0.99989665
111	0x3f8028dc	1.0012469
112	0x3f814337	1.0098637
113	0x3f800000	1.0
114	0x3f800000	1.0
115	0x3f7e66cf	0.99375623
116	0x3f7dfc01	0.9921265
117	0x3f810ff4	1.0082994
118	0x3f7ebbf9	0.99505574
119	0x3f7f2872	0.9967109
120	0x3f80288e	1.0012376
121	0x3f7de322	0.991747
122	0x3f80a327	1.004979
123	0x3f7e0f9b	0.9924256
124	0x3f8116bd	1.0085064
125	0x3f811f32	1.0087645
126	0x3f7e6a0f	0.9938058
127	0x3f80ddcb	1.0067686
128	0xbbaed2e1	-0.0053351973
129	0xbb3cac68	-0.0028789286
130	0xbc1ade43	-0.009452405
131	0xbb2b80c7	-0.0026169287
132	0xbb2b8ef5	-0.0026177738
133	0xbabd9d30	-0.0014466401
134	0x3a9fa457	0.0012179714
135	0xbc7dc93b	-0.015489872
136	0xacb05776	-5.011931e-12
137	0xba9a971a	-0.0011794299
138	0xbbc9c70e	-0.0061577624
139	0xbbb85737	-0.005625631
140	0xbbfdada3	-0.0077416464
141	0x3a6ab713	0.0008953672
142	0xbbbace1b	-0.005700839
143	0xbbdfb3fb	-0.0068268753
144	0xb51f87be	-5.9429647e-07
145	0x3b1cd20c	0.0023928909
146	0xbbf86ec0	-0.007581562
147	0xbb1eb6ef	-0.0024217924
148	0xbc5d12d8	-0.013493262
149	0xbb960f4b	-0.00457946
150	0xbbfd5e9e	-0.0077322265
151	0xbc1dbbcd	-0.009627295
152	0x3bb3548b	0.005472725
153	0xbbf2f576	-0.007414515
154	0xbbf35371	-0.0074257185
155	0x3b93c3e0	0.004509434
156	0x3a8d0c47	0.0010761105
157	0x3a3a84fa	0.0007115152
158	0xba56ada0	-0.0008189324
159	0xbb402c0e	-0.0029323134
160	0x3b7d7cc9	0.0038679114
161	0xbc403e52	-0.011733608
162	0xb9af0f9a	-0.00033390225
163	0x3b9b9646	0.0047481386
164	0xb52745a0	-6.2313666e-07
165	0xbb90c09a	-0.004417491
166	0x3b5a19e9	0.0033279604
167	0x3bf9bbf4	0.0076212827
168	0x3c0d13b1	0.008610652
169	0x3b7c3885	0.0038485837
170	0xbb454bc9	-0.0030104986
171	0x00000000	0.0
172	0x3c02385f	0.00794801
173	0xbac28d09	-0.0014843057
174	0xba2766a6	-0.000638584
175	0x3b317535	0.0027077917
176	0x3bf883f3	0.007584089
177	0x00000000	0.0
178	0xad3a29ee	-1.0582186e-11
179	0xbb0a86f9	-0.002113758
180	0xbc43ada9	-0.011943259
181	0x3bbb4dd0	0.005716063
182	0x3b703320	0.0036651567
183	0xbad02bf4	-0.001588224
184	0xba814bde	-0.0009864529
185	0xbc08c549	-0.008347818
186	0x3a713a6b	0.00092021254
187	0xbc0abdbe	-0.00846809
188	0xb9acd92d	-0.00032968205
189	0x3c1049d5	0.008806665
190	0xbbdd3042	-0.0067501375
191	0xbb956d27	-0.004560131
192	0xbba36eb1	-0.0049875607
193	0xbbb02f55	-0.005376736
194	0xbc1e7ef4	-0.009673823
195	0xb87a9234	-5.9740807e-05
196	0xbbef81da	-0.0073091807
197	0x3ba7a6a7	0.005116302
198	0x3ae41846	0.0017402254
199	0xbc1587d8	-0.009126626
200	0xa9a6976e	-7.39815e-14
201	0xbb85d4f4	-0.004084224
202	0x3ac9dbd3	0.0015400596
203	0xbc18c6e9	-0.009324768
204	0xbbff4284	-0.0077899117
205	0x3b96a090	0.0045967773
206	0xbc031b1e	-0.008002071
207	0xbc17de26	-0.009269273
208	0xb2fb34f0	-2.9244319e-08
209	0x3a6f63a6	0.0009131975
210	0xbb82e11b	-0.00399412
211	0xbba9d94f	-0.005183376
212	0xbc1c7429	-0.009549179
213	0xbb9bfc2b	-0.0047602854
214	0xbb58f9f2	-0.0033107963
215	0xbc059e26	-0.008155381
216	0x3bcea3ce	0.006306148
217	0xbc0b47e2	-0.008501025
218	0xbbd1aef9	-0.006399032
219	0x3ba476c6	0.0050190417
220	0x3ac76f7f	0.0015215724
221	0x3b36014e	0.0027771774
222	0x3b92e7ec	0.0044832136
223	0xbbdcce75	-0.006738479
224	0x3baf11ae	0.0053426838
225	0xbc0f65d9	-0.00875231
226	0xbac7fa5f	-0.0015257112
227	0x3c29787e	0.010343669
228	0x3b755c27	0.003743896
229	0xbb827bfd	-0.0039820657
230	0x3c03b704	0.00803924
231	0xbac24364	-0.0014821109
232	0xbb11246b	-0.002214695
233	0x3b035c92	0.002004419
234	0x3bccf012	0.0062542045
235	0x00000000	0.0
236	0x3c4c907c	0.01248562
237	0xbc0369c5	-0.008020823
238	0xbb5ef465	-0.0034020182
239	0x3a15cf92	0.00057148293
240	0x3c22c68f	0.009935035
241	0x00000000	0.0
242	0xab290c0f	-6.0057596e-13
243	0xbb320e3c	-0.002716913
244	0xbbf6d0a3	-0.0075321957
245	0x3bebba69	0.0071938527
246	0xbbab1b31	-0.0052217473
247	0xbb572007	-0.0032825486
248	0x392e9f8e	0.00016653372
249	0xbc09694f	-0.008386924
250	0x3b921397	0.0044579017
251	0xbbc8b636	-0.006125237
252	0x3c0e5e6f	0.008689507
253	0x3bfb7e19	0.007674944
254	0xbbca15c8	-0.0061671473
255	0xbb6d13a2	-0.0036175032

sequential/lstm/while/lstm_cell_1/MatMul_1 f4 [256, 64]
0	0xb8d7f6a5	-0.0001029794
1	0xbc04d68c	-0.008107793
2	0xbc1fa5a8	-0.009744085
3	0x3d8bd777	0.06828206
4	0xbdf4b8a3	-0.11949279
5	0x3da0cd5a	0.07851668
6	0xbceb9b90	-0.028760701
7	0xb925c600	-0.00015809387
8	0xbdbf05b8	-0.09327263
9	0x3cb838ea	0.022488076
10	0xbd39d349	-0.045367513
11	0xbc696dd6	-0.014247378
12	0x3d2f4016	0.042785726
13	0x3b9584b8	0.0045629404
14	0xbbec7ba0	-0.0072168857
15	0x3da76e79	0.08175368
16	0xbb8561a0	-0.0040704757
17	0xbcb6227d	-0.022233242
18	0xbd9b79b6	-0.07591574
19	0xbd72f29c	-0.0593134
20	0xbd8cb087	-0.068696074
21	0xbd8d8558	-0.06910199
22	0xbdb68a6a	-0.08913119
23	0x3db5864c	0.08863506
24	0x3d62679a	0.055274583
25	0xbda57240	-0.08078432
26	0x3e01d8e7	0.12680398
27	0xbe008712	-0.12551525
28	0x3d813b4b	0.06310137
29	0x3d1f9a4f	0.03896552
30	0x3a792bbb	0.00095051125
31	0x3d09d785	0.0336528
32	0xbdc4638c	-0.095892996
33	0x3d8a25d6	0.06745498
34	0xbd208da5	-0.039197583
35	0xbda78de5	-0.08181361
36	0xbd89e3c4	-0.06732896
37	0xbd9afbf8	-0.075675905
38	0x3cbcd5e8	0.023051217
39	0x3d95ab1a	0.07308026
40	0xbd327abe	-0.043574087
41	0x3d74d80d	0.059776355
42	0x3d225893	0.039635252
43	0xbc8b7e60	-0.017028034
44	0x3b9eabce	0.004842258
45	0x3db4c27a	0.08826156
46	0xbdfd5a3a	-0.12370725
47	0xbd87f068	-0.06637651
48	0xbe25782d	-0.16159125
49	0x3dc791a5	0.09744576
50	0x3d34862a	0.04407326
51	0x3d9a8e65	0.07546691
52	0xbdc7ffa0	-0.097655535
53	0xbc590cdf	-0.013247698
54	0xbd0066b0	-0.03134793
55	0x3d84f976	0.064928934
56	0x3d71301d	0.058883775
57	0xbbec4ead	-0.0072115273
58	0xbd273f9c	-0.040832147
59	0xbd7c3e72	-0.06158299
60	0xbd802824	-0.06257656
61	0xbcd209e2	-0.025639478
62	0x3bf6c3a8	0.0075306483
63	0xbdf00074	-0.117188364
64	0x3d5e9709	0.054343257
65	0x3e23f598	0.16011655
66	0x3dd1bcf5	0.10241119
67	0xbd89f0c7	-0.06735378
68	0x3cf3ecb8	0.029775962
69	0xbcfe2c47	-0.031026972
70	0x3d150361	0.036380176
71	0xbcf4ed16	-0.029898208
72	0x3dbd120d	0.092319585
73	0xbd3c75d1	-0.046010796
74	0x3d4aca38	0.049509257
75	0xbcd45ef4	-0.025924183
76	0x3e01f677	0.12691675
77	0x3d9bf32e	0.07614742
78	0xbd345d0c	-0.04403405
79	0xbbdbaa2e	-0.0067036366
80	0xbd86f32a	-0.065893486
81	0x3d1dae05	0.038496036
82	0x3d2b1cdd	0.041775573
83	0xbc502a12	-0.012705343
84	0x3b5f6bed	0.0034091428
85	0x3db22c5f	0.08699869
86	0x3d25cd28	0.040478855
87	0xbd9e9cbf	-0.07744741
88	0xbd98c44b	-0.07459315
89	0xbc99a208	-0.01875402
90	0xbb94ebb9	-0.004544702
91	0xbde85d2e	-0.113458976
92	0x3d333147	0.043748166
93	0xbd922d25	-0.07137517
94	0xbd36011b	-0.044434648
95	0xbc96fac2	-0.018430118
96	0x3d7a8dee	0.06117051
97	0x3da47696	0.08030431
98	0xbb6fa37d	-0.0036565952
99	0xbbcc37f6	-0.006232257
100	0x3c8dcc1d	0.017309243
101	0x3d23bb21	0.039973382
102	0x3cdd3c42	0.027006272
103	0xbdca1b34	-0.0986847
104	0x3d828e66	0.063748166
105	0xbd839f9b	-0.06426927
106	0xbd12c597	-0.035832968
107	0x3da471d8	0.080295265
108	0xbc28c07d	-0.010299799
109	0x3d8b3452	0.06797089
110	0xbbdd5966	-0.006755042
111	0xbd1103fc	-0.03540419
112	0xbdab53b5	-0.08365575
113	0xbdd0ac27	-0.101890855
114	0xbd601de4	-0.054716006
115	0xbd26cea0	-0.040724397
116	0x3c636186	0.013878232
117	0x3d1229d7	0.035684433
118	0x3d5b751a	0.053578474
119	0xbdaea0fa	-0.085267976
120	0x3d201eab	0.039091747
121	0xbdd417ad	-0.10356078
122	0xbd689366	-0.056781195
123	0xbe015bc1	-0.12632658
124	0xbd853354	-0.06503931
125	0xbdccd5a0	-0.10001683
126	0xbbb34b1b	-0.0054715998
127	0xbdf3215a	-0.11871596
128	0xbd4d4fec	-0.050125048
129	0x3d3f7fde	0.046752803
130	0x3e079908	0.1324197
131	0x3d432bea	0.0476493
132	0xbd8f1aa1	-0.06987501
133	0xbce6ce86	-0.02817465
134	0xbd34d2c3	-0.04414631
135	0x3d855c65	0.065117635
136	0x3cce1987	0.025158657
137	0xbd09e16f	-0.033662256
138	0xbcffc6e7	-0.031222774
139	0xba64fe5b	-0.00087354117
140	0xbc8d9305	-0.017282018
141	0xbdca3443	-0.098732494
142	0x3dc79060	0.09744334
143	0xbd8f3a7c	-0.06993577
144	0x3d0eb676	0.034841977
145	0x3d603de3	0.05474652
146	0xbcf4b1f8	-0.029870018
147	0x3c66d598	0.014089011
148	0xbce09361	-0.027414026
149	0x3dc226ef	0.09480082
150	0xbd001741	-0.031272177
151	0x3bee8252	0.007278719
152	0x3cfc5a78	0.030804858
153	0x3d0bfaa0	0.03417456
154	0xbac90a51	-0.0015338158
155	0xbdbdc365	-0.09265784
156	0x3c178884	0.009248856
157	0x3af30449	0.0018540706
158	0xbdceab96	-0.10091321
159	0x3db93735	0.09043733
160	0xbb8b49a8	-0.004250724
161	0x3cc1058f	0.02356222
162	0xba90edef	-0.0011057238
163	0x3cda34af	0.02663645
164	0x3dd8cad4	0.105855614
165	0x3d19f496	0.03758677
166	0x3caf7a4e	0.021420624
167	0x3c904fa5	0.017616102
168	0x3defb1e0	0.11703849
169	0xbdd6778b	-0.1047202
170	0x3ab8c966	0.0014098107
171	0xbd2a3046	-0.041549943
172	0xbd291c38	-0.041286677
173	0xbcb227db	-0.02174752
174	0xbd14a832	-0.036293216
175	0x3e02e91d	0.12784238
176	0x3d986151	0.07440437
177	0xbd6c4ca6	-0.057690285
178	0x3dcac866	0.09901504
179	0xbc86837f	-0.016420124
180	0x3b2c6a5c	0.0026308512
181	0x3db3f547	0.08787017
182	0xbceb5c99	-0.028730677
183	0xbd27ca46	-0.040964387
184	0xbd7c028d	-0.06152587
185	0x3e00e5bc	0.12587637
186	0xbd54ad4b	-0.051923078
187	0xbcd06137	-0.02543698
188	0x3b6e6ff2	0.0036382643
189	0xbd725d38	-0.05917093
190	0xbbfb33b7	-0.007666077
191	0xbd36e19a	-0.044648744
192	0xbb476ae1	-0.0030428695
193	0xba7ea929	-0.0009714538
194	0xbd461833	-0.048362922
195	0x38c06447	9.1739515e-05
196	0xbd3759d4	-0.0447634
197	0x3d3e0185	0.046388168
198	0xbd5d60ef	-0.05404752
199	0xbbb3f567	-0.0054919007
200	0xbcef5511	-0.029215368
201	0x3d5d0c5b	0.05396686
202	0xbc4a953d	-0.012364683
203	0xbcad2ad0	-0.021138579
204	0x3d639e9b	0.05557118
205	0x3d72efb4	0.05931063
206	0x3c9d36f0	0.019191235
207	0x3d7c395f	0.06157815
208	0x3e30aeec	0.17254227
209	0x3cc2e493	0.023790633
210	0xbd0e43e5	-0.034732718
211	0xbdd04c17	-0.10170763
212	0x3c7c9184	0.015415553
213	0x3d45a3d1	0.04825193
214	0x3d25bb7c	0.040462002
215	0x3c8c809c	0.01715117
216	0x3b9b8fcb	0.004747366
217	0xbd36714b	-0.04454164
218	0xbde7c22a	-0.11316331
219	0x3d5878a4	0.052849427
220	0xbce039cc	-0.02737131
221	0xbda9a7b9	-0.08283944
222	0xbe025b33	-0.12730102
223	0x3e0f23b0	0.13978457
224	0x398f6fe0	0.0002735844
225	0xbd0f3f9e	-0.03497278
226	0x3c055694	0.008138318
227	0xbd571a69	-0.05251542
228	0x3d935a53	0.07194962
229	0x3d94e4fb	0.07270237
230	0x3cbddbc0	0.023176074
231	0xbc792909	-0.015207537
232	0xbdc38c81	-0.09548283
233	0x3d1249d4	0.03571494
234	0xba46c87a	-0.0007582974
235	0xbd512bf0	-0.051067293
236	0xbc7ffcef	-0.015624269
237	0xbb4c68ee	-0.0031190473
238	0xbc6c52bf	-0.014424025
239	0x3c8b1b02	0.016980652
240	0x3e25b4f3	0.16182308
241	0x3d23e3b9	0.040012095
242	0xbc419df0	-0.01181744
243	0xbb185342	-0.0023242985
244	0x3dacc3a3	0.08435752
245	0xbd1ba6c7	-0.03800085
246	0x3c786961	0.015161843
247	0xbc540f5f	-0.012943118
248	0x3a250225	0.000629457
249	0x3c07a736	0.008279612
250	0xbb90a371	-0.004414015
251	0x3d8957e6	0.067062184
252	0x3d2b0280	0.04175043
253	0x3ccde95c	0.025135688
254	0xbca44811	-0.020053895
255	0xbd2583b5	-0.04040881

sequential/lstm/while/lstm_cell_1/MatMul f4 [256, 172]
0	0xbdf68213	-0.120365284
1	0xbb2b2d90	-0.0026119687
2	0xbd02e57d	-0.03195714
3	0xbb931e77	-0.0044897157
4	0x3c8eb582	0.017420534
5	0xbd9d9686	-0.07694726
6	0xbc42daa3	-0.011892947
7	0x3d18ee49	0.03733662
8	0xbda50974	-0.08058444
9	0xbd98c6ba	-0.07459779
10	0x3c78e364	0.015190933
11	0x3ddf3fdd	0.10900853
12	0x3dcdbcf9	0.10045809
13	0x3d819483	0.063271545
14	0x3d8533b9	0.06504006
15	0xbdcb0fb3	-0.09915104
16	0xbcf1be50	-0.029509693
17	0xbdb831ea	-0.08993895
18	0x3d01ff10	0.031737387
19	0xbdcda61f	-0.10041451
20	0x3cf98961	0.030461015
21	0x3ad5e754	0.0016319552
22	0xbde998fb	-0.11406132
23	0xbd83b8cb	-0.06431731
24	0xbdc10d03	-0.0942631
25	0x3db6904d	0.08914242
26	0x3bfb1f13	0.0076636164
27	0xbda79953	-0.08183541
28	0x3cc3b3d1	0.023889454
29	0x3cd9dbe0	0.026594102
30	0xbd34f15d	-0.044175494
31	0x3dddc44b	0.108284555
32	0x3c68166f	0.014165505
33	0xbd3385d6	-0.043828808
34	0xbdaca971	-0.08430756
35	0xbda60f88	-0.08108431
36	0xbd0f802d	-0.035034347
37	0xbdb5cfa2	-0.088774934
38	0xbd84c4c7	-0.06482845
39	0xbdb262e0	-0.08710265
40	0x3b5c18b3	0.0033584058
41	0x3cb6a169	0.022293763
42	0xbd65fc21	-0.056148652
43	0x3d4d83de	0.050174586
44	0x3dcaddc4	0.0990558
45	0x3d18561d	0.0371915
46	0xbdb47950	-0.08812201
47	0xbde49d97	-0.111628704
48	0xbcf94979	-0.030430542
49	0x3c17a529	0.009255686
50	0x3d76f670	0.060293615
51	0x3b856491	0.0040708263
52	0xbc5a1953	-0.013311702
53	0xbd5e939a	-0.054339983
54	0x3d731c6b	0.059353273
55	0xbd4bc6e8	-0.04975024
56	0x3d94717f	0.0724821
57	0x3dc0cbf2	0.094138995
58	0x3d80fb90	0.06297982
59	0x3c9dd9d2	0.019268904
60	0x3d285258	0.041094154
61	0x3ddffc9c	0.10936853
62	0x3ce2da04	0.027691849
63	0xbdc76fec	-0.09738144
64	0x3da62706	0.08112912
65	0xbd213552	-0.03935749
66	0xbd994b7c	-0.074851006
67	0xbd4eadad	-0.0504586
68	0xbc02f31c	-0.007992532
69	0x3c3e2895	0.011606355
70	0x3de6aa71	0.11262978
71	0x3c9d3ba0	0.01919347
72	0xbb864bc9	-0.0040983898
73	0x3d40626b	0.04696886
74	0x3dc7bdee	0.09753023
75	0xbde3cb21	-0.11122728
76	0xbcaf14b0	-0.02137217
77	0xbdea6a87	-0.114461
78	0x3dc3cec2	0.0956092
79	0x3c265107	0.010151154
80	0xbd40a3f6	-0.047031365
81	0x3d3890f3	0.04506011
82	0x3c6e3717	0.014539502
83	0xbd060eeb	-0.03272907
84	0xbde781f9	-0.11304087
85	0xbdbb95e2	-0.09159447
86	0xbdc311d5	-0.095248856
87	0x3dbdeaab	0.09273275
88	0x3dbdbb47	0.09264236
89	0xbd17a3da	-0.037021495
90	0xbd71408a	-0.05889944
91	0x3d5fd042	0.05464197
92	0x3ca6fdac	0.020384632
93	0x3de28f0a	0.11062439
94	0x3d365939	0.044518683
95	0x3cde67dd	0.027149135
96	0x3d221a41	0.03957582
97	0xbd9a0860	-0.07521129
98	0x3ddf9dd2	0.10918774
99	0xbc2816e6	-0.010259366
100	0x3d8a5d60	0.06756091
101	0x3d88a004	0.066711456
102	0x3df8ad89	0.12142474
103	0xbd913b3b	-0.070913754
104	0xbdc76791	-0.097365506
105	0x3d3df95b	0.046380382
106	0xbd335078	-0.043777913
107	0x3beeedd6	0.007291536
108	0x3de4a412	0.111641064
109	0xbcf80888	-0.030277506
110	0x3d410ddf	0.04713237
111	0xbddc1daa	-0.107478455
112	0x3d224c82	0.039623745
113	0x3ce2d9d1	0.027691754
114	0x3d8e47d9	0.069472976
115	0xbd95154f	-0.07279455
116	0x3ccf1350	0.025277764
117	0xbdfc32be	-0.12314366
118	0x3d0f6889	0.035011802
119	0xbdcb5d2a	-0.09929879
120	0xbc82914f	-0.01593843
121	0xbde636de	-0.11240934
122	0xbbd6e2f6	-0.0065578176
123	0x3ce2cc0f	0.027685193
124	0x3ca3a815	0.019977609
125	0x3ddb9ca7	0.107232384
126	0xbc50b671	-0.01273881
127	0x3d9948b1	0.07484568
128	0x3d586adf	0.052836295
129	0xbdf3b41c	-0.118995875
130	0xbdd00339	-0.10156865
131	0xbd8a94ed	-0.067666866
132	0xbd70d7da	-0.058799602
133	0xbdb99e19	-0.09063358
134	0x3dc41375	0.09574024
135	0x3cab8d16	0.020941298
136	0x3d3bc247	0.045839574
137	0xbd993ff0	-0.07482898
138	0xbdec3487	-0.11533456
139	0x3b947b0a	0.004531269
140	0xbd0e166e	-0.03468936
141	0x3de978e3	0.114000104
142	0xbdb38e96	-0.087674305
143	0xbc60aef2	-0.013713585
144	0x3d29c714	0.04144962
145	0xbde87bd3	-0.113517426
146	0xbcf90682	-0.030398611
147	0xbd80a72b	-0.06281885
148	0x3dd4631b	0.10370465
149	0x3c9c8b19	0.019109296
150	0x3dcf21a3	0.101138376
151	0x3d0c77ec	0.034294054
152	0xbd125401	-0.035724644
153	0x3d5922f6	0.053011857
154	0x3d5b0dca	0.053479947
155	0xbd18d593	-0.037313055
156	0xbde657a3	-0.11247184
157	0x3d99cdd2	0.0750996
158	0x3d3aeb6a	0.045634665
159	0xbbba465f	-0.0056846584
160	0x3d8b0cf5	0.06789581
161	0x3d4be7c2	0.04978157
162	0xbdd7db7d	-0.10539911
163	0x3ce06cf0	0.027395695
164	0x3cf121bc	0.029435031
165	0x3d20ca13	0.039255213
166	0xbdb7b583	-0.089701675
167	0x3c9e69e5	0.019337604
168	0x3b2b1804	0.0026106844
169	0x3d8b87e2	0.06813027
170	0x3d3752d5	0.04475673
171	0x3cabb9ab	0.020962557
172	0xbb8bcd06	-0.004266384
173	0x3ddfced5	0.10928122
174	0x3d2c7d49	0.04211167
175	0xbd340842	-0.043953188
176	0x3d6238c4	0.055229917
177	0x3d2b3154	0.04179509
178	0x3d967d68	0.07348138
179	0xbd0fa399	-0.03506813
180	0x3d3e1e04	0.046415344
181	0xbb0af64d	-0.0021203936
182	0x3c5431a1	0.012951286
183	0x3dc80516	0.09766595
184	0xbdae17fb	-0.08500668
185	0xbd2f6d44	-0.042828813
186	0xbc04ead2	-0.008112626
187	0xbd2a4962	-0.04157389
188	0xbdda7dae	-0.10668503
189	0x3db11143	0.086458705
190	0xbbcff8a9	-0.0063467813
191	0x3d896abd	0.06709812
192	0xbd582853	-0.05277283
193	0x3c9506ba	0.018191684
194	0xbce6fe2f	-0.028197376
195	0xbd9314b7	-0.071816854
196	0x3cb4f8b5	0.022091249
197	0xbd2d2ddf	-0.042280074
198	0x3d56fc12	0.052486487
199	0xbdeeb247	-0.116550975
200	0x3dbd84ed	0.09253869
201	0x3dce7045	0.100800075
202	0xbd458322	-0.04822076
203	0x3c113093	0.008861679
204	0xbde1b6c1	-0.11021186
205	0x3db315c0	0.08744383
206	0x3dd50f77	0.1040334
207	0xbd4ef10f	-0.05052286
208	0x3d33986f	0.043846544
209	0xbd80d241	-0.06290103
210	0xbd742c3c	-0.059612498
211	0xbcf9f4a5	-0.030512163
212	0xbdea3298	-0.11435431
213	0x3d9b9c04	0.07598117
214	0xbdd016ec	-0.10160622
215	0x3d813ca7	0.06310397
216	0xbdeb1832	-0.11479224
217	0xbda2f0db	-0.07956096
218	0x3d1fb7af	0.038993534
219	0xbd5fd33b	-0.054644804
220	0xbd9f0f42	-0.07766582
221	0xbce03e42	-0.027373437
222	0xbdf5ecac	-0.12008032
223	0x3d9c3c38	0.07628673
224	0xbda07d24	-0.07836369
225	0xbde9b55a	-0.11411543
226	0xbddaf109	-0.10690505
227	0x3d03deba	0.03219483
228	0x3db8a1b7	0.0901522
229	0xbdafdb67	-0.085867696
230	0x3ca7c849	0.020481246
231	0xbd913051	-0.07089294
232	0xbd925683	-0.07145407
233	0x3d66e30c	0.056368873
234	0xbde7a61c	-0.1131098
235	0x3ae17d5e	0.00172035
236	0x3dbfe39d	0.09369586
237	0xbdb6917d	-0.089144684
238	0xbd3c9915	-0.046044428
239	0xbd842017	-0.06451433
240	0x3d22be62	0.039732344
241	0xbb5a1a7a	-0.0033279941
242	0x3cc5827b	0.02411007
243	0xbdb9a2aa	-0.09064229
244	0x3dde4ddc	0.10854694
245	0xbd6f1ea2	-0.058378823
246	0x3cc9aa47	0.024617327
247	0x3dd555f5	0.10416786
248	0xbd19c891	-0.03754479
249	0x3b86e105	0.00411618
250	0x3dd318a1	0.10307432
251	0xbd9f6d90	-0.07784569
252	0x3d99bda5	0.07506875
253	0x3d480a0b	0.048837703
254	0xbd1af310	-0.03782946
255	0x3d820dca	0.06350286
